line_recognition/current_model_2.pth (torch_old, 696205 bytes, 8 tensors)

block1.0.weight f4 [16, 3, 5, 5]
-0.13291955 0.034566972 -0.13105787 -0.053511214 -0.124843754 -0.00014599119 -0.16170937 -0.05503302
-0.11720125 -0.093823396 -0.047696535 -0.029663563 -0.039113652 -0.10545513 -0.03924741 -0.032216974
-0.00919258 -0.0008030191 -0.07529171 -0.15632148 -0.02320628 0.04528736 -0.14842094 -0.012079381
-0.046166796 0.05148845 -0.10158192 -0.13178244 0.040227935 -0.15066135 -0.06165677 -0.15674284
0.02253694 -0.15641312 -0.038537603 0.01327079 -0.0685139 -0.05611125 -0.007923613 -0.12178205
0.04272294 -0.04501812 -0.14940472 -0.0100887995 0.012205248 -0.07106589 -0.043084003 -0.10717152
-0.003620555 0.010427838 -0.09063559 -0.053017814 0.047400318 0.015526347 -0.0705305 -0.07746923
-0.18220372 -0.17840149 -0.15932076 -0.01856421 -0.14019807 -0.14091942 -0.065991655 -0.07873028
-0.08574006 -0.029685346 0.026346277 -0.12560976 -0.06646016 0.044174932 -0.12220281 -0.025285114
-0.02685705 -0.07924558 -0.11560224 -0.1616176 -0.13423216 -0.123273164 -0.12997094 -0.034030363
-0.03607843 -0.13822153 -0.040663138 -0.13355352 -0.04806327 0.023472771 -0.052063756 0.119118154
0.08214031 0.0049156426 -0.03986417 -0.0021988358 0.052269217 0.081690125 0.078361414 0.0557613
-0.010193352 0.1910383 0.06304215 0.16436712 -0.02493791 -0.14048234 -0.10666321 -0.1492934
-0.057841 -0.055107597 -0.056673393 -0.14139032 0.049019165 -0.06370698 -0.076399416 -0.060590845
0.008431434 0.050329067 0.0607368 0.08694124 0.14267817 0.034024127 0.0041005504 0.11250204
0.0053183977 -0.031130264 0.11931618 0.15257396 -0.010692155 -0.013167009 -0.06453712 -0.17781843
-0.038106453 0.06286597 -0.1656795 -0.18150516 -0.15537652 -0.079610676 0.035475835 0.0012231416
0.082954474 -0.04370645 -0.009385744 0.11001788 -0.091508426 0.085438356 0.14796609 0.16775353
0.08389278 0.12593825 0.048967518 0.10426591 0.11949934 0.13515255 -0.002571113 0.13855956
0.15366124 0.106977396 -0.0127147585 0.048967235 -0.0778244 0.09727948 0.067909054 0.12042874
0.11191486 0.037353624 -0.040443607 0.042545244 0.093268454 0.013308869 -0.03264762 -0.12672114
-0.050049458 0.03148116 0.041287087 -0.045788035 -0.21118864 -0.22671166 -0.21239027 0.07062178
0.055232942 0.12924647 -0.07029254 -0.034301024 -0.094578184 0.13635157 0.044410445 0.12461444
0.034241386 -0.07669438 0.10133952 -0.003474766 0.054920714 0.0048711128 0.051827796 0.026151342
-0.11712716 -0.11708458 -0.06349313 -0.021203067 -0.1181407 -0.017270565 -0.21631233 -0.043384425
-0.06660517 0.123842195 0.083332665 -0.0107293865 0.08355025 0.14041619 0.11670029 0.018197587
0.07420657 -0.061587695 0.06833605 0.05362372 0.03472071 -0.06910781 0.052198403 -0.04480537
0.05799688 -0.053681597 0.019308724 0.07599406 -0.1189159 -0.02905968 -0.19544213 -0.14632778
-0.11642817 -0.06320972 0.015818823 0.12498974 0.13230637 -0.055077367 -0.016833408 0.08545711
0.019757932 -0.05185632 -0.13674021 -0.0455604 0.024543758 0.02046441 -0.07019144 -0.12152664
-0.009442207 -0.021309022 -0.053319495 0.021479808 -0.012040093 0.047626514 -0.018267298 0.0041553327
0.10152922 0.009986683 -0.06343483 -0.060675785 0.066581346 0.08825537 0.00011455754 0.01210863
00000000: 101c 08be 1996 0d3d 0934 06be 932e 5bbd
00000010: 15ae ffbd 3615 19b9 2497 25be 4e6a 61bd
00000020: 3507 f0bd 7b26 c0bd 715d 43bd 0001 f3bc
00000030: a335 20bd dcf8 d7bd e4c1 20bd f2f5 03bd
00000040: 7a9c 16bc b381 52ba 8a32 9abd bd12 20be
00000050: 191b bebc 3d7f 393d a9fb 17be 99e8 45bc
00000060: 6519 3dbd 8ee5 523d 2f0a d0bd faf1 06be
00000070: 0cc6 243d f846 1abe cf8b 7cbd 3281 20be
00000080: 649f b83c c32a 20be 9bd9 1dbd ba6d 593c
00000090: 0451 8cbd e9d4 65bd 0bd2 01bc de68 f9bd
000000a0: 40fe 2e3d ec64 38bd 8dfd 18be 7e4b 25bc
000000b0: 85f8 473c fe8a 91bd da78 30bd be7c dbbd
000000c0: d546 6dbb 86d9 2a3c 279f b9bd 3529 59bd
000000d0: d626 423d 3862 7e3c 4b72 90bd 30a8 9ebd
000000e0: 9d93 3abe e1ae 36be fb24 23be f813 98bc
000000f0: 1590 0fbe 2e4d 10be a226 87bd 573d a1bd
00000100: 7c98 afbd af2e f3bc 26d4 d73c d89f 00be
00000110: 441c 88bd c6f0 343d 7845 fabd ba22 cfbc
00000120: 5103 dcbc 824b a2bd dec0 ecbd 167f 25be
00000130: 2874 09be a476 fcbd 1a17 05be 6c63 0bbd
00000140: fac6 13bd f289 0dbe 648e 26bd 41c2 08be
00000150: fedd 44bd f849 c03c ce40 55bd 38f4 f33d
00000160: 2e39 a83d 6613 a13b 9d48 23bd 581a 10bb
00000170: 3f18 563d 274d a73d f37b a03d f665 643d
00000180: 0402 27bc 8b9f 433e 3e1c 813d db4f 283e
00000190: 964a ccbc 9ada 0fbe 3e72 dabd 5ee0 18be
000001a0: afea 6cbd 81b8 61bd 5c22 68bd a0c8 10be
000001b0: 52c8 483d ce78 82bd 4c77 9cbd 1b2e 78bd
000001c0: ff23 0a3c da25 4e3d 27c7 783d 400e b23d
000001d0: 3a1a 123e e25c 0b3d e95d 863b 7867 e63d
000001e0: f445 ae3b e504 ffbc 0b5c f43d 593c 1c3e
000001f0: 262e 2fbc 70ba 57bc 0a2c 84bd 0916 36be
00000200: 8315 1cbd e0bf 803d e3a7 29be 7ddc 39be
00000210: 061b 1fbe ec0a a3bd 1c4f 113d d251 a03a
00000220: 09e4 a93d 8905 33bd aac6 19bc 0e51 e13d
00000230: c568 bbbd 4efa ae3d 6c84 173e 95c7 2b3e
00000240: facf ab3d f5f5 003e 2a92 483d 5e89 d53d
00000250: 12bc f43d 6e65 0a3e 1e80 28bb 8fe2 0d3e
00000260: 5f59 1d3e f716 db3d 9051 50bc de91 483d
00000270: 6662 9fbd 773a c73d e713 8b3d 58a3 f63d
00000280: 9e33 e53d 1d00 193d 32a8 25bd ec43 2e3d
00000290: 8803 bf3d 710d 5a3c 83b9 05bd 30c3 01be
000002a0: a900 4dbd 64f2 003d a61c 293d 3c8c 3bbd
000002b0: d641 58be 1a27 68be d67c 59be 27a2 903d
000002c0: f03b 623d 3059 043e 89f5 8fbd 3b7f 0cbd
000002d0: 35b2 c1bd bf9f 0b3e bae7 353d db35 ff3d
000002e0: b240 0c3d f111 9dbd 188b cf3d e6b8 63bb
000002f0: 8bf4 603d db9d 9f3b 6249 543d 573b d63c
00000300: 5de0 efbd 0aca efbd b008 82bd 0eb2 adbc
00000310: c0f3 f1bd 007b 8dbc fb80 5dbe deb3 31bd
00000320: 4b68 88bd faa0 fd3d 51aa aa3d 4fca 2fbc
00000330: 651c ab3d 43c9 0f3e 9000 ef3d 1b13 953c
00000340: 9df9 973d 6143 7cbd c5f3 8b3d 8ca4 5b3d
00000350: 4e37 0e3d 6588 8dbd fecd 553d d685 37bd
00000360: 238e 6d3d 3ce1 5bbd 542d 9e3c c6a2 9b3d
00000370: 2e8a f3bd 910e eebc fb21 48be f3d6 15be
00000380: e471 eebd 1974 81bd 7a96 813c 9ffa ff3d
00000390: 527b 073e ce98 61bd 37e6 89bc 2304 af3d
000003a0: 63db a13c 4b67 54bd a005 0cbe 8b9d 3abd
000003b0: fe0f c93c faa4 a73c 88c0 8fbd f6e2 f8bd
000003c0: 7db3 1abc 4290 aebc 8b65 5abd 6cf6 af3c
000003d0: cf43 45bc 0514 433d 4da5 95bc 7529 883b
000003e0: 8dee cf3d 2f9f 233c 1fea 81bd 2c87 78bd
000003f0: cd5b 883d 3bbf b43d 9c3e f038 4663 463c

block1.0.bias f4 [16]
-0.16752782 0.044882085 0.105285056 0.06519183 -0.077050105 -0.12000573 -0.14759937 -0.0032826087
-0.10433737 0.17306413 0.07184289 0.0383029 0.04002716 -0.0024161937 -0.02450686 -0.083746165
00000000: 6a8c 2bbe 47d6 373d b19f d73d 4b83 853d
00000010: 72cc 9dbd 90c5 f5bd 4a24 17be 0921 57bb
00000020: d5ae d5bd b937 313e 5d22 933d 80e3 1c3d
00000030: 85f3 233d 0159 1ebb 9cc2 c8bc 1c83 abbd

block2.0.weight f4 [32, 16, 5, 5]
0.061250422 0.06461948 -0.00090520876 0.05602185 -0.03440641 0.070710294 0.007482162 0.007946013
0.0021247927 0.041700263 0.033065476 0.044663683 0.031180136 0.048926968 0.007116035 -0.014641237
0.0584185 0.029556505 0.022517169 -0.0006908707 0.0031963543 -0.013142686 -0.018535517 -0.015565578
0.025431504 -0.06529288 0.017688273 -0.00032767758 -0.00030262288 -0.051710047 -0.008732357 -0.03447274
-0.038114868 -0.03751208 0.020551194 -0.0075864154 -0.021407096 -0.1406663 -0.029813563 0.039612517
-0.014127706 0.102694 0.17399365 0.22094913 0.17955254 -0.04029163 0.06295285 0.20388791
0.26495382 0.14874159 -0.121252276 -0.11549969 -0.14070292 -0.12979448 -0.12954803 0.039278388
0.1449452 0.115643196 0.0017120809 -0.0686971 -0.07367949 0.07990449 0.09607581 0.073650256
-0.09899388 0.008748702 0.053166986 -0.02205448 -0.0066435565 -0.04910276 0.037665993 0.056129627
-0.0177183 0.016533313 0.0062257797 0.06429728 0.08460405 -0.049288914 0.021895595 0.02181681
0.039863307 0.015532198 0.03698466 0.0073604146 -0.023666376 0.004461522 0.0042990893 0.05438206
-0.008154269 -0.02843869 -0.042922027 0.08503989 0.036295425 -0.043188456 -0.028479382 0.064643204
0.065529816 -0.010542436 0.011314561 0.018229118 -0.14597528 -0.15623063 -0.1694981 -0.08831844
-0.13054751 -0.0008761956 0.084702395 0.06717636 0.009881261 -0.10164271 0.048657667 0.18008876
0.24646837 0.13832651 -0.022385737 0.04501314 0.09637974 0.15511635 0.1693029 0.09658251
0.0018151872 -0.040265158 0.0054173847 -0.007012887 0.093006484 0.047979955 0.024517741 0.014279248
0.013541613 0.007314734 0.05572136 0.01276551 0.028031286 0.026762046 0.0019593956 0.009897053
0.023693176 0.04208039 0.06406457 0.042664856 0.021369152 0.011471132 0.09442854 0.051079445
0.057930775 0.014383567 0.02237122 0.05355812 0.0060866075 -0.005414152 0.018251823 0.02858567
-0.02255407 0.041752104 0.026714878 0.06965798 0.0340789 0.035648447 0.05429799 -0.0148210805
0.050268874 0.07152298 0.09622901 0.032188397 0.058237057 0.03897009 -0.005646336 0.07332975
0.044118743 0.021420358 -0.046762962 0.032630984 0.03198778 -0.037177283 -0.023315055 -0.03342463
0.03961653 -0.01926039 0.030652704 -0.02040325 0.02451089 0.014313795 -0.00077436806 0.014539689
-0.03276983 0.0061118416 -0.05228976 0.033746745 -0.02732116 -0.039300863 -0.02924221 -0.015134344
0.040482853 0.012791974 0.018362185 0.0037673442 0.026907967 -0.010571972 0.049408823 -0.04594606
-0.054606788 0.028421786 -0.04179708 -0.062932305 -0.04758367 0.051674563 -0.011686253 -0.014299789
0.026227275 -0.0018059254 0.034631133 -0.040706657 0.022144245 -0.026444754 -0.016624458 0.0028519263
0.0675307 0.06952708 0.07222323 0.00700699 -0.017314766 -0.038072463 0.07069195 0.0061709164
0.047054086 -0.01885533 0.022395931 -0.04970395 0.026298603 -0.049898352 -0.036437247 -0.03609656
-0.082839295 -0.067794435 -0.09016376 0.04069114 0.06675712 0.028050173 0.023348467 -0.09066785
0.05996363 0.13410193 0.13224734 0.0844289 -0.06252564 -0.02778405 0.09040397 0.067860685
0.012630883 -0.04793451 -0.0680255 -0.084898494 -0.109322436 -0.07602834 -0.15084812 -0.0867755
00000000: b9e1 7a3d 3857 843d 884b 6dba 2b77 653d
00000010: bced 0cbd 8fd0 903d ed2c f53b fe2f 023c
00000020: 1b40 0b3b e5cd 2a3d aa6f 073d 44f1 363d
00000030: 7c6d ff3c a567 483d a12d e93b cde1 6fbc
00000040: 3d48 6f3d 7c20 f23c ed75 b83c 8c1b 35ba
00000050: ed79 513b 6c54 57bc ccd7 97bc c406 7fbc
00000060: bb55 d03c 46b8 85bd ffe6 903c 24cc abb9
00000070: 5ba9 9eb9 eacd 53bd 2912 0fbc 4a33 0dbd
00000080: 561e 1cbd 44a6 19bd fa5a a83c 7797 f8bb
00000090: ef5d afbc d40a 10be 933b f4bc bc40 223d
000000a0: e577 67bc 3b51 d23d 642b 323e 7d40 623e
000000b0: 9fdc 373e d608 25bd 6ced 803d fec7 503e
000000c0: 07a8 873e b74f 183e 1d53 f8bd 1a8b ecbd
000000d0: 6d14 10be d8e8 04be 3da8 04be 60e2 203d
000000e0: 846c 143e 57d6 ec3d e767 e03a 11b1 8cbd
000000f0: 46e5 96bd f7a4 a33d 65c3 c43d f2d5 963d
00000100: 4ebd cabd b756 0f3c a0c5 593d 99ab b4bc
00000110: 31b2 d9bb fa1f 49bd a847 1a3d 2ee8 653d
00000120: f825 91bc df70 873c a001 cc3b 4bae 833d
00000130: e344 ad3d 2ce3 49bd 645e b33c 2bb9 b23c
00000140: b547 233d c37a 7e3c 3a7d 173d a22f f13b
00000150: fddf c1bc f631 923b 60df 8c3b b9bf 5e3d
00000160: 7c99 05bc 41f8 e8bc 02cf 2fbd 6529 ae3d
00000170: 83aa 143d 61e6 30bd 984d e9bc a863 843d
00000180: 7f34 863d 2eba 2cbc b560 393c 3b55 953c
00000190: 8b7a 15be ecfa 1fbe e990 2dbe 4ce0 b4bd
000001a0: 3fae 05be 7eb0 65ba 7378 ad3d c293 893d
000001b0: 03e5 213c 0e2a d0bd 434d 473d 3069 383e
000001c0: 3462 7c3e 77a5 0d3e 4b62 b7bc b35f 383d
000001d0: be62 c53d d2d6 1e3e bd5d 2d3e 0dcd c53d
000001e0: 93eb ed3a 14ed 24bd 5184 b13b 5ccc e5bb
000001f0: 2f7a be3d a186 443d 6ed9 c83c 82f3 693c
00000200: a4dd 5d3c 70b0 ef3b 153c 643d 6e26 513c
00000210: dea1 e53c 143c db3c 3469 003b 4027 223c
00000220: 3118 c23c 7d5c 2c3d 4934 833d 58c1 2e3d
00000230: 5c0e af3c 6af1 3b3c c063 c13d ae38 513d
00000240: d248 6d3d 0da9 6b3c d943 b73c c25f 5b3d
00000250: 2a72 c73b 3369 b1bb d984 953c 7f2c ea3c
00000260: 50c3 b8bc 4104 2b3d 29d9 da3c d8a8 8e3d
00000270: 5196 0b3d 1b04 123d 9267 5e3d 1ed4 72bc
00000280: bce6 4d3d a47a 923d b713 c53d fbd7 033d
00000290: fb89 6e3d 1a9f 1f3d e604 b9bb e82d 963d
000002a0: dbb5 343d bf79 af3c 858a 3fbd 11a8 053d
000002b0: 9e05 033d 3547 18bd 37ff bebc 44e8 08bd
000002c0: f144 223d f7c7 9dbc 611b fb3c b724 a7bc
000002d0: 10cb c83c 6884 6a3c f6fe 4aba e037 6e3c
000002e0: a839 06bd d845 c83b ca2d 56bd 073a 0a3d
000002f0: a0d0 dfbc f1f9 20bd 5c8d efbc 0af6 77bc
00000300: 59d1 253d 6d95 513c 4b6c 963c 8ce5 763b
00000310: 196e dc3c 1036 2dbc e860 4a3d f031 3cbd
00000320: 5eab 5fbd ced4 e83c 6a33 2bbd a7e2 80bd
00000330: 18e7 42bd b5a8 533d b377 3fbc aa49 6abc
00000340: 95da d63c cdb4 ecba 60d9 0d3d 06bc 26bd
00000350: d967 b53c aba2 d8bc 0430 88bc 62e7 3a3b
00000360: 894d 8a3d 3764 8e3d c6e9 933d e49a e53b
00000370: b2d7 8dbc dff1 1bbd f1c6 903d 6635 ca3b
00000380: c9bb 403d 7e76 9abc ac77 b73c 5e96 4bbd
00000390: 2b70 d73c 3762 4cbd 393f 15bd fdd9 13bd
000003a0: a6a7 a9bd cfd7 8abd c7a7 b8bd c1ab 263d
000003b0: f5b7 883d 7ac9 e53c 4945 bf3c 11b0 b9bd
000003c0: 6c9c 753d 0452 093e d96b 073e 0fe9 ac3d
000003d0: 710d 80bd 609b e3bc b725 b93d 8bfa 8a3d
000003e0: c3f1 4e3c fa56 44bd f450 8bbd 43df adbd
000003f0: 71e4 dfbd bfb4 9bbd ee77 1abe 5ab7 b1bd

block2.0.bias f4 [32]
-0.07651743 -0.04511773 -0.06477975 0.07286253 -0.09582554 0.052489243 -0.054844704 -0.08948922
-0.034240328 0.084807046 -0.05865934 -0.06423343 -0.051109273 0.052043047 0.064476065 0.045570612
-0.069387026 -0.008033788 -0.048656512 -0.097055085 -0.07873671 0.060099684 -0.0456762 -0.0628007
0.047062114 -0.026682867 0.07899897 -0.05305377 -0.04414962 -0.08847262 0.056219276 -0.046902344
00000000: 2cb5 9cbd 5ecd 38bd 3fab 84bd f338 953d
00000010: 2e40 c4bd f6fe 563d d7a4 60bd 2046 b7bd
00000020: 963f 0cbd 51af ad3d c744 70bd d18c 83bd
00000030: f557 51bd 172b 553d 070c 843d 40a8 3a3d
00000040: c91a 8ebd 26a0 03bc 0d4c 47bd d1c4 c6bd
00000050: b640 a1bd 162b 763d f816 3bbd a79d 80bd
00000060: 34c4 403d 0796 dabc 36ca a13d e94e 59bd
00000070: 3bd6 34bd 2231 b5bd 2f46 663d ac1c 40bd

block3.0.weight f4 [100, 1568]
0.05217576 0.046519384 0.010098311 0.0011339439 0.026661715 0.0312112 0.027370546 -0.0024239148
0.044439137 0.03207656 0.032234296 0.009289038 0.016258832 0.00021095992 -0.13167664 -0.0913675
-0.06759035 0.014027666 0.03541284 0.020286178 -0.0069773635 -0.033409677 -0.054226458 -0.021856917
0.045301877 0.081266545 0.077495545 0.026851218 0.028541753 0.083423436 0.06319821 -0.02144075
-0.01583233 0.011492898 -0.016870422 0.02273336 0.022998359 0.016699363 -0.08176727 -0.046806674
-0.002097245 -0.051951118 0.02605897 0.033958733 0.03561764 0.013180098 0.004944479 -0.0014592257
0.050099112 0.06408641 0.027962554 0.021475447 0.020167649 0.016202793 0.04389582 0.014491722
-0.018216453 0.04235084 0.0017584576 0.0044418667 0.047707133 0.0036291082 0.013647193 -0.104327984
-0.11946301 -0.10548108 -0.004905224 0.058529448 0.03902675 0.011883982 -0.03640853 -0.06079668
-0.006959098 0.02647155 0.062023774 0.08496855 0.020363843 0.057062253 0.07392184 0.038580384
-0.0039676283 -0.018707205 -0.029087573 -0.02812187 0.02205223 0.012117389 0.014788202 -0.074772924
-0.06920418 -0.036793724 -0.05134158 0.01160949 0.0012685024 -0.0017006061 0.012538072 0.0043474142
0.011269273 0.036383647 0.04068428 0.015473525 0.0065392875 0.0039934926 0.012076546 0.055272076
0.014195045 -0.03785364 -0.029572088 0.027543679 0.03656314 0.02546743 0.040145047 0.048618592
-0.0934062 -0.17417936 -0.1318974 -0.009887129 0.0792253 0.06317365 -0.012870395 0.026244383
-0.021623697 0.021256367 0.042053103 0.08363771 0.108395524 0.017000508 0.11126519 0.06934817
0.014762574 -0.06267911 -0.03097116 0.012959494 -0.055275947 -0.0040217387 0.062320832 0.049119875
-0.045125894 -0.043961003 0.02713498 -0.06576215 -0.012306946 0.04130942 0.011286447 0.05493153
0.08676608 0.07298942 0.03932714 -0.028770773 -0.037136983 0.009728566 0.00437175 -0.03271739
-0.04327118 -0.0021304367 -0.0026456479 0.03186413 -0.017173884 -0.031012084 0.01414639 0.015935278
-0.020197853 0.125948 0.09436493 0.059925478 -0.0322342 -0.062484294 -0.018541902 -0.008178522
-0.0012802175 0.038972937 0.034100298 -0.022737566 -0.063745536 -0.0530723 -0.023841182 -0.0861809
-0.14874522 -0.100508 0.011799662 0.13181822 0.12743452 0.06385953 0.0626789 0.046517387
0.03131766 0.080120586 0.11513347 0.058054402 0.0038056017 0.03272979 0.02835202 0.049979042
-0.02519725 -0.075229906 -0.07172851 -0.022805745 0.059527844 0.05706229 0.022146273 0.018166253
0.08558478 0.06211253 0.0472483 0.04080687 0.022459976 0.006211445 -0.013270808 0.023754261
0.014946658 -0.006810043 -0.09559526 -0.07219233 -0.007518821 0.063205816 0.035790067 0.013692113
-0.0038653861 -0.10863496 -0.13959971 -0.084985256 0.017332004 0.078147784 0.048275962 -0.0354385
0.07984392 0.027246095 0.050728552 0.0360949 0.04779708 0.009561529 -0.012959091 0.0055215284
0.014280479 0.031940598 -0.09191158 -0.042605054 0.000111259804 -0.048541814 -0.035987243 0.033130415
0.061286002 -0.018255197 -0.05756241 -0.046952598 -0.0075441687 0.03444739 0.0021195067 -0.010268052
-0.0439517 -0.00031368682 0.009713192 0.031727646 0.041532733 0.035943285 -0.00939814 -0.011589281
00000000: 40b6 553d 1c8b 3e3d 6373 253c d8a0 943a
00000010: ab69 da3c a1ae ff3c 3238 e03c 8bda 1ebb
00000020: d005 363d b662 033d 1c08 043d 0d31 183c
00000030: 3e31 853c 1f35 5d39 3ed6 06be e21e bbbd
00000040: cf6c 8abd 4cd4 653c 0e0d 113d 332f a63c
00000050: 5ea2 e4bb 96d8 08bd 901c 5ebd 470d b3bc
00000060: 768e 393d 136f a63d fcb5 9e3d 16f7 db3c
00000070: 65d0 e93c e8d9 aa3d 106e 813d 83a4 afbc
00000080: cdb2 81bc b54c 3c3c d733 8abc 503b ba3c
00000090: 0e67 bc3c 1acd 883c 9975 a7bd 5bb8 3fbd
000000a0: ef71 09bb b2ca 54bd 9f79 d53c 5018 0b3d
000000b0: cde3 113d 56f1 573c 4c05 a23b 7d43 bfba
000000c0: ba34 4d3d bc3f 833d ba11 e53c 47ed af3c
000000d0: a036 a53c b8bb 843c 1acc 333d b06e 6d3c
000000e0: ac3a 95bc 1378 2d3d 0c7c e63a 148d 913b
000000f0: 8e68 433d 55d6 6d3b 7a98 5f3c e9a9 d5bd
00000100: 06a9 f4bd 7706 d8bd 00bc a0bb 93bc 6f3d
00000110: 83da 1f3d 09b5 423c 1c21 15bd f105 79bd
00000120: 2509 e4bb ddda d83c a40c 7e3d fe03 ae3d
00000130: 13d2 a63c 1cba 693d 5564 973d 7706 1e3d
00000140: e102 82bb da3f 99bc 1049 eebc d65f e6bc
00000150: e1a6 b43c 0388 463c 374a 723c 8c22 99bd
00000160: ecba 8dbd 04b5 16bd 8c4b 52bd bb35 3e3c
00000170: e143 a63a dfe6 deba 7c6c 4d3c c174 8e3b
00000180: c2a2 383c 0507 153d 8fa4 263d ab84 7d3c
00000190: 8547 d63b d8db 823b b5dc 453c f964 623d
000001a0: 5692 683c 6b0c 1bbd 2a41 f2bc 48a3 e13c
000001b0: 3bc3 153d 12a1 d03c 226f 243d 4a24 473d
000001c0: c04b bfbd 135c 32be 1d10 07be a0fd 21bc
000001d0: e040 a23d 3061 813d 59de 52bc 76fe d63c
000001e0: 2e24 b1bc d521 ae3c e03f 2c3d 3f4a ab3d
000001f0: 79fe dd3d a644 8b3c 01df e33d 6a06 8e3d
00000200: b9de 713c e85d 80bd 3bb7 fdbc 0f54 543c
00000210: 0869 62bd cac8 83bb 2144 7f3d ec31 493d
00000220: eed5 38bd 7410 34bd 2d4a de3c 4eae 86bd
00000230: 13a3 49bc 1134 293d caea 383c e2ff 603d
00000240: 6ab2 b13d 7a7b 953d 7f15 213d afb0 ebbc
00000250: f31c 18bd 9064 1f3c e640 8f3b ac02 06bd
00000260: 1f3d 31bd cc9e 0bbb 9b62 2dbb f683 023d
00000270: 3fb0 8cbc 0e0d febc 43c6 673c b38a 823c
00000280: f875 a5bc 83f8 003e 6742 c13d 6b74 753d
00000290: 0208 04bd 88ef 7fbd 30e5 97bc 35ff 05bc
000002a0: f9cc a7ba 16a2 1f3d c1ac 0b3d 2244 babc
000002b0: 058d 82bd 5762 59bd 954e c3bc 9d7f b0bd
000002c0: ab50 18be 23d7 cdbd 5f53 413c 5bfb 063e
000002d0: 327e 023e c9c8 823d cc5d 803d 0489 3e3d
000002e0: f246 003d 4316 a43d 19cb eb3d 74ca 6d3d
000002f0: 6767 793b ac0f 063d 7f42 e83c d3b6 4c3d
00000300: 776a cebc 2312 9abd 66e6 92bd 1dd3 babc
00000310: 78d3 733d 26ba 693d 1a6c b53c 65d1 943c
00000320: 1347 af3d b569 7e3d 6f87 413d 1b25 273d
00000330: fcfd b73c 6189 cb3b ce6d 59bc 4c98 c23c
00000340: d4e2 743c c826 dfbb 73c7 c3bd 93d9 93bd
00000350: 7160 f6bb 0d72 813d 9b98 123d e254 603c
00000360: 6b52 7dbb 027c debd 3af3 0ebe c00c aebd
00000370: d9fb 8d3c f20b a03d 04bd 453d f627 11bd
00000380: 3685 a33d 3433 df3c bec8 4f3d 3fd8 133d
00000390: dfc6 433d f6a7 1c3c 5e52 54bc f0ed b43b
000003a0: acf8 693c 25d4 023d 233c bcbd a382 2ebd
000003b0: 2754 e938 c8d3 46bd 5c67 13bd c2b3 073d
000003c0: 0807 7b3d ec8b 95bc 90c6 6bbd 5e51 40bd
000003d0: 1335 f7bb b518 0d3d 6ce7 0a3b 553b 28bc
000003e0: b306 34bd 5576 a4b9 1424 1f3c d9f4 013d
000003f0: 3a1e 2a3d 4439 133d a8fa 19bc f8e0 3dbc

block3.0.bias f4 [100]
0.023490027 0.059432443 0.017924704 0.046797182 -0.000706603 0.033626635 -0.02229739 -0.008889491
0.017379068 -0.020503405 0.04721936 -0.01841091 0.028299708 0.00092484016 -0.013405491 -0.04491175
0.04075544 0.021275094 0.046338696 0.0041648797 0.06203879 -0.041077476 -0.021788776 -0.009442138
0.021751728 0.04391928 0.002817147 -0.026888985 -0.0983864 0.0024607894 -0.006057419 -0.016098162
-0.00825167 0.007567143 0.0046710283 0.008619302 0.0028904695 -0.0490643 0.01878946 -0.007582234
0.01997745 0.014887596 0.013145624 0.02436767 -0.028192831 -0.02095223 -0.023122352 0.04448841
-0.011636284 -0.03586457 -0.016748277 0.014623293 0.045434937 -0.020667315 -0.023774296 -0.034363646
0.018287763 0.045423485 0.001697391 -0.002230113 -0.0398417 0.001523031 0.042132296 -0.031588577
-0.0115612475 0.06414252 -0.013374772 0.03163586 -0.03731895 0.027404713 0.05327517 -0.047497194
0.028349094 -0.030981796 -7.75927e-05 -0.011954098 0.05280001 -0.034665305 -0.0077567026 -0.023334278
0.031506598 0.012593497 -0.021983529 -0.046509862 -0.021410001 0.022745034 -0.018201862 0.0023494181
0.029734299 0.032257494 -0.01227233 0.03868465 -0.020445358 0.059018385 -0.046335086 -0.031104611
0.004814071 0.012044476 0.05325168 -0.022190973
00000000: 286e c03c 6f6f 733d d4d6 923c 67ae 3f3d
00000010: 533b 39ba 15bc 093d 04a9 b6bc 3aa5 11bc
00000020: 8c5e 8e3c c2f6 a7bc 1669 413d 7ad2 96bc
00000030: cad4 e73c f970 723a b4a2 5bbc 62f5 37bd
00000040: 2def 263d 1b49 ae3c a5cd 3d3d 8b79 883b
00000050: 631c 7e3d db40 28bd 607e b2bc 32b3 1abc
00000060: ae30 b23c b4e4 333d e29f 383b 4a46 dcbc
00000070: cf7e c9bd 3245 213b 507d c6bb 4be0 83bc
00000080: 0332 07bc ccf5 f73b 6d0f 993b f937 0d3c
00000090: 086e 3d3b a6f7 48bd 5bec 993c 6474 f8bb
000000a0: c0a7 a33c 1aeb 733c be60 573c b59e c73c
000000b0: a7f4 e6bc 03a4 abbc 166b bdbc 7b39 363d
000000c0: 1da6 3ebc bae6 12bd af33 89bc 8996 6f3c
000000d0: fc19 3a3d 804e a9bc 50c2 c2bc e5c0 0cbd
000000e0: 38d0 953c fa0d 3a3d fe7a de3a 1627 12bb
000000f0: 0d31 23bd 71a0 c73a ea92 2c3d 0663 01bd
00000100: 636b 3dbc 275d 833d dc21 5bbc 9b94 013d
00000110: c1db 18bd d97f e03c 1137 5a3d 6b8c 42bd
00000120: 5c3c e83c 89cd fdbc 43b9 a2b8 1fdb 43bc
00000130: d344 583d 35fd 0dbd f02b febb 8727 bfbc
00000140: 100d 013d f454 4e3c cd16 b4bc 2081 3ebd
00000150: 0764 afbc cb53 ba3c 121c 95bc b2f8 193b
00000160: 5895 f33c 6f20 043d e211 49bc cc73 1e3d
00000170: 067d a7bc 43bd 713d dcc9 3dbd 19cf febc
00000180: 5bbf 9d3b 3256 453c 6f1e 5a3d d8c9 b5bc

block3.2.weight f4 [27, 100]
-0.06557187 -0.035934515 -0.042952143 0.049160913 -0.046401475 0.04092864 -0.05101555 0.083732076
-0.042072043 -0.17998688 -0.020344455 0.07230594 -0.036348097 -0.079404384 -0.021180015 -0.1156198
0.07345571 -0.0017364842 -0.12107757 -0.04085543 -0.06502499 0.029310683 -0.018717416 0.073804885
-0.11978918 -0.04144997 0.0643238 0.0616161 -0.11080968 0.09818357 0.07377485 0.03357374
0.093856454 0.07326888 0.03291953 -0.06932243 0.011840365 -0.19958374 0.10722081 -0.003902315
-0.029508742 -0.007282402 -0.015977927 -0.10755021 -0.059287697 -0.07916494 0.0544707 -0.014487338
0.037387405 -0.088800274 -0.11677036 -0.10290799 0.14522187 -0.14084867 0.057358727 -0.015312735
0.068087526 0.0117129935 -0.095854275 0.1332345 -0.08450752 -0.06060214 0.14383672 -0.1425052
-0.051554885 -0.06406751 0.015167967 0.00067429047 -0.20809259 0.0047944696 -0.071001105 -0.2038845
-0.040987935 -0.028364243 -0.032315742 -0.035000443 0.11753589 -0.010307724 0.025256252 0.084952
-0.03116199 0.08338394 0.003342652 -0.08783338 -0.13741836 0.033058137 0.027002303 0.03549849
0.044349227 -0.016695397 -0.10247638 -0.10079868 -0.003207591 0.11054555 -0.030593488 0.01084992
-0.20784014 -0.0035409816 0.08540675 0.091197245 -0.053265657 0.008897434 0.04246489 0.082770534
-0.060827944 -0.026775198 -0.08602091 0.12220312 0.0031717822 -0.00810703 -0.011104022 -0.07509574
0.08054151 0.032754138 0.0151609015 -0.08371593 -0.011439176 -0.062368896 -0.023588732 -0.008778396
0.03451507 0.0073418226 -0.035732955 -0.11006477 0.0872059 0.080435835 0.025592394 -0.0720554
-0.08907036 0.07401044 -0.09192662 -0.059646927 -0.032800995 0.059658516 0.080050275 -0.13523676
0.044535007 -0.08880468 0.09329196 -0.109785944 -0.034882106 0.15157264 0.13645746 -0.18366781
-0.060215037 0.012552267 0.09812919 -0.2674404 0.11057878 0.09268562 -0.0744932 -0.12613921
0.04610729 -0.09171526 -0.004920999 0.013365179 0.05011251 -0.04910378 0.083826035 -0.049591973
-0.03917786 -0.057393283 -0.04245533 -0.16657867 0.11032566 -0.039811235 -0.028923858 -0.22541375
-0.18507847 0.035667017 -0.10565308 -0.040375922 0.068257526 -0.07209707 0.08091047 -0.021445375
0.06849972 -0.0888251 0.034885492 -0.088532194 -0.03573195 -0.01793597 -0.022755684 0.01137587
-0.003344686 0.09537042 0.034736697 0.095329955 0.100504905 -0.023283511 -0.01225307 -0.13028692
0.043243907 0.0011617271 -0.01911349 -0.07326653 -0.24514738 0.076547876 -0.16895434 -0.098795764
-0.08902284 0.103412665 -0.006099927 0.11712643 -0.002652663 -0.11381171 0.0629215 -0.07654804
0.039086945 -0.11410198 -0.05112187 -0.06767863 0.025957117 -0.043684606 0.026695661 -0.13059215
0.073651165 -0.058960147 -0.15372202 0.04165375 0.13810752 0.06269522 -0.050752673 -0.084820285
0.08480543 -0.024231667 -0.04253001 0.047489885 0.075655915 0.016367493 -0.03874156 0.016819866
-0.05773443 -0.004745851 -0.09256171 -0.08930506 0.026963837 -0.05624545 0.040445097 -0.14576232
-0.00835123 0.010986526 -0.14154352 -0.13528323 0.07637502 -0.01014168 0.11189105 0.08144919
0.11679669 -0.017307669 -0.0048043653 -0.093109876 0.051045615 -0.10226379 0.09759809 0.02615368
00000000: 8b4a 86bd 1230 13bd 96ee 2fbd f45c 493d
00000010: 790f 3ebd caa4 273d aef5 50bd b97b ab3d
00000020: bc53 2cbd 7b4e 38be 6aa9 a6bc 2315 943d
00000030: bee1 14bd c49e a2bd b681 adbc 13ca ecbd
00000040: f36f 963d be9a e3ba 84f7 f7bd 0658 27bd
00000050: d22b 85bd f51c f03c 4455 99bc 0427 973d
00000060: 0854 f5bd 72c7 29bd 32bc 833d 2a61 7c3d
00000070: 2ff0 e2bd 7814 c93d 4517 973d 9e84 093d
00000080: d037 c03d ff0d 963d a1d6 063d ebf8 8dbd
00000090: 17fe 413c ae5f 4cbe 9696 db3d fbbd 7fbb
000000a0: 51bc f1bc 37a1 eebb 24e4 82bc 4943 dcbd
000000b0: a8d7 72bd 3a21 a2bd ab1c 5f3d 4d5c 6dbc
000000c0: 8923 193d ebdc b5bd 4c25 efbd 6dc1 d2bd
000000d0: 0bb5 143e a23a 10be fcf0 6a3d 44e2 7abc
000000e0: 7971 8b3d dbe7 3f3c 3f4f c4bd a06e 083e
000000f0: 4712 adbd f339 78bd ef49 133e e2ec 11be
00000100: 372b 53bd d435 83bd 1183 783c dec2 303a
00000110: 3916 55be ed1a 9d3b 0769 91bd 19c7 50be
00000120: f7e2 27bd 215c e8bc 835d 04bd a05c 0fbd
00000130: a8b6 f03d bae1 28bc 33e6 ce3c 50fb ad3d
00000140: 6e47 ffbc 33c5 aa3d 6510 5b3b fde1 b3bd
00000150: 66b7 0cbe f867 073d ef33 dd3c dd66 113d
00000160: 89a7 353d c9c4 88bc 23df d1bd 8a6f cebd
00000170: 7236 52bb b565 e23d 329f fabc ddc3 313c
00000180: 0cd4 54be d00f 68bb bce9 ae3d 9fc5 ba3d
00000190: 172d 5abd 8bc6 113c aaef 2d3d 9983 a93d
000001a0: b926 79bd a957 dbbc bb2b b0bd a145 fa3d
000001b0: addd 4f3b 59d3 04bc a5ed 35bc cccb 99bd
000001c0: f2f2 a43d 3429 063d 6e65 783c 4273 abbd
000001d0: 626b 3bbc 8776 7fbd 283d c1bc 43d3 0fbc
000001e0: ad5f 0d3d ac93 f03b b85c 12bd a369 e1bd
000001f0: 0299 b23d 8bbb a43d 24a7 d13c c891 93bd
00000200: 856a b6bd c992 973d 0644 bcbd 5650 74bd
00000210: 565a 06bd 7d5c 743d 66f1 a33d 817b 0abe
00000220: 576a 363d 3adf b5bd db0f bf3d 74d7 e0bd
00000230: 8ae0 0ebd dc35 1b3e 81bb 0b3e 6a13 3cbe
00000240: 0ba4 76bd 06a8 4d3c f5f7 c83d f3ed 88be
00000250: 2177 e23d f5d1 bd3d e48f 98bd a32a 01be
00000260: ffda 3c3d 36d5 bbbd 5540 a1bb a0f9 5a3c
00000270: c642 4d3d 0c21 49bd fcac ab3d f420 4bbd
00000280: f778 20bd 3815 6bbd a4e5 2dbd 9993 2abe
00000290: 6bf2 e13d 1b11 23bd baf1 ecbc ddd2 66be
000002a0: 3685 3dbe 9417 123d a460 d8bd 3961 25bd
000002b0: 9aca 8b3d a1a7 93bd 63b4 a53d 36ae afbc
000002c0: 9549 8c3d efe9 b5bd 17e4 0e3d 5e50 b5bd
000002d0: aa5b 12bd 75ee 92bc 216a babc db61 3a3c
000002e0: 8532 5bbb 9151 c33d 1148 0e3d 5a3c c33d
000002f0: 84d5 cd3d 10bd bebc 1ac1 48bc ef69 05be
00000300: 8620 313d 1845 983a e593 9cbc c30c 96bd
00000310: ea07 7bbe 22c5 9c3d 5e02 2dbe 6f55 cabd
00000320: 9b51 b6bd 05ca d33d e5e1 c7bb fbdf ef3d
00000330: 4dd8 2dbb 1d16 e9bd fddc 803d 38c5 9cbd
00000340: a219 203d 4dae e9bd 2a65 51bd 189b 8abd
00000350: 05a4 d43c a1ee 32bd dcb0 da3c f3b9 05be
00000360: 6cd6 963d 3280 71bd 4e69 1dbe 1f9d 2a3d
00000370: 0f6c 0d3e 5a66 803d 09e2 4fbd 42b6 adbd
00000380: 78ae ad3d 7d81 c6bc f333 2ebd c184 423d
00000390: 7df1 9a3d 1f15 863c 78af 1ebd d1c9 893c
000003a0: f07a 6cbd 1583 9bbb fe90 bdbd 92e5 b6bd
000003b0: 44e3 dc3c a161 66bd c2a9 253d b842 15be
000003c0: 99d3 08bc d400 343c c9f0 10be b087 0abe
000003d0: 826a 9c3d 4a29 26bc 2327 e53d d5ce a63d
000003e0: 1a33 ef3d d0c8 8dbc f06d 9dbb 64b0 bebd
000003f0: 3515 513d ae6f d1bd 82e1 c73d 3e40 d63c

block3.2.bias f4 [27]
0.10624172 -0.09712976 0.045009237 -0.023916094 0.04388502 -0.095475644 -0.034395717 0.00694172
-0.025803294 -0.07549059 0.0063133887 -0.03245763 -0.1057658 -0.008525443 -0.05573566 -0.060390558
-0.13139223 -0.0700835 0.06334714 -0.0060034706 0.0123070525 -0.037034888 0.024691885 -0.06820389
-0.11028801 0.054298945 0.01723469
00000000: 4295 d93d f8eb c6bd 9b5b 383d afeb c3bc
00000010: c7c0 333d bc88 c3bd 86e2 0cbd 5e77 e33b
00000020: 6e61 d3bc cf9a 9abd 8be0 ce3b 4bf2 04bd
00000030: bd9b d8bd 4dae 0bbc 134b 64bd 175c 77bd
00000040: af8b 06be f087 8fbd 25bc 813d c3b8 c4bb
00000050: 85a3 493c e5b1 17bd a346 ca3c 7bae 8bbd
00000060: aede e1bd 9268 5e3d c42f 8d3c
