braille model/numbers_and_symbols.pth (torch_old, 700245 bytes, 8 tensors)

block1.0.weight f4 [16, 3, 5, 5]
00000000: 2720 94bc c9f6 15bc 2609 bebd 3d49 b03d
00000010: 7cb8 73bd 5074 7fbd 60de 50bb f36c 73bd
00000020: 553f fdbc b790 b8bc 0ec2 0ebe 5d28 063d
00000030: 4ed4 2fbb 1d7c 87bd 98c0 043e ea41 01be
00000040: 43c4 cebd 720a a6bd 8daf 19bd 9c01 3e3e
00000050: 12d2 863c a1aa 393d 634e 8b3d 16ad 393e
00000060: 204d 433e 11df 5cbd 5c8a 92bd 347d 4d3c
00000070: cbe2 ad3c e65d 0d3e 5c81 06be b745 1cbd
00000080: fff1 09be cbb6 523d 10cc f23d 0042 c93c
00000090: ce65 95bd b58c fdbd 4b94 0f3d 2858 1c3e
000000a0: 624e f9bd 0f53 763d 5b90 8fbd 2c7b 59bc
000000b0: 90d6 a23d e64c 0dbd 1715 a83b 34b5 e43d
000000c0: 7ad4 e8ba ba08 bd3c f52d 0ebd a6bd 5bbd
000000d0: 4955 ec3d cfd7 2b3d a7c7 fd3c f402 bcbd
000000e0: bea2 61bc 260d c4bd 3ea3 a03d 18d7 3a3c
000000f0: 5bf0 fdbd c48a 5fbd 490b b43d 7692 a7bd
00000100: e79f 50bd f486 dbbd c9d7 c0bc f8b9 95bd
00000110: 6602 413d 323b 903d 82bd 41bd e773 093e
00000120: bfa9 44bc dd3d bf3d 8216 273e df6a 873d
00000130: 4924 7ebd eb33 023d 31cf 003c 0c15 46bd
00000140: e228 e03c eac6 4e3d 16d7 2dbe 04a0 15be
00000150: 3b69 f2bd e425 8dbd 7b08 743d 13b4 263d
00000160: 374d 10be 8ebf bd3d 5e61 e03d 2b43 17bc
00000170: 9a27 edbc c5c5 963c 6c81 c53b 61f3 bcbb
00000180: e7bb 853d 49c8 6abc c3fe 0b3e 67e3 f13d
00000190: 8843 3cbd 3024 cf3d bdc2 a8bd 65b2 d3bd
000001a0: 8326 213a ca64 30bd 7cb5 88bd fd3a f8bd
000001b0: e8d9 ddbc cac3 bebd 30af 05be cbd2 05be
000001c0: f86f 4ebd cf19 663c 548b c6bd cad2 b63d
000001d0: d8cc 903c aa78 07bd 112b 15bc 7a81 303d
000001e0: 9524 c2bc b418 593c 048a 1fbc 8122 223e
000001f0: c4d7 873d c35e 8f3d 9f4e d23d 5fe5 2b3d
00000200: 9b4b e8bd 8428 a9bd 5054 0abc f8cf c73d
00000210: 7a44 c2bb 3a2d 283d 00fe a7bd 313c ed3c
00000220: 52ee eabd d4b2 d5bc 2b96 99bd eaa3 a53d
00000230: e47a c4bc 8a0a 6f3c 8fe1 693d f20c 033e
00000240: d857 683d 334c 1c3d 1681 f9bb a2a0 d23d
00000250: de6d ad3d 51f4 f43d 5586 97bc 23c7 8b3d
00000260: 474e a9bc d531 ec3d a02c c0bd d188 d23d
00000270: 1478 9abd 88cb a53d 3e9f c33d 6301 c63d
00000280: 8b6a 5e3c 8aad 1d3b 89b4 cb3d bef3 a43d
00000290: 9258 ab3d 05d5 c03c 83cf a23c 3242 ecbb
000002a0: 5c72 2cbc 052c 1abc d13f a03d 52c1 bf3d
000002b0: 7e79 b53d a5d4 e53d 986b c63d 413c 8dbb
000002c0: 87b6 cc3c 246d 853d 940d 94bd 8c8f 88bd
000002d0: aafd e33d 548e f93d 958b df3d 8948 c43d
000002e0: d685 70bd a1f8 813d 49de 033c 9abb b23d
000002f0: d895 75bc 6ea9 423d eab8 92bd 156c 073e
00000300: 7a04 943d 1bdd ae3c 0411 9bbd c264 593d
00000310: be2a a3bd 8405 683d be9b 073c 5817 c6bc
00000320: 6465 03be edff d53c 0e1e 8d3d 0330 4fbd
00000330: 4e50 d13d f2f3 0dbd 60b5 693d 19f3 833c
00000340: d68b 1e3d 1f34 8d3d 8daf 77bd a918 59bd
00000350: e05e d73b a75b 0ebd 7da5 8bbc 922e 41bc
00000360: de80 a73c af18 de3d 89e7 cc3d 3ad2 c43d
00000370: 983a 3bbd aa7e 9cbd c80c 6c3c b78c 8bbd
00000380: 4672 17bc 71b7 1c3d d4a4 d13d 4df4 583d
00000390: 483a a23d e35b 87bd ee26 dc3d b650 44bc
000003a0: 452a b7bd fd34 db3d 748b 023d 01be 933d
000003b0: 6d51 a8bd ac94 bd3d 9028 f4ba 176f debb
000003c0: 0537 293c dea4 c7bc 64ea 083d 1d16 993d
000003d0: 079c f43d f2ea a5bd 2a9a 24bc 7da6 f13d
000003e0: 4488 c0bd a745 933d 9533 b63b 99e2 83bd
000003f0: e1c8 2fbd ab8d c0bd 2593 a2bc 6c11 6ebd
-0.018081738 -0.009153076 -0.09279089 0.08607719 -0.05950211 -0.062366784 -0.0031870827 -0.059430074
-0.030913988 -0.022529943 -0.13941213 0.032753337 -0.0026829424 -0.066154696 0.12964094 -0.126228
-0.10096028 -0.08107461 -0.037520934 0.18555301 0.016457591 0.04532874 0.068020605 0.18132433
0.1907239 -0.05392367 -0.07155296 0.012542058 0.021226307 0.1380535 -0.13135284 -0.038152423
-0.1347122 0.051443856 0.11855328 0.024567604 -0.07294808 -0.12380353 0.035053533 0.15268004
-0.121731535 0.060137805 -0.070099555 -0.013273995 0.07951081 -0.034497164 0.005129467 0.11167374
-0.0017763518 0.02307545 -0.034711797 -0.05364766 0.11539704 0.041953858 0.03097899 -0.09180251
-0.013771711 -0.0957282 0.07843636 0.011403821 -0.1239936 -0.054575697 0.08791215 -0.08182232
-0.050933745 -0.107191 -0.023540394 -0.07310861 0.047121428 0.070425406 -0.04729987 0.1342312
-0.012003361 0.09337971 0.1631718 0.06612181 -0.062046323 0.031787794 0.007861898 -0.048359916
0.027363244 0.050482668 -0.1697658 -0.14611822 -0.11836477 -0.06891993 0.0595784 0.040699076
-0.14091955 0.09265052 0.10956071 -0.009232323 -0.028949548 0.01840485 0.006027391 -0.0057663177
0.0652998 -0.014329978 0.13671403 0.11810952 -0.04596284 0.10114324 -0.082402684 -0.103367604
0.0006147401 -0.04306487 -0.066752404 -0.12120626 -0.027081445 -0.093146876 -0.1305511 -0.13068692
-0.05039975 0.014044239 -0.096945435 0.089269236 0.017675802 -0.03307406 -0.009104506 0.04309223
-0.023699084 0.013250519 -0.009737495 0.15833475 0.06632951 0.07000496 0.10268902 0.041966792
-0.113425456 -0.08259681 -0.008442953 0.09756464 -0.005928573 0.041058756 -0.082027435 0.028959366
-0.11471237 -0.026086248 -0.074993454 0.08087905 -0.02398438 0.014589915 0.057099875 0.12797907
0.0567244 0.038158607 -0.007614265 0.102845445 0.08468221 0.11960662 -0.018496672 0.06825092
-0.020667208 0.11532942 -0.093835115 0.10280002 -0.07542434 0.08095461 0.095518574 0.09668233
0.0135752065 0.0024059736 0.09946544 0.08054303 0.08366503 0.023539076 0.01987434 -0.0072100395
-0.010525312 -0.009409909 0.07824672 0.09363045 0.088610634 0.11222199 0.09688491 -0.0043101613
0.02498938 0.065149575 -0.07229152 -0.066680044 0.11132367 0.1218535 0.10915295 0.095841475
-0.058721386 0.0634625 0.008048602 0.087271884 -0.014989339 0.047524862 -0.07164176 0.13224824
0.07227416 0.021345666 -0.07571605 0.053074606 -0.07967137 0.056645885 0.008276878 -0.024181053
-0.12831646 0.026123011 0.06890498 -0.050582897 0.10220395 -0.034656473 0.05705774 0.016107129
0.038707577 0.06894707 -0.060470153 -0.053002033 0.0065725893 -0.034755375 -0.017046684 -0.011790888
0.02044719 0.10844552 0.10005099 0.0961041 -0.045710176 -0.07641347 0.014407344 -0.068139486
-0.0092435535 0.03826088 0.102365166 0.05296736 0.079212725 -0.06609323 0.10749613 -0.011982134
-0.08943609 0.10703466 0.031871274 0.07213975 -0.08218656 0.092568725 -0.0018627811 -0.0067881453
0.010328059 -0.024370607 0.033426657 0.07474921 0.11943822 -0.08101453 -0.010046521 0.11799333
-0.094009906 0.071910195 0.0055603483 -0.064397044 -0.042916182 -0.09402021 -0.019845555 -0.058122084

block1.0.bias f4 [16]
00000000: cd8f eebb 67a0 793d f2cc 563b 7a17 283e
00000010: 0bdd 453d 5de7 daba bff2 71bc f44a 87bd
00000020: 5c61 f2bd ec95 2e3c 5eec 193e cbba f8bd
00000030: 1a46 bc3c 3cd2 1c3e fd80 0ebc 1686 56bd
-0.007280326 0.060943987 0.0032775966 0.16415206 0.048306506 -0.0016701032 -0.014767348 -0.06606093
-0.11834976 0.010655861 0.15031573 -0.12145003 0.022982646 0.15314573 -0.008697745 -0.052373968

block2.0.weight f4 [32, 16, 5, 5]
00000000: fa82 5dbd f012 563e 487a 523e 1d46 7e3e
00000010: 6228 b13c bd59 713d 661a 803e 56d4 373e
00000020: 355c 553e 6a83 543d 9597 273d d4e6 033e
00000030: 14ec 073e 1773 763e 4367 db3d f58d 81bd
00000040: 11f3 2d3e 8b99 573e c8c3 9a3e 6225 e73d
00000050: b0ce d2bd 9775 e03d d5e9 6c3e 706f 7a3e
00000060: e6f4 c33d 57ee 493d a9e1 2c3d 87a2 f53d
00000070: dc2a 36bb 335e 813a d553 053e f3ee 113e
00000080: 40a8 0e3d eb54 4cbd 8601 68bd 3004 0c3d
00000090: 117c b5bd b90d f8bd 82b6 a7bd 7c8f 6abb
000000a0: 8452 28bd 0757 44bd a531 fc3c 7884 293d
000000b0: 3930 b4bd c188 b63d 7b5a 123e 8832 e73d
000000c0: 9748 73bb 227e c2bc 3057 b9bc e669 95bc
000000d0: 0974 27bd 1090 9f3c 4da2 22bd 1b3b 60bd
000000e0: 7104 efbc 568d 123c f9f1 52bd 51ee ef3c
000000f0: df21 003d cab2 69bc dbe0 a5bc 3ab8 a73c
00000100: 0e80 05bd 1c20 593c 5a1a 38bd 5767 513c
00000110: acdb 1f3c ccff fa3c 7cf4 023c 9ab2 77bd
00000120: 6b05 11bd 2505 15bd 08ee 263b 0d93 d6bc
00000130: 2a5d a6bc b75a 9dbc 1b88 f63c 994a d23a
00000140: 9443 303c b588 ef3c 2567 823c 03a4 5abd
00000150: e338 76bc 6331 f9bc d1fc 2eba 2d08 c6bc
00000160: 53fc 8b3c c9e9 033d c41a 8bbc bf0b 64bb
00000170: 7d4f 223c 575e 1bbd 8ae8 3bbd 0b34 b7bc
00000180: 7013 78bb 1c69 b53c f9ba d6bb 469c 64bd
00000190: 4942 f63c f47f 3e3d d022 4cbd f5a0 88bd
000001a0: 8b66 1ebc 01cd ba3d 8b0c 813d 7b3d b93d
000001b0: 4457 fa3d 9ca7 a63d 4ac3 413c 05d4 d43d
000001c0: 33b2 173e e346 613d b630 bfbc f792 123e
000001d0: e8a3 213e e2e2 09bd 7e88 94bd 77f0 ebbd
000001e0: 31b0 a63d 1c7a 1d3e 86e3 97bc 417f 75bd
000001f0: 1786 a4bc 3ae0 3ebd 2953 433d 0349 793d
00000200: 3ffa f43c 4fbf 453c 4366 003d 3b42 ed3d
00000210: e6f0 0f3e 9bb3 dd3d 0bac 26bd 8d2e 0d3e
00000220: d5f4 823e 4774 203e 7dc1 153e b2c1 dc3d
00000230: c10f 8fbd daec c63d 5f9a 0c3e 0043 4d3e
00000240: 9faf 833d 13da a2bc 937c 443e 4aca 6c3e
00000250: a08b 253e 91f1 a13d 3422 e63d a5c0 ec3d
00000260: 9074 743c e2e5 82bd 5958 b3bd ae0c 00bd
00000270: 866c 02bd 71b7 2b3d 5f3a d43c 74bb f2bc
00000280: 1f22 d13d a011 f93d 67dd 3b3e 50a9 fb3d
00000290: 7204 85bd e9c8 083e ddc6 0a3e 7cc0 333e
000002a0: 6b03 f93d ff59 673c d861 d33c 30b1 443d
000002b0: 69d0 293c d792 a13d a869 61bc c434 0f3d
000002c0: 5d55 0bbd fe66 4dbd 1de1 4abd c129 81bd
000002d0: 1061 c73d e7df 1f3e e0b3 423d 4434 a63d
000002e0: 2c19 f8bc 5333 993d 08c5 543d 1c69 32bc
000002f0: 5016 d3bc 337f cfbc 3b68 5ebc 66cd cdbd
00000300: 26b9 8ebd 9b23 25bd 12dc bebd 808d d23c
00000310: 09ee 143d 556b 1e3c 9ca0 f73b 3caa a7bd
00000320: c922 dfbc 27fd be3c d632 6abd 0f7a e4bc
00000330: 4831 25bc a660 9abd efb6 92bc cbd5 fc3d
00000340: 0a24 ec3d 5054 7d3d 985d 853d 1b81 483e
00000350: f008 813e 9e71 2c3e 8dfe 283d 22c6 0b3e
00000360: 83a3 0e3e aea0 263e bcff c13d d0ba eebb
00000370: ce2e 6bbd 895c dfbc 9761 94bd bc88 7f3c
00000380: 0223 9ebc f976 b83d 469d 793d c3c4 b73c
00000390: 9ace ecbd 529e 6abd 5b94 6ebc 2430 10bd
000003a0: 2fe4 4bbd c365 61bc 6223 91bd 745b a6bc
000003b0: 43c9 fd3d 2a4a 223e 0f69 c73d c809 183d
000003c0: 1e6b 5b3d 9ec6 1a3e 890f 123e b08e 843d
000003d0: 5804 22bd 3341 06bd ef48 2a3d 5d5b 3abd
000003e0: af63 943b 2795 07bd e40d 1d3e f2f6 a03e
000003f0: 5df7 8e3e bc8c cc3d 0179 30bd 2c8e 493e
-0.054079987 0.20905662 0.20554459 0.24831434 0.021625701 0.05892347 0.2502014 0.17952093
0.20835955 0.05188314 0.040916044 0.12881023 0.1327365 0.24067341 0.10713055 -0.06325904
0.16987254 0.21054666 0.30227494 0.11286427 -0.10293329 0.109599285 0.23136075 0.24456573
0.09568195 0.049299564 0.042207394 0.1199389 -0.0027796542 0.0009869993 0.1302026 0.14251308
0.034828424 -0.04988567 -0.056642078 0.03418368 -0.088615544 -0.121119924 -0.081891075 -0.003579109
-0.041094318 -0.04793456 0.030785391 0.041386098 -0.0879826 0.089128025 0.14292328 0.11288935
-0.0037122124 -0.023741785 -0.022624582 -0.018238973 -0.040882144 0.019477874 -0.039705563 -0.054743867
-0.029176923 0.00894483 -0.051500294 0.029288443 0.031282302 -0.014263818 -0.020248821 0.020473588
-0.032592826 0.013252284 -0.044947006 0.012780986 0.009756964 0.030639552 0.00799286 -0.060473062
-0.035405558 -0.03638186 0.0025471468 -0.026193166 -0.020308096 -0.019208295 0.030094197 0.001604396
0.010758299 0.029239992 0.015918324 -0.05337907 -0.015028211 -0.030419057 -0.0006675246 -0.02417382
0.017088091 0.032205377 -0.016980536 -0.003479704 0.009906647 -0.037931766 -0.045876063 -0.022363683
-0.0037853383 0.022144847 -0.0065530506 -0.055813096 0.030060904 0.046508744 -0.049837887 -0.06671325
-0.009668003 0.09121133 0.063012205 0.090449296 0.12223676 0.08137438 0.011826346 0.10392002
0.14814071 0.054999243 -0.023338657 0.14313875 0.15785182 -0.033663638 -0.07252596 -0.115204744
0.081390746 0.15378612 -0.018541109 -0.059935812 -0.02008347 -0.046600558 0.04768673 0.060860645
0.029904483 0.012069537 0.031347524 0.11584898 0.14056739 0.10825273 -0.040691417 0.13787289
0.25577417 0.15669356 0.14624591 0.10779132 -0.06985427 0.097131446 0.13730763 0.2004509
0.064299814 -0.019879377 0.19188146 0.23124042 0.16166544 0.07907403 0.112369925 0.115601815
0.014920369 -0.06391503 -0.08757085 -0.031262092 -0.031841777 0.04192299 0.02590674 -0.0296304
0.10211586 0.12161565 0.18346177 0.12288153 -0.064949885 0.13357891 0.13552423 0.17553896
0.12158855 0.014120578 0.025803491 0.04802054 0.01036463 0.078893356 -0.013758101 0.03496243
-0.034016956 -0.05014705 -0.04953109 -0.06306792 0.0973531 0.15612756 0.047534823 0.081154376
-0.03028544 0.074804924 0.051945716 -0.010889318 -0.025767475 -0.025329208 -0.013574655 -0.10048942
-0.06968908 -0.04031716 -0.09319319 0.025702238 0.03635982 0.009669145 0.007556988 -0.081867665
-0.027238267 0.023314072 -0.057177387 -0.027890233 -0.01008255 -0.075379655 -0.017909495 0.12345465
0.115303114 0.061847985 0.06511992 0.195805 0.2520213 0.16840217 0.041258384 0.136498
0.13929562 0.16272232 0.094726056 -0.0072854534 -0.057417683 -0.027265804 -0.07245176 0.015596565
-0.019303802 0.09007067 0.060941003 0.02243269 -0.115628436 -0.057279892 -0.014561738 -0.03520216
-0.04977816 -0.013757172 -0.07086827 -0.02030728 0.12391903 0.15848604 0.09736835 0.037118703
0.05356895 0.15114829 0.14263739 0.06472528 -0.039554924 -0.032777023 0.04157346 -0.045497287
0.004528485 -0.033101227 0.1533733 0.31438404 0.27923098 0.099877805 -0.04308415 0.1968314

block2.0.bias f4 [32]
00000000: 3c32 8fbd 252b f6bc 57f5 6b3d 22a3 893d
00000010: 0670 9f3c deea 36bd c491 2ebc 541b 16bd
00000020: 497f 8dbd 7d7c 7d3d 206a 213d dcb4 c33d
00000030: 97bc 47bd 3d27 c03d cb6a b2bd 5bc4 fd3d
00000040: b0e0 993d 47b0 7b3d 1eec ac3d 3390 eb3d
00000050: 0f43 79bd 2536 cfbb 0237 2b3c ccde db3b
00000060: e39e aabc 3200 aebd 176d ef3c f129 19bd
00000070: 62cf d23d d282 413d f6f8 033d d97b 823a
-0.06992003 -0.03004987 0.05760702 0.06720568 0.019462597 -0.04465758 -0.01065487 -0.036647156
-0.06909043 0.0618863 0.03940785 0.095559806 -0.048763838 0.09382484 -0.087117754 0.123909675
0.07513559 0.061447408 0.08443473 0.11502113 -0.060854968 -0.006323593 0.010450127 0.006709909
-0.020827716 -0.08496131 0.029226823 -0.037393514 0.102934614 0.0472439 0.03221985 0.0009955122

block3.0.weight f4 [100, 1568]
00000000: 29b6 933c 36e7 9cba ff00 b43c c482 db3a
00000010: 24f7 faba 0a54 cd3c 8225 133d b012 083c
00000020: 6ab8 593c 174c 2dbc be66 5b3c 8134 163d
00000030: 049b e13c b34a 323d f7cd 473c 0fcd 71bc
00000040: ece1 a73b eb83 64ba b65c 1b3d 8fbe 7c3d
00000050: f8d7 a03d 1a20 b83c 68fb ef3a b393 903c
00000060: 8e77 fb3c bc3b b63c 035e 693d d7e8 393d
00000070: 3453 2cbc 4836 003d 4d97 c93b 2d82 67bc
00000080: 3bd7 ffbb 8396 143c 0026 313d 0013 fb3c
00000090: 0e9c d03c 9fa3 763b 0ece a6bc 0331 51bd
000000a0: e405 45bd d153 db3b fda0 7e3c b9b5 9ebb
000000b0: 0944 e7bb e115 8bbb e655 02bd ea6f 43bd
000000c0: b941 133d 2050 a53c 353f c03a 2b4b ae3a
000000d0: 00da edba 6d78 cc3c 1db1 a4bb 87e5 8f3c
000000e0: b6a2 fa3c e011 9ebc 2bea cebc d161 a0bb
000000f0: bce1 5d3c 1aa4 833c 30ad 043d 5113 19bc
00000100: 01d2 d3bc 2f76 3cbd d5fb 423d cd45 f93c
00000110: 5203 f63c 03a2 193d 9fa3 4f3c c821 04bd
00000120: 4fa1 5dbc 72a8 1d3d e932 313d c727 313d
00000130: c59b 803d 700a 233d fa6f e63c 22be 653d
00000140: 6cc6 3b3c 9d50 ac3c 8f05 e43c 5b35 063d
00000150: 08ad 25bc 6b0c 19bd b531 51bc 134f 80bd
00000160: cdcb d9bd 4b0c 6fbd 32a8 56bd d3ae 6d3c
00000170: 1957 a2bc 2a43 9c3c afd8 7dbc 5331 22bd
00000180: 7649 95bd 9c43 883c 45c4 4a3d 0f75 4a3d
00000190: 1e98 dc3c 59ca 0c3d c304 833d 0712 5a3d
000001a0: bb51 d23c fef9 11bb f091 253d cac2 083d
000001b0: 6a85 e53c ca48 113c abe7 603d d379 3c3d
000001c0: a948 d23c 801e a9b9 c638 8abc 1bdf da3c
000001d0: bc9a 7b3b d5ad ec3c e625 1e3d 080a 0d3c
000001e0: 5696 8ebb 6c43 ca3a f64d dd3c c573 463b
000001f0: 660a fc3c 897e 253d 2fbe c43c 7ff7 293d
00000200: 3fe3 693d f003 3b3d 13b7 143d 7e24 b23d
00000210: ed66 7f3d 6c66 3e3c 6813 7b3d 7226 0c3c
00000220: d8fc c93c a315 9a3c a96d 583d 18a5 473d
00000230: 1c84 103d 6420 733c 99cb 6a3d 2377 073c
00000240: 149a 67bc 3a2c af3c 6f98 0b3d 326d 8ebc
00000250: aadb 7f39 1996 e03c 156f 873c 5d9c dd3c
00000260: ccc6 e538 0cba 873c 8064 523c e96e f7bb
00000270: adba 9e3b 18fd 42bc 94f3 80bc 043b 353c
00000280: d1f4 67bc d97a cfbb 1e7d 9bbc f5f7 26bc
00000290: 2668 88bc 66f1 87bc 1057 d1bb 5457 443c
000002a0: c4cb abba 99e2 57bc 94d9 83bc d615 d6bb
000002b0: adda 67bc e727 833a ea05 333b 002c f43b
000002c0: bc18 d63c 9524 873c 9a7b eebb 549f 9c3c
000002d0: 0b5c d23c 69a6 843c a951 1e3d d1d0 2d3c
000002e0: e38e ff3a 297f e33b 3084 92bc 869b 233c
000002f0: ec09 35bb 7050 ff3c 9198 8b3c 7b93 8dba
00000300: 43fb d53c 43b8 74bb 9c32 c33c 5dbc 153d
00000310: e085 003c 5d67 b13c dc3c bc3c f5ab bd3c
00000320: 7838 373d 4381 103d 5f22 f33c f7e9 233c
00000330: 775b 523c 451f b339 b193 083d 0a1b 38bc
00000340: b3dd 123c 0630 e13b f2c0 febc fa82 6ebd
00000350: d07d 4cbc 4c44 103d 06cc 063c 081b 8b3c
00000360: 5e06 073d 334d 883b 1bd9 23bc 97cf e73c
00000370: c6ee b83c 77e7 e63c 9fe3 3b3d 25d8 f53c
00000380: f811 263d 47bb 733c 6f7e 343c e275 63bc
00000390: 979c 83bc 66e3 6c3c 3d5d 883c 80b2 66ba
000003a0: 05d6 3d3c 5f46 b53c 227d 90bc a7fb 86bd
000003b0: 69fc 1c3c 0801 203b 8e8b 993c 6db0 123d
000003c0: 0692 293c 4171 8abc 028a adbc 526d 0637
000003d0: f41b 193d 44c3 263d 4641 f93c 1170 1d3d
000003e0: 5864 133d 1e39 213d 547b 263c 0136 e3ba
000003f0: 4fd4 fe3c 1f92 40bd de53 41bd 8011 b63b
0.018031197 -0.0011970762 0.021973131 0.0016747345 -0.001914714 0.025064487 0.035924442 0.008305237
0.013288597 -0.010577223 0.013391195 0.036671165 0.027539738 0.04352827 0.012195102 -0.014758362
0.0051233675 -0.0008717167 0.037930213 0.06170517 0.07853693 0.022476245 0.0018309178 0.017648553
0.030696657 0.02224528 0.056974422 0.04538807 -0.010517884 0.031301767 0.0061520697 -0.014130157
-0.00780764 0.009069088 0.04324913 0.030648708 0.025465038 0.0037634147 -0.020361926 -0.05107213
-0.04810132 0.0066933413 0.015541312 -0.0048434404 -0.007057671 -0.0042445515 -0.0318202 -0.04771415
0.03595135 0.020179808 0.0014667275 0.0013297548 -0.0018146634 0.024959767 -0.0050259964 0.017565502
0.030595165 -0.019295633 -0.025258144 -0.004894473 0.013542589 0.01606946 0.032391727 -0.009342984
-0.025856974 -0.046011146 0.047603447 0.030428791 0.03003088 0.037508022 0.012673288 -0.03225878
-0.0135272285 0.03849072 0.043261442 0.043250825 0.06279711 0.039804876 0.028129566 0.056089528
0.011460882 0.021034533 0.027834682 0.032765727 -0.010112055 -0.03736536 -0.012768199 -0.06265082
-0.10634575 -0.058361333 -0.052406497 0.014507013 -0.019816922 0.019074995 -0.015493556 -0.03959782
-0.07289402 0.016633801 0.049503583 0.049428042 0.026928004 0.03437266 0.063973926 0.05323985
0.025673738 -0.002227425 0.04042238 0.03338889 0.028017718 0.008867452 0.054908436 0.046014618
0.025669413 -0.00032256916 -0.016872775 0.026717713 0.003839179 0.028891483 0.03861036 0.008608349
-0.0043514175 0.001543147 0.027014714 0.0030281406 0.030766677 0.040403876 0.024016468 0.041495796
0.057101484 0.045658052 0.036307406 0.086983666 0.062354017 0.011621099 0.061297804 0.008554088
0.024656698 0.018809145 0.052838955 0.04874143 0.03528224 0.0148392655 0.057323072 0.0082681505
-0.014135856 0.021383394 0.03408092 -0.017386053 0.00024400526 0.027415322 0.01653246 0.027052099
0.000109566 0.016568206 0.012841344 -0.0075510633 0.004844031 -0.011901163 -0.015741147 0.011061434
-0.01415749 -0.0063317833 -0.018980559 -0.0101909535 -0.016651224 -0.0165946 -0.0063885525 0.011983711
-0.0013106992 -0.013176584 -0.01609496 -0.0065333648 -0.014151257 0.0010006399 0.0027316757 0.0074515343
0.026134841 0.016496936 -0.007277918 0.019118942 0.025678655 0.016192632 0.038652096 0.010608868
0.001949754 0.006942649 -0.017885298 0.00998581 -0.0027624322 0.031166285 0.017040523 -0.0010801399
0.026120787 -0.0037341274 0.023827843 0.03655659 0.007844418 0.021655733 0.022978239 0.023153285
0.044731587 0.035279524 0.029679475 0.010004512 0.01283919 0.00034164838 0.033343975 -0.011236915
0.00896399 0.00687218 -0.031097863 -0.058230378 -0.012481168 0.035221383 0.008227354 0.016980663
0.032965057 0.0041595935 -0.010000492 0.028297229 0.022574794 0.028186543 0.045871373 0.030010292
0.04054448 0.014876193 0.011016472 -0.013883086 -0.016065879 0.014458513 0.016646022 -0.0008800402
0.011586671 0.022128282 -0.017637793 -0.065909676 0.009581664 0.0024414677 0.018743303 0.035812784
0.010349756 -0.016899707 -0.021183971 8.0124755e-06 0.037380174 0.040713564 0.030426633 0.038436953
0.035984367 0.03936111 0.01016124 -0.001733482 0.031107096 -0.047014352 -0.047199123 0.0055562854

block3.0.bias f4 [100]
00000000: 3c60 683c f498 01bd 661c 473b f37e ad3b
00000010: 46a1 1d3d 413e 90bc b6f3 403d e28f 20bc
00000020: 69a4 493c d0cd 69bb a518 633c 8fb9 203d
00000030: 92d2 0f3a f900 b53b c166 943b e9b8 fe3b
00000040: c65e 1d3c fc4b c4bb de6f 6fbd 169c 6b3b
00000050: a4f6 443d e86e 30bb c9f2 173c c81b b23c
00000060: 18b5 4e3d 548c 833c 6843 d6ba dd03 033d
00000070: 5ab1 4fbc 452c ce3c 54cb cabc 5492 143b
00000080: e3db 9a3b 2c20 043d 1390 e93c adcd dabb
00000090: cafc c9bb 1675 d43c b575 f5bc 7c1b 9a3c
000000a0: b9b4 42bb 9701 a2bc c7f1 003c da0e 653c
000000b0: e3b3 423b dc2f 3a3b 2d9b 00bb 680c a33b
000000c0: 1aff 92bc d006 5f3c 6a85 f13c dcad 303c
000000d0: f9ac 65bc 17fd a43c 2851 0dbd a9d6 393b
000000e0: 7609 923c a501 053b 0f74 9ebc 55f7 573c
000000f0: 9f2e b53c f4ef b73c 62e4 2f3d 0e97 4f3c
00000100: e57f 06bd c62d fa3c 60ce 01bd 72cd bd3c
00000110: 9699 61bb 1a79 fb3a 3100 91ba b1ff 6db9
00000120: ba6f 49bc 7eda a43c 55e2 b23c 367f 943c
00000130: 2fc6 61bb cb41 c3bc a426 7fbc 3491 02bd
00000140: 98d8 193d dcbc cfbc f6ad f9bc aa18 07bd
00000150: 8341 dbba f936 5c3c d4f4 51bc 423d 3f3d
00000160: ac41 b33c 5565 2e3c 974d 113d 2a23 a8bb
00000170: 5d9b d1bb 14cf 04bd 5052 0d3b f392 643a
00000180: 37af b4bc e905 4f3c c93f 0a3d dc8a 81bc
0.0141831 -0.031640008 0.0030381917 0.0052946745 0.03848388 -0.01760781 0.04710742 -0.009799929
0.012307265 -0.0035675652 0.013860856 0.039239462 0.00054863945 0.0055237976 0.004528851 0.007773508
0.009605115 -0.0059905034 -0.058456294 0.0035951189 0.048086777 -0.0026921574 0.009274193 0.021741763
0.050465673 0.016058125 -0.0016346993 0.031986106 -0.012676561 0.025167594 -0.024755158 0.0022670226
0.0047259196 0.032257244 0.028511083 -0.0066773505 -0.006164168 0.025934737 -0.029963354 0.018811934
-0.002970977 -0.019776149 0.007870144 0.013980592 0.0029709272 0.0028409874 -0.0019623742 0.004975844
-0.017943908 0.013612464 0.029482562 0.010783639 -0.014018291 0.020140214 -0.034501225 0.0028356707
0.017826777 0.002029517 -0.01934245 0.013181527 0.022116957 0.022453286 0.042942412 0.012670292
-0.032836813 0.030539405 -0.031690955 0.023169253 -0.003442382 0.0019185871 -0.0011062679 -0.00022697334
-0.012294704 0.020123716 0.02183644 0.018127065 -0.0034450402 -0.023835083 -0.0155731775 -0.031876758
0.037560076 -0.02535861 -0.030478459 -0.032982506 -0.0016727898 0.013440841 -0.012814719 0.04668928
0.0218819 0.010644277 0.035474386 -0.005131145 -0.0063966946 -0.032424048 0.0021563955 0.0008719407
-0.022056205 0.012635686 0.033752237 -0.015813284

block3.2.weight f4 [37, 100]
00000000: bd15 b6bd b8e4 d0bd 9ad1 15be 24d2 b83c
00000010: dca1 7e3d 5bc3 50bc ee0d 403d 9e38 453d
00000020: 5bad 45be e2a4 b6bd e883 1dbe f344 7c3d
00000030: f240 4a3c 3aa6 be3c e3c9 54be 503f d73c
00000040: 5a82 a23c 4c77 173d 1a16 03be eb94 8b3d
00000050: 4cb8 8b3d 10ee e03c 97a7 0d3d b10e cb3b
00000060: 759e 0d3e 721e 5a3d 60d0 673a 95ad d1bd
00000070: 5a3c a0bb 481c da3c df3c b13d 3f56 1ebc
00000080: ed8d 7e3d 8508 a4bd 0e76 a63c 59fb 503d
00000090: 43c8 bcbc 7ccc 8d3d 6d75 b03c 6686 f9bc
000000a0: 1b9e cdbd 100e 9ebc 4877 9f3d 59bd 11be
000000b0: 668e 90bb f10b 81be 7a5e a4bd f00e f0bd
000000c0: 1b74 05be 44d9 00be c77e 9b3d 7f9e 95ba
000000d0: 9a9e b7bd dfbf cc3d a495 2fbd 64a4 1bbe
000000e0: 3236 3fbd bc41 c73a 339a cc3c 90eb 163d
000000f0: bf76 eabc 073c 84bd 70de 233d 8e19 573c
00000100: c279 753c bcff b93d e834 07bd e8da 4bbe
00000110: 916e 22bd 1bd2 babd 84c7 9dbd 239d bebd
00000120: 151a 59bd 4821 4b3b 0cc8 b63d ec70 393d
00000130: 6996 e73d 144c 40bc ce62 f23c 9e1d 94bc
00000140: 2440 adbd 2d1d 0dbd f2f1 993c f28a 8abd
00000150: 42a3 31be c8fd f9bd bb5c 61bd 6a59 af3d
00000160: 75b9 8a3d 4ee2 1fbd 65e0 593d f85f 3e3c
00000170: a973 da3d 31b7 31bd 99f2 003c 14c9 013d
00000180: 14fd 57be b653 ed3d 41b2 aebc 05da 95bd
00000190: f610 823d c27e 88bd c2f5 f6bd bdad 5bbd
000001a0: 6c18 363d 40f1 893d ed00 db3d dbc6 b3bd
000001b0: 71a7 bfbd 7671 2fbd f1f6 893d 9c9f ffbc
000001c0: 4351 263d fdb5 da3c ca7c 22be 861d d43d
000001d0: b10d 923d 8b88 d3bd 22bb 35bd feb7 a63d
000001e0: df8e bbbd 9596 43bd 6288 e43d 613e aabc
000001f0: 5550 8b3d 7792 0dbe ccf8 7a3d 7d42 dabd
00000200: 86da b23d 4610 16bc 14de c1bd b63d e6bd
00000210: 3744 163d f27b b43d 5ad9 b33d d38f 01be
00000220: 1287 683d bb90 5e3d 8a62 a0b9 bf39 c1bd
00000230: d912 323d 9682 cbbd 3b4a 84bd 9249 eabd
00000240: a574 a53d ec8a 52bd 2e97 a1bd 19b0 3fbd
00000250: 0d6e 9e3b 26b2 a6bc 366c da3d 9c5e debd
00000260: af20 b3bd 41c6 cabc 08d0 373d a280 0cbe
00000270: 1a49 953d 824a b0bd 0622 4abd 95c5 fb3d
00000280: 327f 9b3c 00c0 12be e445 b13d 825a 313d
00000290: 089b 6fbd 2ef0 d3bd f21c 793d ebe2 6bbe
000002a0: 23f3 cd3c f0a8 c0bd 1b8b 98bd ab32 153d
000002b0: 25d1 313d 0742 9ebc 2f48 a8bd ac55 1e3d
000002c0: 6611 97bd 4287 6a3c 6d44 053c 4d9b 5d3d
000002d0: 1c99 6fbb 3b99 bcbd 937b 83bd 38bf 6e3d
000002e0: 6c8f ebbd 0428 f3bd 5170 c43d ebd6 99bb
000002f0: e002 9ebd b24b 31be 9bdf af3d f4fe 92bc
00000300: 94ae ce3d bec4 9f3d 08de 5bbd 4a32 963d
00000310: 242a abbc 1ad1 c13d 7355 ac3d 84b3 b73d
00000320: f950 cabd f5d5 893d 202f 093d d10b b53c
00000330: a3ee d43d e806 f93d 7370 a83d 945a dcbc
00000340: 665f 2cbc ceed 9abd 2c4b 48be 340d 2abe
00000350: 445d 11bd 2aaa a73d 2687 38be 63ce a23d
00000360: 4353 e73d f02a 69bd b968 69bd 3b2f c1bd
00000370: 400f ff3d e60e dabb d68e bb3d 6782 a8bd
00000380: 4b01 b73d 49e4 aa3c 432e ffbd 89c5 d3bc
00000390: d99c d03b 3d69 aabc f79c 3a3d aad3 c9bd
000003a0: 84f3 91bd 5d14 94bd 7c0d c83c d9ed ac3c
000003b0: 19c9 acbd e825 af3d dd03 40bc 5ef4 883d
000003c0: c9e4 673a 7f1b 3a3c 5c47 403d 0d26 59be
000003d0: fb3f bdbd 8898 ee3b 3c44 4dbd b9ec 063d
000003e0: f6e3 74bd 7363 3dbe 612a faba 126d d73c
000003f0: 7b4f dcbd f34f e03c 44e6 683d f579 21bd
-0.08890865 -0.10199875 -0.14630738 0.02256114 0.06216608 -0.012741889 0.046888284 0.048149697
-0.19304411 -0.08918168 -0.1538235 0.061589193 0.012344586 0.023272622 -0.20780139 0.026275307
0.019837547 0.036979005 -0.128014 0.06815513 0.06822261 0.027457267 0.034583654 0.0061968197
0.13829978 0.05325169 0.0008843001 -0.10238186 -0.004890007 0.026624814 0.08654188 -0.009664117
0.06214707 -0.080094375 0.020319965 0.051020954 -0.023044711 0.06923768 0.021540368 -0.030459594
-0.10039922 -0.019293815 0.07786423 -0.14232387 -0.0044115065 -0.25204423 -0.080258325 -0.11721599
-0.13032572 -0.1258288 0.0759254 -0.0011415033 -0.08965798 0.09997534 -0.042867318 -0.15199429
-0.046682544 0.0015202085 0.024975872 0.036845744 -0.028621076 -0.06456762 0.040007055 0.013128651
0.014982643 0.090819806 -0.03300944 -0.19907725 -0.039656226 -0.09122106 -0.0770407 -0.09307315
-0.05300339 0.003099518 0.08924875 0.045273706 0.11307985 -0.011736888 0.02958813 -0.018080529
-0.084594995 -0.034451652 0.018792126 -0.06764783 -0.17347434 -0.12206608 -0.055020075 0.08561976
0.06773654 -0.03903418 0.053192515 0.01161956 0.10666592 -0.043387596 0.00787034 0.031685904
-0.21092635 0.11588232 -0.021325232 -0.073169746 0.06350891 -0.06664802 -0.12058593 -0.053632487
0.044456884 0.06735468 0.10693536 -0.08778163 -0.09358109 -0.042832814 0.067365535 -0.031204037
0.04060484 0.026698107 -0.15867916 0.10357194 0.07131518 -0.10328778 -0.044367917 0.081405625
-0.0915811 -0.047751028 0.111588255 -0.020781698 0.068024315 -0.13825403 0.061272427 -0.10657213
0.08733086 -0.009159153 -0.09466186 -0.11242239 0.03668615 0.08812703 0.08781691 -0.12652521
0.056769438 0.054337244 -0.00030590995 -0.09434842 0.043475006 -0.09937017 -0.06459471 -0.11439814
0.08078889 -0.051402017 -0.07890163 -0.0467988 0.0048348964 -0.02034862 0.10665171 -0.10857889
-0.08746468 -0.024752738 0.04487613 -0.13720945 0.07289334 -0.08607961 -0.049348854 0.12293545
0.01898155 -0.14331055 0.08655909 0.043299206 -0.05849746 -0.10348545 0.06081862 -0.23035781
0.02514035 -0.09407222 -0.07448407 0.036425274 0.043412346 -0.019318594 -0.08216893 0.03865592
-0.07376365 0.014314475 0.00813399 0.054103184 -0.0036559766 -0.09208914 -0.06420054 0.05828783
-0.11501965 -0.11872867 0.09591735 -0.0046948097 -0.07715392 -0.17314032 0.08587571 -0.017943837
0.10091892 0.078011975 -0.053678542 0.073338106 -0.020894118 0.09463711 0.08414736 0.08969787
-0.098787256 0.06730262 0.033492208 0.022100361 0.10397079 0.121595204 0.08224573 -0.02689866
-0.010520792 -0.07564889 -0.19559926 -0.16606599 -0.035489336 0.08186753 -0.18020305 0.079495214
0.11295178 -0.056925714 -0.056984637 -0.094328366 0.124540806 -0.006654608 0.09158103 -0.08227997
0.089357935 0.020860808 -0.124599956 -0.025851028 0.006366354 -0.020802135 0.04555985 -0.09854825
-0.07126525 -0.072304465 0.024420492 0.021109508 -0.08436794 0.08552152 -0.011719671 0.06687234
0.00088460423 0.011359095 0.046943054 -0.21205921 -0.09240719 0.0072813667 -0.0501139 0.0329406
-0.059787713 -0.18494968 -0.0019086116 0.026297126 -0.10757347 0.027381873 0.056860223 -0.039422948

block3.2.bias f4 [37]
00000000: ee7a f03d 1c23 84bc 7bd5 36bd 1759 d43c
00000010: f1a9 b03d fb8d 88bd d8c1 4b37 a00a 8f3d
00000020: ca9f 2cbd 2d3c 58bd 3173 c53d 8d0c be3d
00000030: c63b 3e3d 0a3d a13d ad94 073d 2463 91bd
00000040: f790 3c3d c57c bf3c 3240 173d 8fa7 9c3c
00000050: 9cc8 31bc 492f 173d ccd2 e8bd fc45 03bd
00000060: 5057 c6bb 7e16 67bd c1f7 d4bc 6d83 b3bd
00000070: b5ff 313d 4a74 c6bd 9c40 883d bae6 b43d
00000080: 6f56 aebc fc69 403d 61a2 ba3d 653a e0bd
00000090: 8d0a b9bd
0.11742197 -0.016130023 -0.044637185 0.025921388 0.08626164 -0.066677056 1.2144876e-05 0.069844484
-0.042144574 -0.052791763 0.09641112 0.092797376 0.046443723 0.078729704 0.033100773 -0.07098988
0.046036687 0.023374924 0.036926456 0.019122867 -0.010851052 0.03691033 -0.11368331 -0.032049164
-0.006052889 -0.056417935 -0.025997045 -0.08765302 0.04345675 -0.09690149 0.06652948 0.0883307
-0.02128145 0.046976075 0.091130026 -0.10948638 -0.090352155
