word_recognition/current_model.pth (torch_old, 695801 bytes, 8 tensors)

block1.0.weight f4 [16, 3, 5, 5]
000000 00 41 55 3d c4 56 f4 bd 5e 36 04 be 5a 75 98 3d
       0.052063942 -0.11930612 -0.12911364 0.07444258
000010 c5 c7 ca bd 13 e7 90 3d 3f 78 1a 3c 19 a4 89 3d
       -0.09901384 0.07075324 0.009428083 0.06720752
000020 af b1 8f 3d 58 fc fa bd 72 6e c5 bb 7e ef 56 bd
       0.07016312 -0.12255162 -0.006025129 -0.05247449
000030 ec 5f 23 bd 79 c2 9b bd ba ff 55 3d cc 2e 9a 3c
       -0.0398864 -0.07605452 0.052245833 0.018821143
000040 45 c3 05 3d 02 8e 9a bd 40 35 13 3d ea 93 c3 3d
       0.032656927 -0.07546617 0.035939455 0.09549697
000050 f5 aa 32 3c e5 bd ec 3b 32 e1 a9 3c 3b a7 b4 3d
       0.010905017 0.0072247856 0.020737264 0.08820959
000060 de ea 80 3d 71 d1 c3 3c 7c b6 cf 3c 56 83 0c 3d
       0.06294797 0.02390358 0.02535557 0.03430494
000070 8f 27 e8 bd 86 1b ea bd d4 11 ce bd 0a 3d 80 bd
       -0.1133567 -0.11431031 -0.10061994 -0.06261642
000080 4c 22 a4 3c e9 2c e5 bd 74 2f 59 bd db 70 b7 bc
       0.020035885 -0.111902066 -0.05302377 -0.02239268
000090 f5 50 9f 3d 5d 0d fc bd 2e 25 77 bd dd 2d 26 bd
       0.07779113 -0.12307236 -0.06033819 -0.040571082
0000a0 36 d4 fe 3d 3e 40 07 3d 6e db 81 bd b0 8a 0c bd
       0.1244282 0.03302025 -0.06340681 -0.03431195
0000b0 ce 2a f4 bd 10 59 4d bd 3e ab 51 3d 29 db 43 bd
       -0.11922227 -0.050133765 0.0511887 -0.04781643
0000c0 2c 9c 7c 3d c3 93 90 bd 3e 96 dc 3d 8d 87 68 bd
       0.061672375 -0.07059433 0.10770844 -0.056769896
0000d0 56 02 e6 3c 7a 94 e1 bd 37 12 eb bd c4 b6 a6 3c
       0.028077286 -0.11014648 -0.114780836 0.020350821
0000e0 9c 6d 01 bc a4 0c 02 be 04 b2 37 3d 11 a5 94 bd
       -0.007899668 -0.12700135 0.044847503 -0.072580464
0000f0 27 ff 75 3d 69 6e ce bd e2 0e c8 bd 95 3e 81 3b
       0.060057785 -0.10079653 -0.09768464 0.003944228
000100 e1 35 7d bc 4f 3d 9c b9 69 61 56 3a 18 78 37 3d
       -0.01545474 -0.00029800317 0.00081779674 0.044792265
000110 9f bc b6 bc fa 53 b8 bc f0 7f 8e 3d ec 04 e9 bc
       -0.022306738 -0.02250098 0.06957996 -0.02844473
000120 46 2e 84 bc 66 1c 51 bd fe 36 88 3d e1 be 29 be
       -0.016135346 -0.051052473 0.06651114 -0.16576721
000130 45 9d 3f be 36 d2 b1 bd a1 e9 a9 3b c7 78 9d bd
       -0.18712337 -0.08682673 0.0051853214 -0.07689052
000140 67 cf da bc 28 78 5d be 78 92 9e bc 61 71 cd bd
       -0.026710225 -0.21627867 -0.019356951 -0.10031391
000150 81 96 10 be 17 c2 92 bd 0e 21 0e 3c 9a ce 49 bc
       -0.14119913 -0.07165926 0.008674873 -0.012317324
000160 38 5f b0 bd 2c 36 7c 3d 97 73 7d bd 59 61 0e bd
       -0.086119115 0.0615751 -0.061877813 -0.034760807
000170 b5 d8 37 bd be 73 22 bc c9 99 fe 3d 76 dd 9d bd
       -0.044884402 -0.00991529 0.12431676 -0.07708256
000180 8d ba f5 bd 82 ce 8f 3b 74 dd 14 be 46 17 70 bd
       -0.11998472 0.0043886313 -0.14537603 -0.058615945
000190 75 53 e6 bd bb 1a ee bd 7c d1 da bd 11 34 41 be
       -0.11246387 -0.11626192 -0.10684487 -0.18867518
0001a0 92 fd a1 3c e4 a7 0a be 6b 74 34 be 5c fc 54 be
       0.019774232 -0.13540608 -0.17622535 -0.20799392
0001b0 b6 37 cf bd 80 ee ee bd 15 2f 16 bd c5 d0 85 3d
       -0.10118048 -0.11666584 -0.036665995 0.0653396
0001c0 3f 5a 00 be c8 b4 f4 3c d8 0d 13 bb f6 c0 ad 3d
       -0.12534426 0.02987136 -0.0022438671 0.0848407
0001d0 d8 13 4a 3d 84 e2 ab bd 9e 03 10 bb 53 d0 b4 3d
       0.04933533 -0.08392814 -0.0021974812 0.08828797
0001e0 83 bf d1 bd c5 40 6d bd 23 53 40 3d 38 56 ab bd
       -0.10241606 -0.057923097 0.046954285 -0.08366054
0001f0 49 46 97 3c e4 c2 1e bc b6 4b 4b bd 26 12 fc bd
       0.018466132 -0.00969002 -0.04963275 -0.12308149
000200 0b 31 48 be f8 d8 75 bd 0e 45 90 bd 81 4d 30 be
       -0.19549958 -0.06002137 -0.07044421 -0.17217065
000210 0c 87 c1 bc a3 31 d4 bd ee 0f 5a bd f4 1c 28 bd
       -0.023623966 -0.1036103 -0.053237848 -0.041043237
000220 de b6 ed bd c6 3e b4 bd 49 15 98 3d 5d 31 bb bd
       -0.11607145 -0.088010356 0.07425935 -0.09140275
000230 a4 ac 0b 3e 93 db 77 bd ab 5f 3f 3d b0 18 9d 3d
       0.13640076 -0.060512137 0.046722095 0.076707244
000240 9d 1b ca bc b6 8f d6 3d a1 3f b1 3d c4 2a e5 3c
       -0.02467137 0.104766294 0.086547144 0.027974494
000250 35 82 23 bd 2f 2a e3 3a 41 7c f2 3c ef 20 43 3d
       -0.039919097 0.0017331297 0.029600265 0.04763883
000260 9c 3a 6f 3d d5 38 eb bc a6 ba 02 3e 15 ad f4 3d
       0.058405504 -0.028713623 0.12766513 0.11947075
000270 03 24 aa bc 87 4d 98 3d 6d 85 a4 bb cc e6 ba 3d
       -0.020769125 0.07436662 -0.0050207884 0.09126052
000280 1e 20 eb 3d eb ae f4 3a 7a 01 b1 bd 5e 70 31 3d
       0.11480735 0.0018667852 -0.0864286 0.043320052
000290 bc 23 cb 3d 2c 23 ac bd 2c d0 10 be 5f 0d f0 bd
       0.09918925 -0.08405146 -0.14141911 -0.117213
0002a0 81 c4 11 be b8 1c d6 3d 1b d9 aa bb f6 f0 13 be
       -0.14235117 0.104546964 -0.0052138693 -0.14447388
0002b0 f6 0e 3b be aa 51 0a 3d 03 ad 0d 3c 31 3a 04 3e
       -0.18267426 0.033769287 0.008647206 0.12912823
0002c0 b9 b4 08 3e 02 c2 08 3e fc ae 70 3d 4c 77 6e 3d
       0.1335019 0.13355258 0.058760628 0.05821924
0002d0 f9 d4 06 bd 9f dd 1c bb ca 9b 9e bd e8 3c 99 bd
       -0.03291795 -0.0023935807 -0.07744558 -0.0748232
0002e0 19 6f 9e bd fb 13 90 3d 31 5b ca 3a a3 80 13 3c
       -0.07736034 0.07035061 0.0015438554 0.009002837
0002f0 77 bb ca bc 1d 3e d8 3d cf 03 90 bd bf 66 72 bd
       -0.024747593 0.10558722 -0.070319764 -0.059180018
000300 65 aa 20 be f4 d9 94 3d 88 87 7c 3d 96 6c 5c 3d
       -0.1569 0.07268134 0.06165269 0.053814493
000310 64 88 07 bd 9a c7 14 be a2 37 9d bc 22 8a 95 bc
       -0.033089057 -0.14529267 -0.019191567 -0.018254343
000320 b2 18 b1 bb fc 88 81 3d 27 b9 cf 3d bf 08 f0 bc
       -0.0054045552 0.06324956 0.10142737 -0.029301045
000330 46 7e 85 bc cc 19 08 3e 89 d1 9c 3d a2 9a da 3c
       -0.016295563 0.1329109 0.07657153 0.026685063
000340 52 87 e6 3d 39 5f 92 3d 42 6d a2 3c 81 c5 fe 3c
       0.11256279 0.071470685 0.019827489 0.031100037
000350 21 e9 f4 bb ab a3 10 bd 50 8e 77 bb 24 75 03 3d
       -0.00747408 -0.035312336 -0.0037774034 0.032094136
000360 a1 75 d0 bd f5 80 f8 bc ac 39 b9 bc 81 4a 65 bd
       -0.10178686 -0.030334929 -0.022610508 -0.055979256
000370 61 f2 e1 bd 33 23 a4 bd a5 7d dc bd 93 56 67 bd
       -0.11032558 -0.08014526 -0.10766152 -0.056479048
000380 62 eb 12 bd 80 46 1d 3e 66 37 35 bd 11 51 d7 3d
       -0.03586901 0.15358925 -0.044242285 0.10513509
000390 4d 37 e2 3d c7 3a 92 3b 00 88 d6 bd 32 c9 5c 3d
       0.11045704 0.004462573 -0.10475159 0.053902812
0003a0 41 dd 73 3d c9 4b b5 3c 70 44 ca bd 69 ab 1e bd
       0.059537176 0.022130864 -0.09876335 -0.03873769
0003b0 2e f0 bd bc 7d 1d 1a be f1 2e 10 be f5 4a 12 be
       -0.023185816 -0.15050311 -0.14080407 -0.14286406
0003c0 c8 99 28 bd 22 86 f9 bd d1 20 a6 3c 76 fe c8 3d
       -0.041162282 -0.12183787 0.02027932 0.098141596
0003d0 91 5d ba 3d a8 6b b6 3b db 75 cc 3c d6 16 39 3d
       0.090998776 0.005567033 0.024958542 0.045187794
0003e0 fb 09 80 3d 9d 00 43 3d 41 8d 11 3e ae f9 20 bd
       0.062519036 0.047608007 0.1421404 -0.039300613
0003f0 d7 19 d6 bd 8d e6 97 bd 43 8d a4 bc db 93 68 bd
       -0.10454147 -0.07417021 -0.02008689 -0.05678163

block1.0.bias f4 [16]
000000 cb ee 0c 3e 47 11 28 3e f4 7d c5 3c e9 13 d2 bc
       0.13762967 0.16412841 0.02410791 -0.02564426
000010 70 47 cf bc 36 c7 48 bd 27 ec a5 3b 86 d6 26 bd
       -0.025302619 -0.049018107 0.005063552 -0.04073193
000020 f5 9f 25 be 08 82 eb 3c 5c 4f 3c bb e4 47 b7 3c
       -0.161743 0.028748527 -0.0028733825 0.022373147
000030 8d 84 6f 3b 68 6a d2 3b 0c f9 b2 bd a5 0e ad 3d
       0.0036547512 0.006421376 -0.08738908 0.08450059

block2.0.weight f4 [32, 16, 5, 5]
000000 1c 7d b2 bc e6 cc d7 3b a0 5d 93 bc 9d 21 c5 bb
       -0.021788172 0.006585705 -0.01798898 -0.00601597
000010 97 6e ba bc 7c c4 06 3c 6a f4 ef 3c 89 6e 05 bc
       -0.022757811 0.008225556 0.02929135 -0.008144029
000020 08 c5 ce 3b 5a 49 16 bd 59 fe 95 bc bd dd 77 3d
       0.006310109 -0.036691047 -0.018309759 0.0605142
000030 6b 61 0b bc 98 9d 3c 3d 9e b9 42 bd b0 ae a0 3d
       -0.008507113 0.04604873 -0.0475403 0.07845819
000040 30 7e 18 bb 5b 26 50 3d 2a 41 21 3d ac f9 1a 3c
       -0.0023268573 0.05081783 0.039368786 0.0094589405
000050 4f 5b 1a 3d aa f5 9d bc d5 33 ab 3c cf cc d9 3c
       0.037684735 -0.01928218 0.020898739 0.026586918
000060 68 4d 53 bd 84 91 b5 3c 4a 0b b0 3d 3c 6a 81 3d
       -0.051587492 0.022164114 0.08595903 0.06319091
000070 6a f9 b1 3d df 42 b3 3d ab e8 a0 3c 91 f7 42 3d
       0.0869015 0.08752989 0.019642195 0.04759938
000080 99 dd c8 3c a9 af 74 3d 57 d4 a9 3d 01 f9 58 bb
       0.024519728 0.059737835 0.08292454 -0.0033107402
000090 62 ca 80 3d ed 6f 9c 3d a1 ef f4 3c 1e d6 5d 3d
       0.062886015 0.07638536 0.02989942 0.054159276
0000a0 3f 8a 3a 3d fe a5 be 3d d7 a5 cd 3d 22 c7 66 3d
       0.045541998 0.09309004 0.10041397 0.05634225
0000b0 9a 51 8b 3c 1e 2c cb 3d f3 87 aa 3d ec c5 64 3d
       0.017006684 0.09920524 0.083267115 0.055852816
0000c0 86 e4 11 3d d2 70 5a 3d e9 5c da bd 98 dd a9 bd
       0.035618328 0.05333025 -0.106622525 -0.08294219
0000d0 86 93 a1 bd a4 01 b0 bb 1c 67 9f bd 08 39 84 bc
       -0.07889466 -0.0053712893 -0.077833384 -0.016140476
0000e0 da df d4 3d 53 28 3e 3d d8 b8 6f 3c 39 85 c9 bc
       0.10394259 0.046425175 0.0146314725 -0.024599658
0000f0 f0 35 99 37 93 fd 95 3d 55 29 c9 3d 77 5d c4 bc
       1.8264138e-05 0.07323756 0.098223366 -0.023970349
000100 4e 99 d7 bd bb ce ec 3d f2 70 c1 3d da 90 4f bc
       -0.105272874 0.11562868 0.09445371 -0.012668813
000110 fe 96 d0 bc b8 35 4f bd 46 21 a7 3d 97 e2 bf bc
       -0.025462624 -0.05058834 0.08160643 -0.023423476
000120 ee 11 89 bc 1e b2 27 bb d5 59 65 3c 5a 6a b3 3c
       -0.016732182 -0.0025588344 0.013998468 0.021901298
000130 8d 8a c9 3a 1a a6 6c bc d4 93 f1 bb a4 b8 21 bc
       0.0015376374 -0.014443899 -0.007372359 -0.009870682
000140 61 e5 ea bd cc e2 be bd dc 34 54 bd 9f b7 86 3c
       -0.11469532 -0.09320602 -0.051808223 0.01644498
000150 1b 03 e5 bc 77 de f9 bc 80 d5 64 3d d7 01 fe 3d
       -0.027955582 -0.030501587 0.055867672 0.12402695
000160 12 80 e2 3d cf ba da bc 7e c4 41 3e 40 3f 17 3e
       0.11059584 -0.026700405 0.18922612 0.14770222
000170 d6 1a 94 3d 45 19 58 3c a4 a3 6d bd 4e 0d af 3d
       0.07231681 0.0131896185 -0.058017388 0.085474595
000180 11 9e 76 3d 45 55 f0 bb f7 12 ad bd 2f f9 52 bd
       0.060209338 -0.0073343837 -0.08450883 -0.05150717
000190 c6 2a aa bc c2 90 57 bd ce c8 a1 bd 19 63 44 bd
       -0.02077235 -0.052628286 -0.078996286 -0.04794607
0001a0 7c 41 dd 3c fc 41 6a bd 0b ef 98 bd 95 4e 91 bd
       0.027008764 -0.057191834 -0.07467469 -0.070950665
0001b0 f3 e2 54 3c 76 af 0c 3b bb b1 82 bd 64 88 90 3d
       0.012993562 0.0021466888 -0.06381556 0.070572644
0001c0 3e 47 eb 3d 47 25 1e 3e a0 4f a9 3d 4e d0 cd 3d
       0.11488198 0.15443908 0.082671404 0.100494966
0001d0 0d 6a e8 3d 04 f2 22 3e 7c 8c 1c 3e d3 58 12 bc
       0.113483526 0.15912634 0.15287966 -0.00893231
0001e0 0a 37 f7 3d 19 90 4f 3d a4 2e 9b 3d 75 c2 e8 bb
       0.12071045 0.05067453 0.07577255 -0.007103259
0001f0 84 f9 d3 bc 55 5d 01 bd 5d 95 8b bd cf 0c ba bd
       -0.025875814 -0.03158315 -0.06815598 -0.09084474
000200 20 8a 71 bd 38 91 99 bb 45 28 0f bd 3d 6c 8e bd
       -0.058969617 -0.004686501 -0.034950513 -0.069542386
000210 c0 0d a7 bc d9 d7 3a bd fc bf 3d 3c 33 e4 9e bd
       -0.020392299 -0.045616005 0.011581417 -0.07758369
000220 50 fc 6b bc 28 a5 e0 3c ba 7e 35 3d 94 27 8b bb
       -0.014403418 0.027422503 0.04431031 -0.0042466614
000230 9c d0 72 3d f7 f7 f3 3d 88 2b fa 3d da a9 c4 3d
       0.059280977 0.1191253 0.12215334 0.09602709
000240 14 a3 a3 3c d9 83 ec 3d 95 95 8f 3d bc ef 81 3d
       0.019975223 0.115485854 0.070109524 0.06344554
000250 4a 55 8d ba 42 47 0f bd d9 ba 73 bd 4a 80 1c 3c
       -0.0010782864 -0.034980066 -0.059504364 0.009552071
000260 1a 20 4b bd 97 6b 8f bd 29 3a 3d bd 6e 2e 2d 3d
       -0.04959116 -0.07002943 -0.046198044 0.042280607
000270 8c cb 6a 3b 82 02 f0 3c ba 7f 08 3c 2a b6 b2 3b
       0.003582689 0.02929807 0.008331234 0.0054538446
000280 f5 f9 83 bd c8 be 20 bc 6e 69 c3 bc b8 84 73 3d
       -0.0644416 -0.009811111 -0.023853984 0.059452742
000290 16 51 e4 3b ac 0d 4b 3d b5 1c 15 3e 60 fa 44 3e
       0.006967674 0.049573585 0.14561732 0.19236135
0002a0 f2 dd 2a 3e 46 d3 6e 3c 99 76 f6 3d 6d c6 cf 3d
       0.16686228 0.014576739 0.120343395 0.101452686
0002b0 d2 1d af 3d cd 4b 0c bd ee e9 1d bd c1 b2 cb bc
       0.0855061 -0.034251977 -0.03855317 -0.02486551
0002c0 9c 3a 76 bd b8 ae b8 3b aa c0 a0 bc fb 3b c1 bb
       -0.060114488 0.0056360625 -0.01962312 -0.005897043
0002d0 20 01 f4 3c 6d c0 39 bd 3e 23 48 3c 2d ef 0f bd
       0.029785693 -0.045349527 0.012215434 -0.035140205
0002e0 45 3f 1a bd 51 dd 0d bd ec 11 ba 3b 3d ac ae bc
       -0.037657995 -0.034634892 0.005678406 -0.021322364
0002f0 b9 d2 4b bc 2d dd 02 bd 29 a3 17 bc 37 2f 52 3d
       -0.012440377 -0.03194921 -0.009255209 0.05131456
000300 7b e3 05 3e 9a 8d 8f 3d f6 b4 b1 bc 34 5d b2 3d
       0.13075058 0.0700943 -0.021692734 0.08709183
000310 a7 36 de 3c e4 95 96 3c 3a d4 24 3d db e2 5a 3a
       0.02712567 0.01838202 0.040241458 0.0008349844
000320 89 99 0e bc 23 17 27 3d 12 15 8e 3d 02 dd 16 bc
       -0.008703598 0.04079355 0.069376126 -0.009207966
000330 d1 b9 38 3d ea 1f 22 3d f9 d1 88 3c dd f7 0c 3d
       0.045099083 0.039581217 0.016701685 0.03441607
000340 1a 2f 59 3d 76 24 61 3c 6f 3a d9 bb 77 fc 62 3c
       0.053023435 0.013741603 -0.0066292803 0.013854138
000350 be 34 e3 bb de 24 6c 3d 6f c8 0b 3d 23 37 96 3d
       -0.0069337776 0.057652347 0.034126695 0.07334735
000360 ef 5f 41 3d e8 3f 82 3d 93 74 b6 3b 54 f5 2a 3d
       0.04721063 0.063598454 0.005568096 0.04173787
000370 55 b4 7d 3d 13 ec 70 ba d9 6b 77 3c e9 fa 19 3c
       0.061939556 -0.0009190451 0.0151013965 0.009398201
000380 1e 54 1b 3d 61 7e d7 bc e7 d8 5d bd c5 8f 93 bd
       0.037922017 -0.02630538 -0.054161932 -0.07205156
000390 73 e1 f7 bc 14 17 6b bd 69 d5 81 bd a6 2e 68 bc
       -0.03025887 -0.057395056 -0.06339533 -0.014171278
0003a0 4e 22 a0 bd 7c f1 d1 bc a7 92 d7 3c 76 67 09 bc
       -0.07819043 -0.025627844 0.026315046 -0.008386483
0003b0 a0 24 20 bd c1 24 0f bc eb a2 98 3c ad ea 1c 3c
       -0.03909743 -0.00873679 0.018632373 0.009577435
0003c0 50 eb 27 3e 1a 82 3c 3e 23 bb da 3d 31 6a 5d 3d
       0.16398358 0.18409005 0.10680225 0.05405635
0003d0 f0 c5 93 bd ce 59 13 3e fc 36 1d 3e 66 0b ad bc
       -0.07215488 0.14389727 0.15353006 -0.0211236
0003e0 86 53 9f bd 9b 06 9e bd b8 7b fb ba 58 b8 5c 3d
       -0.07779603 -0.07716104 -0.0019186651 0.05388674
0003f0 ea fd b8 b9 72 7f 1c 3b c6 d0 85 bd 7a 64 52 bc
       -0.00035284396 0.0023879674 -0.06533961 -0.012841338

block2.0.bias f4 [32]
000000 a4 94 cb 3c ae fb e2 3c ef 00 a1 bd 17 02 9e bd
       0.02485115 0.0277079 -0.07861506 -0.07715242
000010 07 d8 33 bd 28 91 c5 38 99 47 c6 3d 26 83 13 3c
       -0.04390719 9.4207295e-05 0.09681625 0.009003436
000020 11 90 03 3c e9 c3 71 bd f3 86 6d 3d 0b 35 8b bd
       0.008029954 -0.059024725 0.057990026 -0.067972265
000030 33 94 92 bd 01 4c 98 bd 8d 44 07 be 23 06 bb 3d
       -0.07157173 -0.074363716 -0.13209744 0.0913203
000040 53 a4 a6 bd 3d 46 51 bd 56 d6 c0 3d 80 6f d3 bd
       -0.08136811 -0.051092375 0.09415881 -0.10324001
000050 f2 5b 87 bd 16 d7 91 bd 92 ff 1b 3d d1 89 f8 3d
       -0.06609334 -0.071211025 0.038085528 0.121356614
000060 4c a5 ed 3d 64 15 65 ba e7 86 f5 3b 05 d0 16 bc
       0.116037935 -0.0008738844 0.0074928883 -0.009204869
000070 b8 ff 8f bc e8 e0 ab bd d3 e1 8c bd c3 2b 9a bd
       -0.01757799 -0.08392507 -0.0687901 -0.07527878

block3.0.weight f4 [100, 1568]
000000 1d 5f 65 3b 37 b6 e1 3a 7a 4b a1 ba e4 c5 18 3d
       0.003499932 0.0017220442 -0.0012305819 0.0372981
000010 ce 26 15 bd 56 37 26 bc 1e 02 1a bc bc ad 42 3d
       -0.03641396 -0.010145029 -0.009399919 0.047528967
000020 cc 63 7d 3b 66 21 0f bd 3c 34 9b 3a 94 ee c2 bc
       0.003866422 -0.03494396 0.0011841129 -0.023795404
000030 dc 54 3c bd 21 c1 05 3d a6 83 4c 3c ee 98 b6 3c
       -0.045979366 0.032654885 0.012482559 0.02228972
000040 5e 7e 8e 3c b0 a6 8d 3d 01 67 04 3d ae 46 38 3d
       0.017394241 0.06916559 0.032324795 0.04498928
000050 dc 29 02 3e f1 38 ea bb 85 78 64 3c 21 c6 1b 3d
       0.1271128 -0.007147901 0.01394475 0.038030747
000060 10 5f 39 3d e2 ff 0a 3d d1 6e 43 3d 15 06 79 3d
       0.045256674 0.033935435 0.047713105 0.060796816
000070 f0 77 b7 3c 1a 8a 92 3c af f9 09 bd e7 c7 4c bc
       0.022396058 0.017888118 -0.033685382 -0.012498832
000080 47 cd bb bb f8 fd 0f bd 21 3d 17 bd e4 a5 97 3c
       -0.005731258 -0.035154313 -0.03692353 0.01851172
000090 38 d0 2f 3c 60 ae db bb dc 59 90 3c 70 ec 47 bd
       0.010730796 -0.0067041367 0.017620973 -0.04880947
0000a0 96 bd 29 bd 56 af 17 bc 10 1c 22 3d 8c aa 1d bd
       -0.04144057 -0.009258112 0.039577544 -0.038492724
0000b0 40 c2 8c bb ed d0 41 3b ff 7f 44 3c c3 b7 27 3c
       -0.0042956173 0.0029573992 0.011993407 0.010236683
0000c0 44 0d 57 bb 5f 50 91 bd 66 5c b4 bc 05 dc a2 3c
       -0.0032814303 -0.07095408 -0.022016715 0.019880304
0000d0 44 8c 85 bd 55 d8 92 bd 23 96 08 bd 4a 6d 27 3c
       -0.06520894 -0.07170168 -0.033346307 0.010218928
0000e0 a4 79 10 3d 86 e0 7d bd d2 f5 b0 3c 33 da 88 3d
       0.035272256 -0.0619817 0.021601591 0.06682243
0000f0 36 34 ca 3c db 94 4f 3d f0 76 a3 b8 47 31 25 bc
       0.0246831 0.05067907 -7.7945995e-05 -0.010082549
000100 1a aa 45 bd 0f 12 67 3c 4f e3 66 3d 60 30 bb 3d
       -0.048257925 0.014103427 0.056369122 0.09140086
000110 dd 45 df 3d 0c e3 61 3c e4 4d 1f bd e4 5b 90 bd
       0.10901997 0.013787042 -0.03889264 -0.07048777
000120 64 94 45 bd 6f 31 2e bc ab e6 e1 3c 84 f9 60 3d
       -0.04823722 -0.010631903 0.027575811 0.054925457
000130 65 e5 4d bc 4f c1 8d bc 07 5a 18 bd a3 f9 d1 bc
       -0.012566899 -0.01730409 -0.03719523 -0.025631731
000140 69 68 bf bc 31 93 07 bc 01 31 54 3d 9e b6 7b 3d
       -0.023365216 -0.008274839 0.051804546 0.061453454
000150 62 fb 57 bc a5 fb 07 bc 99 b2 47 bb 40 f9 65 bc
       -0.013182493 -0.008299743 -0.0030471443 -0.014036477
000160 28 05 a2 bc ef e9 d1 3b f4 57 b1 3c f0 c6 42 bc
       -0.01977785 0.006406061 0.021648385 -0.011888251
000170 d6 59 a8 bc e0 b2 ab bc c8 f6 ce bc e4 99 fe 3a
       -0.02055065 -0.020959318 -0.025264159 0.0019424525
000180 34 8a 80 3b e7 eb 0b 3d 5a 15 ac bb 97 d0 dd bc
       0.003922725 0.03416052 -0.0052515687 -0.027077002
000190 e0 02 65 bc 76 68 97 3b c0 60 de bc 1d ac 7f bd
       -0.013977736 0.004620607 -0.027145743 -0.06242
0001a0 c1 d2 ae bc 9a 7a 88 3c be fe 51 bd 0b 94 49 bd
       -0.02134073 0.016660023 -0.05126833 -0.04921345
0001b0 f4 c2 49 bd 12 b1 3b bd 0f f1 c0 bd 58 e0 14 bd
       -0.049258187 -0.045823164 -0.09420978 -0.036346763
0001c0 54 16 aa 3b db 11 b5 3c 59 f9 4c 3d 62 ea d6 3d
       0.00519065 0.02210324 0.050042484 0.10493924
0001d0 c6 eb 9a 3d ed d2 7a 3d 56 68 9b 3d b7 e0 f8 3c
       0.075645015 0.06123631 0.0758826 0.03038059
0001e0 45 42 64 3c 2b d8 44 3d ad 43 4d 3d fc 61 7f 3d
       0.0139318155 0.048057716 0.05011337 0.062349305
0001f0 60 eb a6 3d e0 85 ae 3d 9a c8 ba 3c 32 a8 ca bb
       0.08150363 0.085216284 0.022800732 -0.006184601
000200 2c 90 12 3b ff 00 b0 bc b9 7b b1 bc 4e 09 d3 bc
       0.0022363765 -0.02148485 -0.02166544 -0.025761273
000210 7c 3d 8d 3c 37 b8 f2 3c cc 3b 95 3b 4f 22 a9 3b
       0.017241232 0.029628856 0.0045542475 0.0051615606
000220 cb aa 63 bc a7 91 24 bd b7 0d 7b bd 64 05 2d bd
       -0.013895701 -0.040177967 -0.061292376 -0.04224147
000230 61 0e 0a 3c de 87 31 3c 3b bb f3 3b a1 55 53 3c
       0.00842628 0.010835616 0.007438091 0.0128988335
000240 56 ba fc 3b c4 a8 41 bc ca 88 48 3c 0e 15 2e 3c
       0.0077126427 -0.011820022 0.012239644 0.010625137
000250 f6 8b d7 3c 53 08 7f 3a d8 7f 50 3c 40 1e 31 3c
       0.026311856 0.00097287184 0.012725793 0.010810435
000260 4f 73 31 bc ca b5 b0 3c 3b d8 32 bc c6 bf 6d bc
       -0.010830714 0.021571059 -0.010915811 -0.014511054
000270 c2 c8 c8 bc f1 a0 bd bc 2a a0 1f 3d 7c 7b d0 bc
       -0.024509791 -0.023148032 0.038971104 -0.025449507
000280 d3 05 29 bd db e7 6c 3c fa 55 21 bd b2 ba 3f 3c
       -0.04126532 0.0144595755 -0.039388634 0.0117022265
000290 b8 ab 61 3c 7f 63 3c 3c 70 db 23 3c 8f 96 1d 3c
       0.013773851 0.011498331 0.010001048 0.0096184155
0002a0 19 a5 0c bb b0 84 72 bc 07 83 31 bc 05 bb 2d bd
       -0.002146071 -0.014802143 -0.010834462 -0.042414684
0002b0 f1 a4 7a bc 5a 9c 99 bc b7 49 03 bd 95 ae db 3a
       -0.015298114 -0.018751312 -0.03205272 0.0016760404
0002c0 be 2b 07 bc c9 ad f5 3c f3 ea 36 3c b7 24 51 bb
       -0.008250175 0.029990094 0.011164415 -0.0031912753
0002d0 36 c8 93 bc 58 67 eb 3c 07 5a 7f bc 98 93 87 3c
       -0.018039804 0.028735802 -0.015585429 0.01654987
0002e0 13 61 36 bc 5f 8e 88 3c 3c 78 d9 bc b1 6e 5a 3c
       -0.011131543 0.01666945 -0.02654659 0.013332055
0002f0 9d ec bb 3c 09 98 f5 b9 ec 72 8e bc 72 eb 94 3c
       0.022939974 -0.00046843317 -0.017388783 0.018178675
000300 71 b4 22 bd 6a 38 b2 3c 1e f3 b2 3c 7a d7 43 bd
       -0.039722864 0.021755416 0.021844443 -0.047812916
000310 1c 03 ea bc 80 bd 05 bc 02 8f ef 3a f0 0f c6 bc
       -0.028565936 -0.008162856 0.0018276873 -0.024177521
000320 cb 46 8c bd d7 ff d4 bc 1a ee 90 bb 2f dd be 3c
       -0.0684944 -0.0260009 -0.004422915 0.023298828
000330 80 55 d5 3c a8 fa df 3c 45 53 4f 3c 94 5d 83 bc
       0.026041746 0.027341202 0.01265413 -0.016035832
000340 96 e2 87 bc a3 af 20 bc da c7 e5 3c 1b ba 02 3c
       -0.016587537 -0.0098075 0.028049398 0.007978941
000350 5b 33 62 3d c0 63 cf 3c 71 ae d2 3c 1c 53 78 bc
       0.055224758 0.02531612 0.025717946 -0.015156534
000360 16 e7 ec bc 83 02 28 3b ee 69 1d 3c df 25 bb 3c
       -0.028918784 0.0025636263 0.009607775 0.022845207
000370 2d 49 6a 3c 4e 58 2c bc c3 e0 4e 3d d6 01 84 bc
       0.014299673 -0.0105191 0.05050732 -0.016114157
000380 ce 8b 1d 3d 6b b9 26 3d dd 5e a0 3c 95 96 c5 bc
       0.038463406 0.040704172 0.019576484 -0.024119655
000390 e9 a3 fc 3b 67 cb ad 3c 08 ea c9 3b a5 f9 6b 3b
       0.0077099693 0.021215154 0.006161932 0.0036006954
0003a0 d2 8f 63 bc a8 d3 2f 3d df a9 d8 3b 53 7f 5d bd
       -0.01388927 0.04292646 0.006612047 -0.054076504
0003b0 9b 3b 2c ba 81 8a e7 bc 0e 85 fa 3c 35 2a 26 3c
       -0.0006570161 -0.028264286 0.030581024 0.010141899
0003c0 9d 8c 3d 3b 37 33 70 3a af dd 95 3b 0b 8b 23 bc
       0.0028922923 0.0009162905 0.004573546 -0.009981881
0003d0 26 43 31 bd 90 61 a7 bb 87 65 a5 bc 2a 19 21 3c
       -0.04327693 -0.005108066 -0.020190014 0.00983266
0003e0 9c 04 00 3d 9f c0 b1 3c 00 ef 22 bd 77 11 1a bb
       0.031254396 0.021698294 -0.03977871 -0.0023508945
0003f0 45 23 bc 3b 60 60 36 3b 70 b1 b0 3c c4 2f 0b 3c
       0.005741509 0.002782844 0.021568984 0.008495275

block3.0.bias f4 [100]
000000 7a bd 19 3d ae e7 dd bc e8 c9 96 bc 7b ad d7 bc
       0.037534215 -0.027088013 -0.018406823 -0.02632784
000010 c2 c5 eb 3c ae d9 cf 3b 05 a7 20 bc 3b 27 0a bc
       0.028780822 0.006343088 -0.009805446 -0.008432205
000020 29 f1 a3 bc ab 09 b8 bc b4 8d 03 bc eb 85 05 3c
       -0.020012455 -0.022465548 -0.00802939 0.008149604
000030 aa ed 40 3c 80 91 c9 3c 89 29 d4 3c 1e 2d 87 bc
       0.0117754135 0.024605513 0.025898712 -0.016501006
000040 c0 4b 48 3c 28 f7 30 3d 48 46 2c 3d 99 b5 41 bd
       0.012225091 0.043204457 0.042059213 -0.047292326
000050 c8 98 23 3b 26 b2 98 3d 36 1e 73 3d 45 7d 43 3b
       0.002496289 0.07455854 0.059354983 0.0029829305
000060 16 e8 34 3c be d6 2a 3a 88 6a a3 3b 2f 28 e6 bc
       0.011041662 0.00065169844 0.0049870647 -0.028095333
000070 08 da 7d 3d 2c 90 35 3c 56 1d 39 bd 65 f6 04 3c
       0.06197551 0.011081737 -0.045193993 0.008115386
000080 08 70 cd bb e0 7d 42 3c dc 91 20 3d b2 90 2d 3d
       -0.0062694587 0.011870831 0.039201602 0.04237432
000090 23 fd 14 bd cd 87 ca bc fa 27 e7 3c 21 18 c1 bc
       -0.036374222 -0.024722958 0.028217304 -0.023571076
0000a0 5a df 4a bb 34 e2 aa 3c 7d 63 bf 3c bc 69 a7 3c
       -0.0030955882 0.020859815 0.02336287 0.02043616
0000b0 9e 54 91 3b 43 a2 b6 bc fd 79 75 bc d7 74 07 bd
       0.004435136 -0.02229417 -0.014982698 -0.03307041
0000c0 fa b0 ab 3b cf c6 00 3d 6f 44 bd bc ea 8f 63 bc
       0.005239603 0.0314396 -0.02310392 -0.013889292
0000d0 52 39 fc bc 83 91 ce bc b3 14 5a bc ec 12 da 3c
       -0.030789051 -0.02521587 -0.013310599 0.02662035
0000e0 6e 13 f3 3c 69 47 c6 bb 9f 63 e1 bc 9d 80 64 3d
       0.02967235 -0.006050993 -0.027513323 0.055786718
0000f0 1b c3 e1 3a 63 20 ae ba 14 d1 ff bb a8 6a c7 3b
       0.0017224284 -0.0013284798 -0.0078069065 0.0060857125
000100 e6 1a d2 bc 95 26 df 3c a0 70 74 3c 67 bd 20 bd
       -0.025647592 0.027240077 0.01491943 -0.03924313
000110 6a b8 87 3b 0c 1b 68 3b 76 ea 29 3d 65 0f f3 3b
       0.004141857 0.0035416512 0.041483365 0.0074176067
000120 d1 22 0d 3d 63 47 fb bb 40 78 94 3c 22 4b 8e bc
       0.03445703 -0.007668422 0.018123746 -0.01736981
000130 b6 2c e2 bc 0d ab ba bc 56 a0 1a bc 20 36 9d 3d
       -0.02760921 -0.022786641 -0.009437641 0.07676339
000140 d0 ae b3 3a 5a cd 49 3b d6 f6 bb bc be fd 06 bc
       0.0013708714 0.0030792565 -0.022944849 -0.008239208
000150 b8 dd 6f 3c 24 f7 9c bb 27 95 cd 3b 68 71 ca 3c
       0.014640264 -0.0047902036 0.006273884 0.02471228
000160 bf e6 f2 b9 e4 18 96 3c 3b 56 1a bd 92 d9 3e bc
       -0.00046329756 0.018322416 -0.037679892 -0.0116485525
000170 33 dd fa b9 fd ce e5 3c e5 5f 6e bc f7 59 6a bc
       -0.00047848522 0.028052801 -0.01454923 -0.014303676
000180 bd cd 04 bc 86 32 5a bc 58 85 18 bc 03 eb 2e bd
       -0.008105692 -0.01331771 -0.009309135 -0.042704593

block3.2.weight f4 [26, 100]
000000 5a 6b 86 bd b4 d7 56 bd b4 68 b2 bd be 63 e2 bd
       -0.065634444 -0.052451804 -0.08711377 -0.110541806
000010 f8 f7 8b 3d c5 98 93 3d ed 80 39 bc b4 8a 33 be
       0.06834406 0.07206873 -0.011322242 -0.1753338
000020 61 d2 13 3d 3a b6 3b bd 30 4a ce bc 36 4b 38 bd
       0.036089305 -0.04582808 -0.02518186 -0.0449936
000030 91 8f 2d 3d f7 d1 a2 3d b9 ca ff bc ff 8d 60 bd
       0.042373244 0.07950204 -0.031224595 -0.054822918
000040 ee a3 9d 3d 64 c5 da bd 36 7f ce ba 10 d6 3f 3d
       0.07697283 -0.106821805 -0.0015754465 0.046835005
000050 1a fe c9 bb 97 62 91 3c 81 dd 4e 3c c2 67 5d bd
       -0.0061643245 0.017747207 0.012626053 -0.05405403
000060 a3 0f 97 bd 56 06 35 bb 93 ca dc bd 77 40 14 bd
       -0.07376029 -0.0027622185 -0.107808255 -0.03619429
000070 df 07 36 3d cb d4 fe bd a3 10 c5 bd b1 ef 0b bd
       0.0444411 -0.12442931 -0.09622314 -0.034164134
000080 c1 9a c8 bd dd 6e eb 3d 58 1a 04 3e bc 1d d7 3c
       -0.09795142 0.11495755 0.12900674 0.026259296
000090 df 0f c2 3c 59 2f af bd 0c 3a 51 3a 52 dc 95 3d
       0.023689209 -0.08553953 0.0007981367 0.073174134
0000a0 ba 9b 19 bd f3 e1 06 3c 26 96 8c 3d bc f4 21 be
       -0.037502028 0.008232581 0.06864576 -0.15816015
0000b0 e1 ac 9b 3d 7f 44 40 bd 78 1a 1b 3d b0 e1 ce 3c
       0.076013334 -0.046940323 0.03786704 0.0252541
0000c0 46 e4 10 be 47 96 5e bd 0c 29 00 bd 06 03 81 3d
       -0.1414958 -0.054342534 -0.031289145 0.06299405
0000d0 26 0d 7e bd e4 5e 8d 3d 57 82 3c be 8a 1a e3 3d
       -0.062024258 0.069028646 -0.18409096 0.11089046
0000e0 4c 85 69 bd 55 20 eb bd ec 13 98 bd 58 cf 0c 3e
       -0.057011887 -0.11480776 -0.07425675 0.1375097
0000f0 aa 45 60 3d 12 5f a5 bd 76 c6 c9 bd 0c ab e2 bd
       0.054753937 -0.08074774 -0.098523065 -0.11067781
000100 93 e6 e4 bb 2d 6e c3 bd 56 b6 82 3d fb 7e 44 bd
       -0.0069854944 -0.09542499 0.06382434 -0.04797266
000110 8f 53 a0 bd e0 aa 5a 3d 38 84 50 bd 7a 52 03 3d
       -0.078284375 0.053385615 -0.050907344 0.032061078
000120 dc b0 f7 bd 3e 78 8b 3d 92 55 84 bd f0 f7 95 3d
       -0.1209428 0.06810044 -0.06461634 0.07322681
000130 02 1c 1c 3d fa 84 9e bd 5f fa a3 bd d5 0c 9f bc
       0.038112648 -0.07740207 -0.08006739 -0.019415298
000140 63 e1 84 bc 83 4b c6 3d 0d 24 6b bc 3e e7 80 bd
       -0.016220754 0.096823715 -0.014351857 -0.06294106
000150 3d 06 3a 3d 75 1e ee bc f5 4d 63 3c f2 1f 03 3e
       0.045416106 -0.029067257 0.013873567 0.12805155
000160 a6 30 05 3d 38 27 de 3c 77 cd 97 bd ef a3 8a bc
       0.032517098 0.02711831 -0.07412236 -0.016923873
000170 ad 26 7b bd 38 6c bf 3d 60 f3 fd 3c 08 bd 50 bd
       -0.06131618 0.09346813 0.03099984 -0.050961524
000180 a3 e2 c4 bd 69 22 bc 3d 3f ff c2 3c d9 9e 40 bd
       -0.0961354 0.09186251 0.023803351 -0.04702649
000190 e5 09 6a 3d 6d ad 87 bc da b4 04 bd 54 49 4e bd
       0.057138342 -0.016562188 -0.032399036 -0.0503629
0001a0 1c 30 b3 3d 10 ca df 3d 1b d4 13 bd 29 61 d9 bd
       0.087494105 0.10927212 -0.03609095 -0.10614235
0001b0 7d 73 8f 3d 76 42 d8 bd 53 bc 8b bd 34 a4 14 be
       0.070044495 -0.105595514 -0.06823029 -0.14515764
0001c0 31 92 72 3d 02 38 fa 3d 7e 82 82 bc 43 e6 7d bd
       0.05922145 0.12217714 -0.015931364 -0.061987173
0001d0 3c 4d 42 3d 2f f4 2b be 87 cb d6 bc 36 33 55 bd
       0.047436938 -0.16792367 -0.026220096 -0.05205079
0001e0 0a 62 0d 3d b0 d3 dd bd c8 4c 13 3e 85 99 9a bd
       0.034517325 -0.10831392 0.14384758 -0.07548813
0001f0 30 ec ed bd b3 27 0a 3d a6 f4 01 3e da 63 7d 3d
       -0.11617315 0.033729266 0.12690982 0.061862804
000200 f3 c7 ec 3c 27 bc 3c bd 98 21 e8 bd 33 56 1e bd
       0.028903937 -0.046077874 -0.113345325 -0.038656425
000210 00 bb 49 3d ec 80 1b bb 1e fd 40 3d 75 49 b6 ba
       0.049250603 -0.0023727966 0.04711639 -0.001390739
000220 e5 30 8a 3d 32 27 5c bd d3 e0 94 bd 42 81 82 3d
       0.06747607 -0.053748317 -0.07269444 0.0637231
000230 0f e2 1d bd e5 82 ae bb ac 38 b8 bd a5 1e de bd
       -0.038545664 -0.0053256624 -0.08995184 -0.10845689
000240 83 d5 8c bb 91 09 83 3c a9 b8 a2 bd 53 06 e8 3d
       -0.0042979135 0.015995773 -0.079453774 0.11329331
000250 c7 c9 d2 bb 95 b7 53 bc fb bc b9 3b 5c 64 54 bd
       -0.006432745 -0.012922187 0.00566828 -0.051853523
000260 d1 f2 b1 bd 5e 64 bb 3d fe 9a 50 bd 6e 6e 8a bb
       -0.08688892 0.09150003 -0.050929062 -0.00422459
000270 e8 1a 3a bd ab 0c 60 3d 66 bf 06 bd 72 5b e0 bd
       -0.045435816 0.05469958 -0.032897376 -0.10954942
000280 ec 59 de 3d c2 1b a1 3d e6 7a 11 bd 54 87 33 bd
       0.10856995 0.078666225 -0.035517596 -0.04383023
000290 af 08 6f bd 75 f4 f2 3c 1c ef 2a bd 8f 59 87 bd
       -0.05835789 0.029657582 -0.04173194 -0.06608879
0002a0 a9 0a 44 bd 31 23 8c bd e7 fd f3 bd ab b3 ad bd
       -0.04786173 -0.0684265 -0.119136624 -0.084815346
0002b0 f4 f3 df bd e4 30 6c bd 66 d4 10 bc fb 83 28 bd
       -0.10935202 -0.057663813 -0.008839702 -0.04114149
0002c0 fe ad a1 3d 8e eb e8 3d 3d 54 6c 3d e2 e3 23 be
       0.078945145 0.113730535 0.057697523 -0.16004899
0002d0 d7 b9 3f bd d4 5c 90 bd a3 c6 c7 bb e0 69 79 3c
       -0.04680809 -0.070489556 -0.0060966774 0.0152229965
0002e0 c1 58 ac bd 5f ed 23 bd 19 ef 0a be 12 bd 01 3d
       -0.08415366 -0.040021297 -0.13567771 0.031674452
0002f0 4d 5a a8 bd 89 98 dd 3c 1c a8 b6 bd a0 16 27 3c
       -0.082203485 0.027050273 -0.08918783 0.010198265
000300 53 f1 b1 bd 75 a0 6b 3d b8 90 bc bd 63 67 db 3c
       -0.08688607 0.05752607 -0.092072904 0.026782697
000310 6f a6 7c bd 90 ab e2 bb 69 b2 b1 bd 69 52 93 3d
       -0.06168216 -0.0069174245 -0.08676607 0.07193453
000320 31 8b fc bd 0a ad b5 3c ee ff c2 bd 32 1b 91 bd
       -0.12331236 0.022177238 -0.09521471 -0.07085265
000330 b9 49 06 bd 29 64 3e bd 7a ae b8 bc 7d 32 87 3d
       -0.03278515 -0.04648224 -0.022544134 0.06601427
000340 79 01 12 be 0e cf 76 bc c2 2b 01 bd d1 51 15 bc
       -0.14258374 -0.015064014 -0.03153587 -0.009113745
000350 d0 bf 07 3d 23 0c 92 bd 12 f7 44 be 46 dc a9 3d
       0.03314191 -0.07131221 -0.19234875 0.08293967
000360 d8 75 7b 3d 28 06 09 be 55 f2 b7 3b 1f 55 f1 3c
       0.06139168 -0.13381255 0.005613605 0.029459534
000370 a5 7e 10 b9 a1 6a f4 3d 49 a4 7c bd 85 d4 76 bc
       -0.00013780089 0.119344 -0.061680112 -0.015065317
000380 48 43 3c 3d 87 f1 de 3c fd 31 08 3d 67 53 96 bd
       0.045962602 0.027214779 0.033250798 -0.073401265
000390 16 ac 48 3d 6f 6e 90 bd 27 58 9d bd cc ae 52 3d
       0.04899224 -0.070523135 -0.07682829 0.05143623
0003a0 97 1f 87 3d c4 20 a6 3d 36 33 b1 3d 6c 8b 53 bc
       0.06597822 0.08111718 0.08652346 -0.012911659
0003b0 99 f6 90 3d 5b 3d 8b 3d b0 bc ed bd 31 07 a0 bd
       0.07078285 0.06798812 -0.11608255 -0.07813872
0003c0 d5 1f d0 bd 54 d9 0f bd c2 63 0e 3d d4 c0 a1 bd
       -0.101623215 -0.03511937 0.034763105 -0.07898107
0003d0 c8 ed 26 3c 20 b9 6c bd d0 59 b8 bd f4 41 88 3a
       0.010188527 -0.057793736 -0.090015054 0.0010395632
0003e0 14 50 30 bd 77 03 41 be 53 e4 45 bd a3 b6 7f 3d
       -0.04304512 -0.18848978 -0.04831345 0.062430035
0003f0 6c b8 fb 3b 0e f9 39 bc a3 71 97 bb 75 4e 8d bd
       0.007681897 -0.011350883 -0.004621701 -0.0689973

block3.2.bias f4 [26]
000000 46 13 60 bd 3a 56 dc 3b 4d af ad bd f2 39 41 3c
       -0.05470588 0.006724146 -0.084807016 0.0117936
000010 43 71 68 bd e9 4b 0b 3c c8 16 96 3d 8d c8 a4 3d
       -0.05674864 0.008501985 0.07328564 0.080460645
000020 5a ea 72 3d 89 07 30 bd 64 6d b6 3d 24 1f 94 3d
       0.059305526 -0.042975936 0.08907583 0.07232502
000030 f4 f3 72 bd 23 7d 4a 3d cf de 3c 3d 7a cb 89 bb
       -0.059314683 0.049435746 0.046110924 -0.0042051645
000040 be 27 79 bc 9d b1 6a 3d 5b 92 ee 3c 48 0d 89 bd
       -0.015207229 0.05729829 0.029122522 -0.06691986
000050 4a 8b 2d 3c 5f 1d 1d bd 4a 21 15 3d fb 8c 4b 3d
       0.010592291 -0.03835809 0.0364087 0.049694996
000060 6c 4c 2f bd a8 e5 83 bc
       -0.04279749 -0.01610072
