current_model/current_model.pth (torch_old, 695801 bytes, 8 tensors)

block1.0.weight f4 [16, 3, 5, 5]
00000000: fdba 903d 5419 743d 1d04 ec3c fb92 2c3c
00000010: 1681 25bd 87d4 e9bd 08cd 11be 9400 aebd
00000020: 796e dc3d 6034 a5bb d09f c8bd 1d43 18be
00000030: 45e7 903d a2a9 653c 810d d33d a684 14be
00000040: 318b 08be a754 00be 0114 18bd a195 303e
00000050: 1284 e93d 48ee a5bb e9df d4bc 692f f33d
00000060: c001 fcbb 615a 543b da0a 553d b603 e13d
00000070: 3f24 ad3c bbd2 04bd 94e7 46be de25 c3bd
00000080: 4c0d 1aba 128f 9e3d da52 c93c 01b9 48bd
00000090: f14c d4bd 490f 5abd 62e5 9a3c 4474 42bd
000000a0: de02 91bc 406b 41bd c1c3 eabd ce6c d23d
000000b0: a357 123d a8fc b8bd 7161 d83d 208f c53d
000000c0: 03ec 273e 48ed 3c3e 8b64 913c e1e7 a03b
000000d0: 039c 2cbc dcce b93d 7e4a e13d ec76 04be
000000e0: 64da 1bbe d7ab 6e3d e359 803d 1f0b 853d
000000f0: 70d4 5cbd 29c7 42bd 0358 6dbb 6dd8 a8bd
00000100: efb5 c53b 1eec 52bd 18e7 c73c dd36 14bc
00000110: c62a 83bd f7ea fc3d 0b5a 00be 09c1 33bd
00000120: 2da9 c13d 7b6c 83bb 2638 233e 6e61 08be
00000130: 0eac 96bd 6247 40bb b3ca 013c 764a 0bbe
00000140: 2bed 123c ed77 1cbe 002d 67bd 77af 73bd
00000150: 896b 003d 736c 1fbe 6814 24be be42 21bd
00000160: 99c3 19be 95bb dbbd b80f 35bd 4052 603d
00000170: 5968 d2bd f85c bebd 41f5 b63c 457f debd
00000180: 7bf8 853d ab47 07be 7d81 ccbd c97b febd
00000190: 233d a53c e206 28be a43f cbbc cc7d aebd
000001a0: e509 4d3d fb30 f8bd e2c7 f3bc 5d4e 80bb
000001b0: 7518 e4ba fbe0 513c fe7f 03be c43d 22be
000001c0: 94df abbd 76b7 42be fafa 0dbe 0499 f13c
000001d0: 6ee1 13be dbed 7abd 95df 96bd be8b dcbd
000001e0: dd75 6e3d 58d1 433d 4fc3 153d 113a bbbd
000001f0: b8d1 12bc f28e 873d de0d 4fbd 4b55 23be
00000200: acee d7bd a2f7 04bd b4cc 7cbd c1ac 9cbd
00000210: d163 cfbd bcac 863d e293 bebd f62e 9d3b
00000220: afb3 2dbe 8a1c 8d3b 4981 2fbd e188 bf3b
00000230: a39c 11bd bb77 86bd 023f b4bc e392 46bd
00000240: f9ec 43bc 7cdc 0fbe ac1a ebbd d8e5 2e3d
00000250: 0f0e 5a3c a411 1ebd a3dc b3bd cc84 e8bd
00000260: 46df 8f3c 8b1f 14bc ec1e af3c a238 923d
00000270: 185e ff3c d927 2e3d 4c7c 5f3d 87a5 d23d
00000280: 380d 1f3d afb6 d2bc 965b 223d a4e9 c7bd
00000290: aac5 6cbc 5811 a2bd 7d26 7c3b 6bec 83bd
000002a0: d7ad 61bd 5b9b 88bd b2b1 1fbe fe9c 033d
000002b0: 6797 10be 5127 24be 65de 243d a361 a43c
000002c0: 39bc 2a3d 7122 b7bd 8007 84bd d4de e1bd
000002d0: 0116 f63d 159e b03a 205f 8e3c c4c0 813d
000002e0: bb4e bc3d bbee 03bd 9ac9 d43d 7917 c53d
000002f0: 1f99 813d a117 ac3c 5024 93bb 1176 a33d
00000300: ad50 7a3d 9d4d 5f3d d65b f1bd ffb4 c63c
00000310: 581b e1bd a072 0abd dd1f 303d 307a 04be
00000320: af05 623d 7516 5b3d ba0b 12bd 4fa7 c93d
00000330: 866f e33d 739c f43d fac4 723d 254c 8ebd
00000340: f44d f03b 5bf7 2bbd 52bd 543d a86d 43bc
00000350: c90d d53d d9eb 093d 2d6a d23d bd6a bd3d
00000360: bdba 8bbd 5fa1 5bbd 16e3 c8bd cf1d 86bb
00000370: 7b0e a7bc e401 97bd e1b0 513d e3c7 d7bd
00000380: 2a92 7bbd d642 15bd f1b7 b83b 9e64 92bc
00000390: 573c 703d 062d 39bd db60 dabd e50a 033e
000003a0: fb2c 30bc d3e0 8b3d b9e5 6b3d 2447 18be
000003b0: 86cf 22be 10da 20be 5b04 15bd f08a ff3d
000003c0: 13c7 20be ca5b cebd b836 9f3d 3c75 1c3e
000003d0: 7a81 a23d d599 a6bd 14d9 b9bd 2ba3 133e
000003e0: c89e 503d a483 0a3d d7ba 253d eb99 d83d
000003f0: c2b8 e03d a036 5a3d 6969 053e 39b5 87bc
0.07066915 0.059594467 0.028810555 0.01053309 -0.04040631 -0.114174895 -0.1423837 -0.08496204
0.107632585 -0.005041644 -0.09796107 -0.14869352 0.07075361 0.014017494 0.1030531 -0.14503726
-0.13334347 -0.12532292 -0.037128452 0.17244579 0.114021435 -0.0050638057 -0.025985675 0.11874277
-0.0076906383 0.0032402503 0.052012302 0.10987036 0.021135448 -0.03242753 -0.19424278 -0.09528707
-0.0005876615 0.07742132 0.02457564 -0.04900456 -0.10366238 -0.053237233 0.018908206 -0.04747416
-0.017701562 -0.047221422 -0.11463118 0.10274659 0.03572811 -0.09032565 0.105654605 0.096464396
0.16398625 0.1844989 0.017748138 0.0049104546 -0.010535243 0.090726584 0.110005364 -0.1293599
-0.15220028 0.058269348 0.062671445 0.06496262 -0.053913534 -0.047553215 -0.003621579 -0.08244405
0.006033651 -0.05149471 0.024402186 -0.009046284 -0.06404643 0.123495035 -0.12534349 -0.043885265
0.09456096 -0.0040107346 0.15939388 -0.13318416 -0.073570356 -0.0029339422 0.007921862 -0.13602623
0.008967678 -0.15280123 -0.0564394 -0.05949351 0.031352554 -0.15568714 -0.1602341 -0.03937029
-0.15016021 -0.10729138 -0.044204444 0.05476594 -0.10273809 -0.09295076 0.022333743 -0.108641185
0.065415345 -0.13210933 -0.099856354 -0.12425954 0.020170754 -0.16408876 -0.02481062 -0.085200876
0.050058264 -0.12118717 -0.029758397 -0.0039155916 -0.0017402308 0.012809987 -0.12841794 -0.15843874
-0.083922535 -0.19015297 -0.13865271 0.029491909 -0.14441463 -0.061261993 -0.07366864 -0.10768841
0.058217872 0.047807068 0.036563214 -0.09141935 -0.008961134 0.066190615 -0.050550334 -0.15950505
-0.1054357 -0.032462724 -0.061718658 -0.07650138 -0.1012646 0.06575915 -0.0930555 0.004796858
-0.16963075 0.0043063806 -0.042847905 0.0058451747 -0.03554977 -0.065658055 -0.0220027 -0.048479926
-0.011958354 -0.14048952 -0.11479697 0.042699665 0.013309016 -0.038591042 -0.087823175 -0.11353454
0.01756252 -0.009040724 0.02137705 0.07139708 0.031172797 0.04251847 0.054561898 0.10285478
0.038830966 -0.025721876 0.039638124 -0.0976136 -0.014451424 -0.07913464 0.003847509 -0.064415775
-0.055097427 -0.06670257 -0.15595129 0.03213214 -0.14120255 -0.16030623 0.040251154 0.020066088
0.04168341 -0.08942116 -0.06446743 -0.11028829 0.12015916 0.0013474846 0.017379344 0.06335595
0.09194704 -0.032210093 0.10390015 0.09623618 0.06328034 0.02100736 -0.004490413 0.07981504
0.061112095 0.054517377 -0.117850944 0.024256228 -0.109915435 -0.03380072 0.042999137 -0.12937236
0.0551812 0.053488214 -0.035655715 0.09846365 0.11105256 0.11943903 0.059269883 -0.06948117
0.0073335115 -0.041983943 0.051938362 -0.011928 0.1040302 0.033672187 0.10274158 0.09248874
-0.06822727 -0.053620692 -0.09808938 -0.004092909 -0.020392647 -0.073734075 0.051194075 -0.10536172
-0.06141869 -0.036440693 0.005637162 -0.017870244 0.058651295 -0.045208953 -0.10663005 0.12797125
-0.010752912 0.06829991 0.057592127 -0.14870888 -0.15899476 -0.15708184 -0.036381107 0.12477672
-0.15700941 -0.10076101 0.07774109 0.15279096 0.07934852 -0.0813481 -0.090746075 0.14417712
0.050932676 0.03381695 0.040461387 0.105762325 0.1097274 0.05327475 0.13028492 -0.016565906

block1.0.bias f4 [16]
00000000: 3396 b13c 205b efbc 56e6 0c3e 5013 953d
00000010: d381 24be 2099 68be e9ab 213d 10d3 353e
00000020: 6037 d83c 03b4 0cbd a118 c23c 92c7 85bd
00000030: e92f d3bd 4ede d33c fe7e c63d 37c8 bf3a
0.021678066 -0.029218256 0.13759741 0.07279074 -0.16065149 -0.22714663 0.039470587 0.17756295
0.026393592 -0.03435136 0.023693385 -0.06532206 -0.103118725 0.02586284 0.096921906 0.0014631812

block2.0.weight f4 [32, 16, 5, 5]
00000000: 6af2 8a3d dbf8 47bc 0f88 603c 988b 88bd
00000010: c8d3 c0bd df87 993d 0b88 bf3d 1834 5a3d
00000020: ac62 ec3c 14f0 41bd 31b4 bd3d ade1 d13d
00000030: eba7 3b3e 1975 b23d 9cf5 10bd cb6e 203d
00000040: cd6e 813d 68d4 c63d 5982 19bd 55a3 ecbb
00000050: 89ec 34bb ba33 8abd 4d7c c0bd 15f3 5fbd
00000060: ec2d 96bd 11c6 7c3d 23aa 083d 47b3 e8b9
00000070: b4c3 45bd b569 63bc 0878 e93c 0228 433d
00000080: 0996 013d d62d aa3c b48c 0cbd 155d 113d
00000090: 0986 c13d 9ae4 c83d 2149 7abc 353e 173d
000000a0: 0667 53bc 8996 0fbc 98b3 063c 0d55 71bb
000000b0: 3810 e1bb 4bbb 2ebd 48ad 88bb 62f2 d23b
000000c0: 9dce e2bc 580b eebc ffcd 4d3d 6275 583d
000000d0: cfc4 38bd 6c06 50bd ca83 fabc ad44 bd3d
000000e0: 7e5a 633d 74cb f73c a500 62bd 34ca eebc
000000f0: 1e14 63bd 52a5 9bbd 7f88 9cbd 9ed5 babc
00000100: add2 56bd 219e 3b3d 9467 0e39 c664 c1bb
00000110: d5f1 943a 75e9 10bd 1fb6 983c 56a6 7d3c
00000120: fa7f 1c3d de94 4539 8d30 dc3b e729 e93c
00000130: 0b59 613d 5b12 cbbc 9ec2 6c3c 339a edbd
00000140: 2b9a f23d 1a88 243e f82b f13d 6644 9b3c
00000150: 2b96 79bd 8747 123e a75b 023e 1151 243e
00000160: dbb3 d03c 4447 4dbd 4da6 8a3d 9026 0e3d
00000170: cbe7 9f3d d9f0 16bd 637d eebc 90f8 21bd
00000180: 7c73 c9bd a0f2 45bd a5f9 19bb 4ac7 173c
00000190: 6f29 953d b638 5a3c 6bb5 9dbc c497 1ebd
000001a0: a0a5 ffbc 3aa9 0a3d 5946 593d ff23 973d
000001b0: 5c8d 763d 489b 3f3d f3e6 323d bb42 163d
000001c0: 4e2b 963d 722c 903d e1ac cc3a 1fb0 abba
000001d0: 0ca5 9abb 1221 0e3d 9744 6c3d 3d48 27bc
000001e0: aada 093a 46ff 0d3d 2823 613c 97d2 2dbc
000001f0: 9f57 36bc 19d8 bcbb 26b3 68bc a9b8 053c
00000200: 9554 393d 7ba7 b73c 4f7a 393d e1bf a03d
00000210: bf21 d33c cbfa e33c 9b5b 413d e4f9 c43d
00000220: 9197 cc3d 648f d73c 1e49 1f3d a477 abba
00000230: 989c 943c 668b 223d 81af 7b3d d03e e93c
00000240: 8d96 0a3d e16c 18bd 144b 7d3d 698f 063d
00000250: 9902 903d 058a b33c 3545 0a3e 8e41 873c
00000260: 42ea 9fbd 10f6 2fbe 3e78 31be 8fb5 1b3e
00000270: 4855 bd3d 0b8f a93d b4c2 f0bc 812f 23be
00000280: 9246 543e 8a09 423e 7fc7 553e fd60 2d3b
00000290: 9be2 c0bd 0a83 403e c4e7 1c3e 9a1c 2b3e
000002a0: 850c 1d3d 37be 3bbc 1559 d73d 3d25 c13c
000002b0: c9bd bbbd 587c 34bc e82e 82ba e0a1 9f3d
000002c0: 7017 cb3d 6d39 743d a015 683d 40df 0e3c
000002d0: 4f1e e0bc 1e92 963d 2b04 ed3d f6e2 ce3b
000002e0: 68dc 363c c754 343d 0fa0 e63d ca9e a63d
000002f0: 9dc8 603d a1ae d3bc 7f9d 093e 255c 983d
00000300: f649 093e 1c91 ab3d 8e06 5f3d cace fcbc
00000310: c5fe c63c 64ad 6a3d 0104 e8ba 5b24 b23c
00000320: d5cf 883d 2153 8a3b 2f72 523a 4374 fbbd
00000330: 3de4 38be 35c2 6a3e 903e 473e e2ff d43d
00000340: c672 32bc 7c4f 0dbe ccce 523e 607c 253e
00000350: 460c a73d 4f0b 1bbd 82fa 41be 6694 ee3c
00000360: 578b 0b3d a451 c4bc 6479 ebbb d3fd 873c
00000370: ee47 8bbd ad0e 133c 68f1 12bd 3a2b a03c
00000380: 46ce 0abc 79aa 793c f2c5 9c3b 6473 26bc
00000390: 822f ccbd e9ea 47be e545 7e3e b216 653e
000003a0: c64f 153e aef7 16bd 67f3 35be 3c09 503e
000003b0: 89df ff3d fb40 c739 1f69 a1bd 5869 1cbe
000003c0: 5ee4 ee3c c883 f83c 90c6 303d 6298 5a3c
000003d0: 5cc8 15bd aff5 6a3c 7e16 cebc 8a1e d43c
000003e0: efcc 1ab9 e79b 073d a4da 303e de99 083e
000003f0: df55 3d3d eb71 46bd 68a1 b7bd da7a 4b3e
0.06784518 -0.012205328 0.013704314 -0.066672504 -0.09415394 0.074966185 0.0935212 0.053272337
0.028855644 -0.047348097 0.092628844 0.10248122 0.18325774 0.08713741 -0.03539048 0.03916816
0.06319962 0.09708482 -0.037477825 -0.007221619 -0.0027606806 -0.06748147 -0.093987085 -0.05467518
-0.07332978 0.06171233 0.03336538 -0.0004438406 -0.04828234 -0.013880183 0.028499618 0.047645576
0.031637225 0.02077381 -0.034313872 0.03548916 0.09449393 0.09809227 -0.015276224 0.03692456
-0.012902981 -0.008763918 0.008221529 -0.0036824376 -0.0068683885 -0.042659085 -0.0041710474 0.0064375857
-0.027686412 -0.029058143 0.05024528 0.05284632 -0.045109566 -0.050787374 -0.03058042 0.092416145
0.055506222 0.030248381 -0.055176396 -0.029149152 -0.055439107 -0.07599892 -0.07643222 -0.022806939
-0.05244701 0.0458051 0.00013580761 -0.0059019057 0.0011363575 -0.035378892 0.01864153 0.015481552
0.038207985 0.00018842841 0.006719655 0.028462363 0.05501656 -0.024789026 0.014450697 -0.11601677
0.118458115 0.16067544 0.117759645 0.018953513 -0.060934227 0.14285098 0.12730275 0.1604655
0.025476387 -0.050116792 0.067700006 0.034704745 0.07807883 -0.036850784 -0.029112523 -0.03954369
-0.0983648 -0.04832709 -0.0023494747 0.009263823 0.072832935 0.013319185 -0.019251546 -0.038718954
-0.031206906 0.033852793 0.053045604 0.073799126 0.060193405 0.046778947 0.04367728 0.036684733
0.073324785 0.07039727 0.0015615487 -0.0013098753 -0.004719382 0.034699507 0.0576826 -0.010210094
0.0005258719 0.034667276 0.013741292 -0.010609291 -0.011129289 -0.0057630655 -0.014202869 0.008161702
0.04524668 0.022418728 0.04528266 0.07849098 0.025772927 0.027829548 0.047206502 0.09617975
0.099898465 0.026313491 0.03888809 -0.001308192 0.018141076 0.039683722 0.06144667 0.028472334
0.033834983 -0.03721321 0.06183918 0.03285161 0.070317455 0.021916399 0.13502963 0.016510751
-0.07808353 -0.17183709 -0.17331025 0.15205978 0.09244782 0.082792364 -0.029389717 -0.1593609
0.20730045 0.18948951 0.20876883 0.0026455515 -0.094182216 0.18799987 0.15322787 0.1671013
0.038342018 -0.011458925 0.10515038 0.023577327 -0.09167058 -0.011015974 -0.0009932192 0.07794547
0.0991658 0.059625078 0.05666125 0.008720219 -0.027358202 0.073520884 0.115730606 0.006313677
0.011160947 0.044026162 0.112609975 0.08135755 0.05487882 -0.025840105 0.13438986 0.0743945
0.1340712 0.08377287 0.05444961 -0.030860323 0.024291405 0.057294264 -0.0017701389 0.021745851
0.06680266 0.0042213355 0.0008027879 -0.122780345 -0.18055816 0.22925647 0.1945746 0.10400368
-0.010891622 -0.13799852 0.20586699 0.16160727 0.08156638 -0.03785258 -0.18943217 0.029123496
0.03406843 -0.02396471 -0.0071861017 0.016600525 -0.06800829 0.008975667 -0.035874754 0.019551862
-0.008472031 0.015238398 0.004784339 -0.010159347 -0.09969999 -0.19523205 0.2483135 0.22371939
0.14581212 -0.0368573 -0.17768632 0.20316023 0.12493808 0.00038004652 -0.078813784 -0.1527456
0.029161628 0.030336276 0.043158114 0.013341995 -0.03656803 0.014340802 -0.02515721 0.025893468
-0.00014762928 0.033107664 0.17270905 0.13339946 0.04622447 -0.048448484 -0.08966333 0.19871083

block2.0.bias f4 [32]
00000000: 7da1 80bd 3454 26bd ddd9 03bc 5d08 f23c
00000010: 98d2 c4bd c85a bfbd f407 023e 4191 31bd
00000020: 4bbe edbd 1723 9abc 9694 39bd a561 c8bd
00000030: 160f 2e3d 9395 63bb 33de dabd 2c5c bbbd
00000040: 65aa 71bc a49d 5fbc 9405 1dbd 11a5 b2bc
00000050: ad28 193e 5488 03bd cacd c9bd f4a0 d93c
00000060: cb0d 973d 8ca3 2abd a3a4 58bd 1de8 83bc
00000070: cef6 87bd 846c dfbb 51f3 893a 8c91 0cbd
-0.062808014 -0.040607646 -0.008047548 0.029545004 -0.0961048 -0.09343487 0.12698346 -0.043351416
-0.11608561 -0.01881556 -0.04530772 -0.09784249 0.042494856 -0.0034726604 -0.106869124 -0.0914844
-0.014750098 -0.013648424 -0.038335398 -0.021807225 0.14956923 -0.032112435 -0.09853704 0.026566006
0.07375678 -0.041659877 -0.052891385 -0.016101891 -0.06638871 -0.006818356 0.0010524784 -0.03431849

block3.0.weight f4 [100, 1568]
00000000: 0a74 7bbc c3b5 803c 72fd 50bc 42a1 11bd
00000010: 9c31 6cbc 2074 88bc 66e1 d9bc c150 cdbc
00000020: 9b4d 96bc 22b2 81bc 9927 acbc f710 853b
00000030: 40a0 fabc 2b32 843c 0ae4 1cbc fb09 613b
00000040: 08ad 38bc 8bd1 02bc 7564 003c aa52 0cbc
00000050: d073 a13c 7523 8138 f4f8 c7bc 98f1 19bc
00000060: a495 ddbc e817 32bd 06e8 2ebc 0898 adbc
00000070: 8ddd c6bc d685 edbc 0d0b 923c 0dad 963b
00000080: a8f4 05bd 151f 37bd e96d 11bd e8de 00bd
00000090: c319 7abc 1b2e 3a3d ec74 283c 3880 24bd
000000a0: 4241 8cbd b804 abbc 87f7 69bd 72f5 1cbd
000000b0: a71b 573c 99e8 023d 33f4 413b 66a5 0bbd
000000c0: 6ccd c0bc 8743 86bc 27cc 92bc cac3 713a
000000d0: b5c4 8cbc 92dd 09bc 086f abbc 194c 9a3c
000000e0: e3d7 2d3c e9c9 c9bc 4c6e 4abc 8628 e5bc
000000f0: f44e 973c bac2 d43b b660 c7bc 9987 a93b
00000100: 75b6 ac3b ddc6 1b3c ba8c ddbc db2a 8cbc
00000110: 4acc cc3b f8e2 a33b e89d e8bc 6771 c9bc
00000120: 5b50 213a b343 dbbc 2cf1 96bc ed56 b9bb
00000130: d845 a4bb c1f8 b6bc 09bd 7f3b c438 c0bc
00000140: 68f7 33bb 36c9 3c3c 11e9 b4bb 1d7a d9bc
00000150: 1a8c f13b 9026 933c 6cba 2cbb e228 6bbb
00000160: 164f d2bc e4f6 0abc 7278 cbbc 93f4 133c
00000170: db1d 21bb c2bb 0abc ba3d cb39 406c d53b
00000180: 1b66 3f3c 2518 52bc e9dd 14bc b68a 2cbd
00000190: d1ef 28bd a3eb e9bc d8ce d63b b99b a9bb
000001a0: 9a49 f13b 79c5 8f3c 6436 823c 1c3d 323c
000001b0: e057 aa3b 072d e1ba 167a ca3c 7f71 6139
000001c0: e957 6d3b 2baf 51bc 9484 21bc 4266 3bbd
000001d0: 19a7 a6bc 0b66 633c 93e6 073d 639a 873c
000001e0: 8a42 0c3d a62b 823c 65bb 4c3b b5ec 0abd
000001f0: 20df 64bc 1720 b63b bbb0 143c 4771 9ebb
00000200: 3349 b63b 6c96 64bd b189 84bd 0ded f1bc
00000210: 89b8 503a 0ab4 debc e764 0c3b 2e24 8bbb
00000220: 69de 023b f2c9 f4bc 0c94 b8ba 7703 24bc
00000230: 2766 f9bb a197 d8bc 23a8 90bc 620a dbbc
00000240: 385d bcbc 32f5 3dbc 0430 4dba 42a0 55bc
00000250: 1507 e73b 6965 e9bb c4c6 db3c 3458 2fbc
00000260: e350 9b3c 69b0 c2bc 32cc e7bb 0f26 d6bb
00000270: ad62 983c 243a a9bb e737 073c 4b45 87bb
00000280: 49f3 913c 4e5c d53c 4eeb d23c 4a9b 0e3c
00000290: 1bc4 43bc d88d ec3c e3b5 0b3c 1a38 94bc
000002a0: b4ea 32bc c72b 7c3c 0fe6 4dbc 99e9 b73c
000002b0: c2c9 273d 2fc0 bf3c 53ed a53c b1a2 c33c
000002c0: 248a fdbc e58d 423c 8195 163b 2bd1 fd3c
000002d0: c928 fc3c d311 2cbc 4fbb afbc ab69 6d3c
000002e0: ab7b 8c3c c84f 39bc da99 0e3c c995 f53c
000002f0: 7920 cfbc 6abb 623b a442 c7bc bd48 af3c
00000300: 22f6 9a3c cd81 c63c 4f1b 303d 703c e2bb
00000310: 5153 99bc dfa7 853c 6e36 2abc 1d48 89bc
00000320: 3e4a 543c fadf 6e3c da20 9c3b e820 533c
00000330: 045f 1c3c 5225 f0bb 0733 fe3b 7d8b 923c
00000340: 1de2 93bc 3924 203b cda8 9bba 59e2 623c
00000350: 14e4 82bb 51ad 943c 4aa6 eabc acb0 2d3c
00000360: 9c65 ebbb fd70 c83b 3a71 0f3c 1c8e d1bc
00000370: 9f1a c6bb 9f9c 59bc b643 363c b4aa 7f3b
00000380: e205 11ba 6dbc bebb 35b0 93bc 5b72 69bc
00000390: 8a68 51bc acb6 173b 1d9a 23bc ecff 6e3b
000003a0: bfb0 8bbc 390a 7e3c aeb0 1cba ef51 2bbc
000003b0: 2680 323c 5f62 0b3c 764a b93c 1127 753c
000003c0: f92a a6bb 7066 103c 75ff d1bc 899c a8bc
000003d0: c577 b23c 0535 eabc 2f34 093a 721f 303c
000003e0: f3b2 30bb 7f63 f6bc e346 843c bc36 92bc
000003f0: 1170 70bc 66fe 3639 ffcb d5bc 2f3e b0bc
-0.01534749 0.01571167 -0.012755739 -0.035554178 -0.014416125 -0.016656935 -0.026596736 -0.02506292
-0.018347552 -0.01583201 -0.021014975 0.0040608603 -0.030593991 0.016137203 -0.009575853 0.0034338224
-0.011271723 -0.007984529 0.007836451 -0.0085646305 0.019708544 6.157804e-05 -0.024410702 -0.009395979
-0.027048893 -0.04347983 -0.010675436 -0.021190658 -0.024275566 -0.028994482 0.017827535 0.004598266
-0.032704026 -0.044707377 -0.03550521 -0.03146258 -0.015264931 0.045454126 0.010281783 -0.04016134
-0.068483844 -0.020876274 -0.057120826 -0.038320012 0.013129151 0.031960104 0.0029595017 -0.034093283
-0.023535453 -0.016389621 -0.017919613 0.0009222595 -0.017183641 -0.008414643 -0.020926967 0.018835114
0.010610553 -0.024632411 -0.012355398 -0.027973425 0.018470265 0.00649294 -0.024338108 0.005173635
0.005270774 0.009507862 -0.027044643 -0.017110279 0.006249939 0.005001422 -0.028395608 -0.024590207
0.00061536365 -0.02676568 -0.018425547 -0.0056561143 -0.005013209 -0.022335412 0.0039022586 -0.023464568
-0.0027460698 0.011522582 -0.0055209477 -0.026547486 0.0073714377 0.017962724 -0.0026356233 -0.0035882522
-0.025672477 -0.008481715 -0.024837706 0.009030479 -0.0024584446 -0.0084676165 0.00038765167 0.0065131485
0.011682059 -0.012823139 -0.009086111 -0.042124473 -0.04124433 -0.028554743 0.0065554194 -0.0051760343
0.0073635103 0.017550217 0.015895076 0.010878827 0.005198464 -0.0017179557 0.024716418 0.00021499953
0.0036215729 -0.012798111 -0.009858269 -0.045751818 -0.02034335 0.013879309 0.033178877 0.01655311
0.034243144 0.015889954 0.0031239626 -0.033917148 -0.013969213 0.0055580246 0.009075339 -0.004835281
0.0055629252 -0.055807516 -0.06471575 -0.02953198 0.0007962068 -0.027185459 0.0021422447 -0.0042462563
0.0019968993 -0.029881451 -0.0014082207 -0.010010592 -0.0076110545 -0.02643949 -0.017658299 -0.02673835
-0.022993669 -0.011594104 -0.0007827284 -0.013038697 0.007050405 -0.0071226847 0.026828177 -0.010702182
0.018959468 -0.02376576 -0.0070739025 -0.0065352987 0.01860174 -0.0051644016 0.008253074 -0.0041281334
0.017816203 0.02604499 0.025746968 0.008704016 -0.011948611 0.02887623 0.008527252 -0.018093158
-0.010920215 0.015391297 -0.012567057 0.022450255 0.040963896 0.02340707 0.020254767 0.023881288
-0.03094966 0.011874651 0.0022977295 0.030983528 0.030781167 -0.0105022965 -0.02145162 0.014490525
0.017148813 -0.011310525 0.008703673 0.02997865 -0.025284039 0.003459657 -0.024323769 0.021396989
0.018916193 0.024231816 0.042994794 -0.0069041774 -0.018716486 0.016315399 -0.010388954 -0.01675802
0.012957154 0.014579767 0.0047646584 0.012886263 0.009544138 -0.0073286677 0.007757548 0.017888779
-0.018052155 0.0024435653 -0.0011875868 0.013847911 -0.003994474 0.01814905 -0.028643746 0.010601204
-0.0071837436 0.006116985 0.008755023 -0.025580458 -0.006045654 -0.01328197 0.011124542 0.003901166
-0.00055321876 -0.005820802 -0.018028358 -0.014248456 -0.012781272 0.0023149652 -0.009985474 0.003646846
-0.017052053 0.015505367 -0.0005977255 -0.010456546 0.010894811 0.00850734 0.022618514 0.014962927
-0.0050710407 0.0088134855 -0.025634507 -0.020582454 0.021785626 -0.028589735 0.0005233911 0.010749685
-0.002696213 -0.03007674 0.016147083 -0.017848365 -0.014675156 0.00017451643 -0.02609825 -0.021514026

block3.0.bias f4 [100]
00000000: 5f06 8ebc b244 b43c 096b e0bc 29de 5a3c
00000010: 2230 733c 7228 ab3c 01f3 ca3c 0036 00ba
00000020: 8c08 b4bc 3550 a8bc e3c0 21bd abab 0b3b
00000030: 96ae 2dbd c2fe 46bc 6666 adbc e631 563a
00000040: 3592 4abb e69e f5bc 5ec7 bc3c 773f f73c
00000050: 580c f83c 362c fb3c ee60 653d 5ba1 753b
00000060: e665 00bd 600c 46bd fe11 0e3b 2214 463d
00000070: 8f77 1cbd 7318 08bb 91cf b0bc 0795 66bc
00000080: e577 40bc 8d53 b5bb bfc0 9d3b 26da 22bd
00000090: 288a 7cbc 61aa 253d 5006 dd3c bef4 a4bc
000000a0: b1b9 1a3c bcb4 d8bc 70b0 9cba a060 ccbc
000000b0: f03b a23b d2a6 393a d4f3 d43c 1b64 e03c
000000c0: bca0 e3bb 1d63 193d dd9c 683c fab6 1fbd
000000d0: 9e4b d7ba 0345 213c 09e2 04bc 682e 09bd
000000e0: b437 78bc 01a2 883c d7ed fcbb 8937 f3bb
000000f0: 1285 5c3c 8f98 283d e94e c53c fc9b 323c
00000100: d82b ad3c 7c32 1b3c a7e1 403c 5ad0 a1bc
00000110: 03cc 72bc 6ff7 673d a149 b0bc c58a 0e3d
00000120: 8980 bbbc b2e8 1bbb c361 f3bc 2217 773c
00000130: 092a 5c3c 65b1 8dba e956 203d 2e1e 0cbd
00000140: 1689 0a3d 03d8 03bc 583b 87bc 32b4 383d
00000150: 1912 dd3a 8aee 82bc 2377 87bc c633 6fbc
00000160: 27fc 65bc 4d73 b9bc 58ad 8dbc b18c 3f3c
00000170: ee68 213d 3841 8dbc bddd b13c b592 99bb
00000180: 2a78 ce3c 3297 7ebc 8589 7abc 992c 97bb
-0.017337022 0.022005413 -0.027394788 0.013358631 0.014843019 0.02089331 0.024774076 -0.0004890859
-0.021976732 -0.020546058 -0.03949059 0.002131204 -0.042402826 -0.0121457 -0.021166991 0.00081708876
-0.00309099 -0.029982995 0.023044284 0.03018163 0.030279323 0.03066073 0.056000642 0.0037480209
-0.031347178 -0.048351645 0.0021678205 0.048359044 -0.038199957 -0.0020766526 -0.02158335 -0.014073617
-0.011747335 -0.0055336417 0.004814237 -0.039758824 -0.015413798 0.04044569 0.02698055 -0.020136233
0.009443686 -0.026453368 -0.0011954438 -0.024948418 0.0049509928 0.0007082048 0.025995173 0.027391484
-0.0069466513 0.037448037 0.014197555 -0.03899286 -0.0016425734 0.009843114 -0.008110532 -0.033491522
-0.015149999 0.016678812 -0.0077187824 -0.007422392 0.013459461 0.041161116 0.024085479 0.010901447
0.02113907 0.009472486 0.01177255 -0.01975267 -0.014819148 0.056632455 -0.021519484 0.03480031
-0.022888439 -0.002378982 -0.029709702 0.015081199 0.013437756 -0.0010810314 0.039145384 -0.03420847
0.03382214 -0.008047107 -0.01650779 0.045093723 0.0016866355 -0.015982885 -0.016536301 -0.014599746
-0.014037169 -0.022637988 -0.01729457 0.011691258 0.03940671 -0.017243013 0.021712178 -0.0046866783
0.025203783 -0.015538977 -0.015291576 -0.0046134708

block3.2.weight f4 [26, 100]
00000000: b1cd 4dbd 98c6 013e 4df7 32be aea3 adbd
00000010: 76d8 aebd bcb0 b83d 4d56 ecbc db77 1dbe
00000020: cf38 97bc e294 aebb d03b e23c 4fb3 c03d
00000030: 0c86 3eb9 3e6c dabc 76b4 c23c fa58 2cbe
00000040: 5502 9dbd a5bc 81bc 6d72 88bc 68c4 9e3d
00000050: fee2 63bd 3916 3e3d b30f 60bd 6c4d abbd
00000060: 25c8 2bbc 9dc9 dabd b6aa 2fbd be63 143d
00000070: 73ea d23c eea8 b6bd 367e 9f3d e8a2 f4bd
00000080: 2269 d1bc eacb 8fbc 05fb 953c cb58 b93d
00000090: b2a5 213d 16f7 22bd 0aed cf3d c9fc de3c
000000a0: 9692 fdbd ad6a 203c 8b77 f4bd 7b93 3cbe
000000b0: a469 783c b90d 99bc cc66 2ebc 1152 753d
000000c0: 7ede 3cbe 0c8e de3d aa17 1e3d ad42 9cbd
000000d0: 819a 13be e739 3b3d e402 c6bc cba4 c03c
000000e0: c83b 2f3e 1fe5 e43c e1b0 8bbe d139 aabd
000000f0: ef39 95bd 43d7 d0bd 1078 80bd b608 ecbd
00000100: 14f6 6f3d e7a7 c8bd 5a45 4bbd ac2f babc
00000110: f526 bdbb 28c8 c93c 842e 3ebd 49d3 b03d
00000120: 71ca 6ebd b93a 22bc b128 6b3d b10e 3d3d
00000130: 245c 163e a640 673d b15b ccbd e174 dabd
00000140: 86c6 b13d d10b 8dbc ea62 23be bce3 be3b
00000150: e28d 5f3d 7ec3 b13d d877 b4bc 4e03 793d
00000160: 553e ce3b cd11 53bd 77b9 803b 539e bd3d
00000170: 6e6d 303c 9170 22be e98d 03bd da9c 053d
00000180: ce38 bd3d 20a1 75bd 7af8 ab3d ebf3 a1bc
00000190: 1322 77bd b1fa 15be 1e3a 95bd f0f6 083c
000001a0: e994 e0bd d516 89bd c592 4c3d d04f 98bd
000001b0: 8437 69bc 406d 0f3d cd9c d93d 832e 8e3d
000001c0: d2dd 18bb 8ed5 b83d a2d4 6f3d 0744 8abd
000001d0: 166e b8bc 3497 a1ba 89a5 d2bd d569 26bd
000001e0: f33f 223d 4ab6 e5bb 570a 13be a0f0 43bd
000001f0: c8b9 943d 2f9c 8bbd 7d86 b1bd 9e28 ddbd
00000200: 7299 00bc db28 1cbd d3d6 80b9 b9a5 023e
00000210: 636d 22bd 8e38 24be 05ef c0bc 6d01 2d3a
00000220: ecc8 fb3d d415 06be d721 4cbc be6d c6bc
00000230: 7ce0 93bd 51c1 883b 45d0 8b3d af24 22be
00000240: 33ff 7f3d 2453 893d f278 1bbe 6579 603d
00000250: 7f60 5cbe 255f af3d 11b8 883d 39df 8fbd
00000260: fb5a 2dbc 433b 7dbd 4e57 6b3d 3355 d0bc
00000270: bba1 a73d 09a4 093e 3562 f5bd 74b0 f0bd
00000280: c0c0 30bd 5af4 1f3c 2a82 02bd f826 38bd
00000290: 5ea5 d93d 1ed8 fcbd 78b1 e9bc b27e 4bbe
000002a0: 35ec a4bc 249e a33d e0b6 063c ec6d aa3c
000002b0: b346 b03d 60d6 a63b 5649 b1bd 303f 833c
000002c0: 7a4d a03d 54b7 6abd 9480 7d3c c20e a1bd
000002d0: a420 153d 7efe f9bd 2263 47bb 9027 033e
000002e0: a011 3e3d e63b 8dbc 25f6 31be 771f 9c3d
000002f0: 3c9d 95bd 32b1 543b 0f8d 52bd 7386 f5bd
00000300: c1a8 773d 6879 21be 8c74 34bd 2a02 08bd
00000310: 0de4 1c3c 0a80 323d 60b3 823d b6bb ccbd
00000320: e3ae 763d d0af dc3d a4ae d0bd 4f3d 313c
00000330: 2e54 13bd 22b5 c43d 2e56 b33d 27ce 3ebe
00000340: abbf 94bd b129 30bd 5c44 1d3b 41e4 dc3d
00000350: d472 99bd 0e75 9b3a 830c 093d b3dc 253d
00000360: d265 d53c 4c9d debd a675 08be c3c7 f0bd
00000370: b981 97bc c17c 9fbd 1fe6 d23d 2dd0 91bd
00000380: bd19 5cbd 305c 893d d6b3 083d de7b a3bd
00000390: 70ca ba3d ab8f 8dbc 58f1 82bd a414 d4bd
000003a0: 8a8f 39be ad5e 843c 4539 d53c 100f 8abd
000003b0: bca6 823d da3d f2bd be60 5fbd b182 ea3c
000003c0: 4105 b5bd 7619 1e3d ac9e 9ebd a0fa 9dbd
000003d0: 2cd3 9cbd 07cb 9ebd 0dc1 843b 8fa5 e8bd
000003e0: f9e8 87bd d042 5f3d 91f3 ba3d 2760 57bd
000003f0: ddda 753b 34a1 9abd 4eb3 90bd 83f6 b7bd
-0.05024499 0.12673414 -0.1747715 -0.08478485 -0.085373804 0.090180844 -0.028849745 -0.15377752
-0.018459706 -0.005327807 0.027616411 0.094092004 -0.00018169748 -0.026662942 0.023767691 -0.16830817
-0.076664604 -0.015837023 -0.016656125 0.07752305 -0.0556364 0.046407912 -0.054702472 -0.083643764
-0.01048473 -0.10682986 -0.042887412 0.036227934 0.02574656 -0.089189395 0.07787745 -0.119451344
-0.025562827 -0.017553288 0.018308172 0.09050139 0.03946466 -0.03978642 0.101526335 0.027220147
-0.12381475 0.0097910585 -0.119368635 -0.18415634 0.015161905 -0.018683301 -0.010644626 0.059892718
-0.18444249 0.10866937 0.038596787 -0.07629905 -0.14414407 0.045709517 -0.0241713 0.02351608
0.17112648 0.027941285 -0.27283385 -0.08311809 -0.072864406 -0.10197308 -0.062729 -0.11525099
0.058584288 -0.0979765 -0.049626686 -0.02272781 -0.0057724663 0.024631575 -0.04643108 0.086340494
-0.058298532 -0.009901696 0.057411853 0.04615659 0.14683586 0.056458138 -0.09978426 -0.10666824
0.086804435 -0.017217549 -0.15955701 0.005825488 0.05457867 0.08679865 -0.022029802 0.060794167
0.0062940517 -0.051530648 0.003928359 0.092587136 0.010768278 -0.15863253 -0.032117758 0.03262029
0.0923935 -0.059968114 0.083970025 -0.01976963 -0.06033523 -0.14646412 -0.072864756 0.008359656
-0.10965902 -0.06693808 0.049944658 -0.07437098 -0.014234427 0.0350163 0.106256105 0.06942465
-0.0023325575 0.09025107 0.05855239 -0.067512564 -0.02251343 -0.0012328387 -0.102854796 -0.040628273
0.039611768 -0.007010256 -0.14359413 -0.0478369 0.072619975 -0.06816899 -0.0866823 -0.10798763
-0.007849084 -0.0381249 -0.0002457412 0.1275853 -0.0396551 -0.16037199 -0.023551473 0.0006599639
0.12294182 -0.13094264 -0.01245924 -0.024222251 -0.07220551 0.0041734357 0.06826834 -0.15834306
0.062499236 0.06705311 -0.15182856 0.05480327 -0.21521185 0.08563069 0.06675733 -0.07024998
-0.010580773 -0.061824095 0.057456307 -0.025431251 0.081851445 0.1344148 -0.11981622 -0.11752406
-0.04315257 0.009762848 -0.031862415 -0.04495904 0.106272444 -0.123459086 -0.028527007 -0.19872549
-0.020132164 0.07989147 0.008222312 0.020804368 0.08607235 0.0050914735 -0.08656566 0.016021341
0.078272775 -0.05730374 0.01547255 -0.07864143 0.03640808 -0.12206744 -0.0030424078 0.1280806
0.046403527 -0.017240476 -0.17379053 0.07623189 -0.07305381 0.003245425 -0.051404055 -0.11988535
0.06046367 -0.15768969 -0.04405646 -0.03320519 0.009575856 0.04357914 0.06381869 -0.099967405
0.06022538 0.10775721 -0.1018956 0.01081784 -0.035968952 0.09604861 0.08756672 -0.18633328
-0.0726312 -0.04300851 0.0023997044 0.107857235 -0.07492605 0.0011860447 0.033459198 0.04049368
0.026049528 -0.10869846 -0.1332613 -0.117568515 -0.018494474 -0.07787467 0.10297798 -0.071197845
-0.053735483 0.067070365 0.03337463 -0.0798261 0.09120643 -0.01728042 -0.06393689 -0.103554994
-0.18121162 0.016158426 0.026028285 -0.06741154 0.06379458 -0.118282035 -0.05453562 0.028626772
-0.08838893 0.0385985 -0.07745108 -0.077138186 -0.07657465 -0.07753568 0.0040513338 -0.11359703
-0.06636233 0.054507077 0.09128488 -0.052581932 0.0037514486 -0.07550278 -0.0706545 -0.08982565

block3.2.bias f4 [26]
00000000: a8a7 9c3d 9f4a a03d 51bb f3ba 37e9 fb3c
00000010: f9e4 323a 0268 70bd ae37 8eba 2ed2 a1bc
00000020: d78d 3fbb 9f89 b9bd 7600 cdbd 4221 2fbd
00000030: ba87 bebd 957e 71bd d260 423d f41d c5bd
00000040: 463e eebc 4606 923d ab56 8c3d a76e 1abd
00000050: acfc a7bd 1bcb 98bd 8bc8 b1bd 0558 163d
00000060: 0b6a 673d 630d 253c
0.076491654 0.07826733 -0.0018595253 0.030750854 0.0006824281 -0.05869294 -0.0010850334 -0.019753542
-0.002922883 -0.09059452 -0.100098535 -0.042756326 -0.093032315 -0.05895861 0.047455616 -0.09624854
-0.029082429 0.07130103 0.06852468 -0.037703183 -0.0820249 -0.07460614 -0.08680829 0.036705036
0.056497615 0.010073992
