final_model/current_model_8.pth (torch_old, 700245 bytes, 8 tensors)

block1.0.weight f4 [16, 3, 5, 5]
-0.01574151 -0.22288464 -0.14624824 -0.05039224 -0.1071962 0.018133981 0.012013604 0.005265617
0.092963114 0.10602895 0.039120223 -0.070648335 0.1268896 0.06780145 0.12720941 -0.085287645
-0.061676033 0.08661518 -0.012092851 0.12516214 0.08270833 0.10833412 -0.09685412 0.112542264
0.011818636 -0.14675951 -0.08563387 -0.11552869 0.005340527 0.099260375 -0.13623634 -0.06785349
0.007412144 -0.10609043 -0.075985126 0.08148944 -0.025362585 0.067733966 -0.08007262 -0.06622021
-0.00024826248 0.085468315 -0.029317725 -0.042286675 0.034160636 0.07744593 0.00852922 0.06826467
-0.027156148 -0.028200204 -0.07523024 -0.03029808 -0.09593788 -0.112266816 -0.0068771164 0.042203084
-0.02124627 0.03563695 -0.04906171 0.094996825 0.02153523 0.083952725 0.039893582 -0.056521446
-0.029023753 0.01670694 0.077681325 0.05811254 0.056795616 0.12738384 -0.03679984 0.13018246
0.018364973 0.030631145 -0.07726697 0.04682904 -0.13652538 0.06649187 -0.07874992 0.043112643
-0.120366424 -0.13986216 -0.08807295 -0.11229447 -0.0019205334 -0.113020286 -0.098889925 0.06931581
0.0051501514 -0.08257553 0.106829956 0.13929547 -0.057964165 -0.04141503 0.06285172 0.17516625
-0.015271038 0.07118917 0.1561065 0.005086414 0.07733787 -0.05709034 -0.04381709 0.09227809
0.055565786 -0.080884025 -0.076924376 -0.07953665 0.0008954629 0.050593875 0.062294587 0.061684947
-0.0035157932 0.09762678 -0.09155545 0.029830294 0.07392506 -0.043101132 -0.01786966 0.054329477
0.0941851 -0.021900253 0.114970475 0.008470942 -0.09454421 -0.06751727 -0.024812652 0.056272402
-0.033022996 -0.093043156 -0.109568104 -0.09852574 -0.115081705 -0.10027325 0.09001734 -0.09722148
0.061368816 0.025863074 0.07064684 0.119225934 0.02117651 0.008070721 -0.0024499234 -0.09851406
-0.0029886093 0.15098594 0.055985168 0.11178681 -0.007923713 -0.018231517 -0.04013657 -0.041462302
0.0740774 -0.0014596247 0.04150275 -0.13825627 0.044322487 0.06739948 0.13764964 0.18327376
-0.09863811 -0.09068044 0.0046422863 0.12758395 0.024231657 -0.021172825 0.06630693 0.034960367
-0.011264625 0.068751544 -0.11208426 0.0055637197 -0.061516725 -0.0771619 0.064822964 -0.054011844
-0.097708575 0.0024731846 0.082143344 0.1497142 -0.1131368 0.050858233 0.06809105 0.07517997
-0.025412483 -0.10694357 0.10743809 -0.059699297 0.14871843 0.14309356 -0.007779868 0.09102719
-0.0793242 0.025880594 -0.03385821 0.052926205 -0.1165982 0.02072224 0.0789956 -0.032649994
-0.015788058 0.10119313 -0.08089759 0.0023690513 0.05719717 -0.13324004 -0.05558841 -0.044629782
0.00020655329 0.08823213 0.07762298 0.12919874 0.1396329 -0.057385456 0.047592536 -0.015850764
-0.06287614 -0.013758792 -0.050324835 0.016992914 -0.049617924 -0.020642499 -0.07176333 -0.11136297
-0.09570471 0.13158727 -0.027603365 0.123998664 0.11040003 0.1271648 0.06493033 -0.025602639
-0.034664758 0.12950875 0.008288332 0.060720026 0.099621266 0.092343144 0.02068071 0.006924855
-0.09846283 -0.09162576 -0.074756026 -0.15119323 -0.1470349 -0.026613979 -0.05037184 0.03913423
-0.07149469 -0.15119787 0.0031355124 -0.041289907 -0.045630854 0.1702636 0.09178666 0.061696183
00000000: 57f4 80bc df3b 64be 19c2 15be 1868 4ebd
00000010: ae89 dbbd b78d 943c b5d4 443c 328b ac3b
00000020: 7263 be3d b525 d93d 873c 203d 13b0 90bd
00000030: 59ef 013e 7ddb 8a3d 2f43 023e 4aab aebd
00000040: 02a0 7cbd 4d63 b13d 1821 46bc 812a 003e
00000050: fc62 a93d 47de dd3d 745b c6bd 8f7c e63d
00000060: f4a2 413c 2048 16be cf60 afbd 4e9a ecbd
00000070: 96ff ae3b 0649 cb3d 8a81 0bbe c5f6 8abd
00000080: 92e1 f23b f045 d9bd 179e 9bbd efe3 a63d
00000090: 32c5 cfbc 1bb8 8a3d 1dfd a3bd 769e 87bd
000000a0: 3a29 82b9 030a af3d ba2b f0bc cb34 2dbd
000000b0: 06ec 0b3d f99b 9e3d 24be 0b3c 59ce 8b3d
000000c0: 9276 debc 1d04 e7bc 5012 9abd ae33 f8bc
000000d0: 147b c4bd 25ec e5bd 6f59 e1bb 24dd 2c3d
000000e0: a80c aebc 0df8 113d eef4 48bd b28d c23d
000000f0: a76a b03c 68ef ab3d 7467 233d 0883 67bd
00000100: 39c3 edbc fedc 883c 6317 9f3d 6a07 6e3d
00000110: 85a2 683d e970 023e 6ebb 16bd 8d4e 053e
00000120: 2472 963c 2bee fa3c 253e 9ebd cfcf 3f3d
00000130: 4fcd 0bbe e42c 883d a347 a1bd e296 303d
00000140: ac82 f6bd 0738 0fbe 975f b4bd a5fa e5bd
00000150: 68ba fbba 2e77 e7bd cd86 cabd 73f5 8d3d
00000160: 9ac2 a83b 5c1d a9bd aac9 da3d 79a3 0e3e
00000170: d56b 6dbd cea2 29bd 67b8 803d c85e 333e
00000180: 6033 7abc a1cb 913d 62da 1f3e efab a63b
00000190: 5163 9e3d 8fd7 69bd 8d79 33bd 4cfc bc3d
000001a0: f398 633d 86a6 a5bd 878a 9dbd 1ce4 a2bd
000001b0: 7fbd 6a3a 863b 4f3d 9c28 7f3d 5ba9 7c3d
000001c0: 3969 66bb 8df0 c73d 6c81 bbbd a95e f43c
000001d0: 0666 973d d08a 30bd 6563 92bc 9688 5e3d
000001e0: 1ee4 c03d 2968 b3bc a475 eb3d b5c9 0a3c
000001f0: 65a0 c1bd 7f46 8abd e743 cbbc e47d 663d
00000200: 1f43 07bd 698d bebd 3e65 e0bd ddc7 c9bd
00000210: f5af ebbd 105c cdbd 035b b83d 0e1c c7bd
00000220: de5d 7b3d ccde d33c 4aaf 903d ba2c f43d
00000230: 5c7a ad3c 0f3b 043c e58e 20bb bdc1 c9bd
00000240: 8bdc 43bb 0f9c 1a3e b450 653d 7cf0 e43d
00000250: 76d2 01bc 435a 95bc 3e66 24bd 60d4 29bd
00000260: e4b5 973d e150 bfba cafe 293d 0d93 0dbe
00000270: 7f8b 353d bd08 8a3d 07f4 0c3e 1eac 3b3e
00000280: c702 cabd abb6 b9bd 521e 983b 5ea5 023e
00000290: 7881 c63c a272 adbc edcb 873d 9a32 0f3d
000002a0: 438f 38bc 9ccd 8c3d 6f8c e5bd dd4f b63b
000002b0: f6f8 7bbd 0f07 9ebd e7c1 843d 863b 5dbd
000002c0: 6f1b c8bd 2715 223b c53a a83d ae4e 193e
000002d0: 44b4 e7bd b950 503d 5273 8b3d f5f7 993d
000002e0: d72d d0bc 3b05 dbbd 8008 dc3d 4087 74bd
000002f0: a549 183e 1e87 123e 43ee febb 776c ba3d
00000300: ba74 a2bd 8a03 d43c e8ae 0abd 26c9 583d
00000310: 09cb eebd b0c1 a93c 72c8 a13d 00bc 05bd
00000320: f555 81bc 583e cf3d a3ad a5bd 1642 1b3b
00000330: 9447 6a3d 1470 08be acb0 63bd b8cd 36bd
00000340: 3a96 5839 0cb3 b43d ccf8 9e3d ad4c 043e
00000350: edfb 0e3e 030d 6bbd 64f0 423d 76d9 81bc
00000360: 35c5 80bd 8e6c 61bc 6a21 4ebd b934 8b3c
00000370: 2a3c 4bbd 751a a9bc a7f8 92bd 4512 e4bd
00000380: d500 c4bd d0be 063e 7420 e2bc 03f3 fd3d
00000390: 6919 e23d 7d37 023e 31fa 843d a0bc d1bc
000003a0: a2fc 0dbd f19d 043e c9cb 073c 90b5 783d
000003b0: 3c06 cc3d 671e bd3d 986a a93c e5e9 e23b
000003c0: e1a6 c9bd 49a6 bbbd b019 99bd 66d2 1abe
000003d0: 5190 16be 8f05 dabc b452 4ebd 374b 203d
000003e0: cf6b 92bd 9dd3 1abe 2b7d 4d3b 9b1f 29bd
000003f0: 6be7 3abd 9559 2e3e a5fa bb3d 23b5 7c3d

block1.0.bias f4 [16]
0.0009405108 0.003524884 -0.08548953 -0.01588578 0.16741286 -0.03357969 0.048895177 0.16010523
0.062345937 -0.11027164 0.1352082 -0.0053086523 -0.08754441 0.11910903 0.1273545 -0.059242044
00000000: 9d8c 763a be01 673b 2215 afbd e522 82bc
00000010: 476e 2b3e db8a 09bd 4f46 483d a0f2 233e
00000020: 745e 7f3d 19d6 e1bd 0574 0a3e 34f4 adbb
00000030: 7c4a b3bd 6fef f33d 3869 023e c9a7 72bd

block2.0.weight f4 [32, 16, 5, 5]
0.02500666 -0.032134622 -0.001424569 0.028269267 -0.052707776 0.0012001335 0.02725128 -0.03569867
-0.008039404 0.0038160752 -0.026762983 -0.033188976 -0.0728511 -0.0106077185 -0.02250137 0.04375293
0.027953083 0.16872692 0.30213892 0.19003902 -0.03930502 0.022032766 0.12928419 0.12541004
0.16370158 -0.05972105 -0.059355162 -0.018827062 0.035461135 -0.033854943 -0.0633359 -0.023267945
0.046637 0.038581382 0.056260914 0.004235885 0.0037851015 0.032325678 0.15576889 0.14908458
0.030537598 0.10749615 0.3099824 0.3948846 0.4044852 -0.024551371 -0.044500757 0.07409565
0.11821118 0.060890324 -0.03776973 0.0029888817 0.024081526 0.07660558 0.102226704 -0.005247605
0.032204106 0.074014805 0.14713122 0.14057495 -0.053123347 -0.01634554 -0.07856376 0.07349105
0.06303786 0.03537106 -0.04502624 -0.028271087 0.016523132 0.12348779 -0.025087722 0.0057764645
0.070676446 0.11213594 0.14888327 -0.14372335 0.009617975 0.0060506715 0.06979574 -0.0025016032
-0.024059858 0.16247565 0.25998092 0.37865025 0.24242274 -0.10425716 0.030762618 0.069502294
0.14934447 0.08982699 -0.005364275 0.001272259 -0.032683548 0.06783119 0.042773597 0.03330955
-0.019487135 -0.044520494 0.0171892 0.0950332 0.08244149 0.056073997 0.009871546 0.0029075223
-0.030798007 0.04429314 0.080144174 0.02641734 -0.043816783 0.023705252 -0.04206942 0.028893266
-0.0016454428 -0.100052014 -0.10865493 -0.011207125 -0.0015179223 -0.0061585233 -0.006207108 -0.009339209
0.009102948 0.017669339 -0.027240066 -0.09770321 -0.08827586 0.012122727 0.008033417 -0.07972639
0.10939832 0.09038224 0.026326058 -0.025473949 -0.08327788 0.22309735 0.29537788 0.04048651
-0.043240115 0.0046917843 0.27443424 0.33922088 -0.029680215 0.05083575 0.061983403 0.12776011
0.28919137 -0.010030841 -0.03783882 -0.08619025 -0.0068743397 -0.009226531 -0.030428555 -0.019107757
-0.05020378 0.013413471 0.0022400036 -0.067660734 0.047255576 0.2168592 0.23367754 0.25624877
-0.06504581 -0.06515307 -0.027520107 0.08420827 0.089251645 0.033720665 0.027224181 -0.013098028
-0.07217488 0.053365983 -0.0488932 0.040207874 -0.03560796 -0.0643479 -0.010585321 -0.057448886
0.072700836 0.040136024 0.0121917045 -0.009492536 0.000787479 0.09026312 0.16479684 0.15489164
0.05121772 -0.022872332 -0.005938638 0.015346251 -0.00043572695 -0.06139593 0.04503069 0.09732661
0.012735376 -0.03915005 -0.022260776 -0.041096505 0.04664553 0.047374878 -0.003075495 -0.07740178
-0.01615976 0.004797898 -0.00043019187 -0.03734034 -0.03071655 -0.03128197 0.02606481 0.037646655
0.005261417 -0.024874555 -0.040874574 -0.0019919015 -0.027468773 -0.07080381 -0.05946859 0.007790302
-0.0380061 0.0010871397 0.00676855 -0.019409299 -0.0259705 0.015481708 0.013075939 -0.019174572
0.027598293 -0.045725882 0.005211292 -0.019503785 0.027331699 0.1156945 -0.041534543 0.010651603
0.07602993 0.19597928 0.18861552 -0.013006436 -0.032486685 -0.06966205 0.033921283 0.10954719
0.023960695 0.036155906 -0.06491795 -0.03722736 0.050213657 -0.0011034936 0.02871547 0.029880702
0.054996416 0.049793214 -0.036815304 0.003139808 -0.024041887 -0.014226975 -0.025341572 0.038405035
00000000: c4da cc3c 989f 03bd 9bb8 baba f394 e73c
00000010: 1ce4 57bd cc4d 9d3a 143e df3c c538 12bd
00000020: b4b7 03bc 1e17 7a3b 0b3e dbbc 2af1 07bd
00000030: f532 95bd ffcb 2dbc cb54 b8bc 4636 333d
00000040: ddfd e43c c0c6 2c3e f4b1 9a3e 9799 423e
00000050: 4dfe 20bd 0f7e b43c 1363 043e 7d6b 003e
00000060: 63a1 273e 0f9e 74bd 661e 73bd 363b 9abc
00000070: b23f 113d 7bab 0abd 41b6 81bd 6b9c bebc
00000080: 7006 3f3d 8307 1e3d d871 663d 2ecd 8a3b
00000090: 770f 783b ee67 043d e181 1f3e a1a9 183e
000000a0: fc29 fa3c f126 dc3d 03b6 9e3e 502e ca3e
000000b0: af18 cf3e f51f c9bc 6d46 36bd 76bf 973d
000000c0: b418 f23d 2268 793d 6fb4 1abd 1de1 433b
000000d0: 9f46 c53c 63e3 9c3d 3c5c d13d 1af4 abbb
000000e0: 74e8 033d 1395 973d 91a9 163e e1f2 0f3e
000000f0: de97 59bd 15e7 85bc 09e6 a0bd 7a82 963d
00000100: fe19 813d 3fe1 103d 6f6d 38bd c498 e7bc
00000110: 855b 873c 2be7 fc3d c484 cdbc 7f48 bd3b
00000120: d0be 903d 87a7 e53d db74 183e 372c 13be
00000130: b694 1d3c b644 c63b 12f1 8e3d f0f1 23bb
00000140: 2e19 c5bc 0460 263e 381c 853e 72de c13e
00000150: ab3d 783e c784 d5bd e301 fc3c 3857 8e3d
00000160: c2ed 183e 37f7 b73d cdc6 afbb eec1 a63a
00000170: 2fdf 05bd 14eb 8a3d 5e33 2f3d 986f 083d
00000180: 7ca3 9fbc 1f5b 36bd 5dd0 8c3c c4a0 c23d
00000190: 15d7 a83d d9ad 653d 44bc 213c 218c 3e3b
000001a0: 1a4c fcbc b96c 353d a122 a43d 2d69 d83c
000001b0: 3a79 33bd 8431 c23c fc50 2cbd 92b1 ec3c
000001c0: e6ab d7ba 12e8 ccbd 7a86 debd 179e 37bc
000001d0: 05f5 c6ba 70cd c9bb ff64 cbbb 7b03 19bc
000001e0: 8824 153c 4abf 903c 8f26 dfbc 9f18 c8bd
000001f0: f9c9 b4bd 679e 463c 989e 033c 9747 a3bd
00000200: 3a0c e03d 531a b93d bfa9 d73c beae d0bc
00000210: 988d aabd a273 643e c53b 973e 2fd5 253d
00000220: 8c1c 31bd 8abd 993b a582 8c3e 5cae ad3e
00000230: ec23 f3bc 2639 503d 4fe2 7d3d 8cd3 023e
00000240: e410 943e 6658 24bc e1fc 1abd 8484 b0bd
00000250: 2442 e1bb e02a 17bc 4e45 f9bc df87 9cbc
00000260: 7ba2 4dbd 2dc4 5b3c 06cd 123b b691 8abd
00000270: 108f 413d 5710 5e3e 2a49 6f3e 0a33 833e
00000280: bd36 85bd f96e 85bd d971 e1bc 6375 ac3d
00000290: 91c9 b63d ae1e 0a3d 3f05 df3c 1c99 56bc
000002a0: 6cd0 93bd 4a96 5a3d 3c44 48bd 03b1 243d
000002b0: a7d9 11bd d5c8 83bd 0e6e 2dbc 864f 6bbd
000002c0: 2de4 943d ac65 243d b7bf 473c 9586 1bbc
000002d0: d26e 4e3a dfdb b83d 81c0 283e ea9b 1e3e
000002e0: acc9 513d c25e bbbc e898 c2bb d86e 7b3c
000002f0: 4872 e4b9 4c7a 7bbd 1a72 383d 2c53 c73d
00000300: 0aa8 503c ce5b 20bd 3b5c b6bc cf54 28bd
00000310: 620f 3f3d 290c 423d 3e8e 49bb d384 9ebd
00000320: 7961 84bc af37 9d3b 608b e1b9 2ff2 18bd
00000330: 46a1 fbbc 8621 00bd de85 d53c 6133 1a3d
00000340: f767 ac3b b9c5 cbbc 196c 27bd 908a 02bb
00000350: 3106 e1bc 9701 91bd 5695 73bd ca45 ff3b
00000360: 49ac 1bbd 5b7e 8e3a b6ca dd3b 4000 9fbc
00000370: 16c0 d4bc fda6 7d3c 773c 563c fe13 9dbc
00000380: d115 e23c 104b 3bbd 7cc3 aa3b 67c6 9fbc
00000390: bae6 df3c 3df1 ec3d 2020 2abd 1084 2e3c
000003a0: 94b5 9b3d cbae 483e 6d24 413e f218 55bc
000003b0: c210 05bd faaa 8ebd 0bf1 0a3d 475a e03d
000003c0: 3849 c43c 3718 143d b4f3 84bd b77b 18bd
000003d0: d6ac 4d3d 1aa3 90ba b53c eb3c 60c8 f43c
000003e0: ec43 613d f8f3 4b3d a5cb 16bd 3dc5 4d3b
000003f0: 7ef3 c4bc 4218 69bc 2199 cfbc 994e 1d3d

block2.0.bias f4 [32]
0.009238277 0.029241553 -0.011016182 0.033978857 0.08536772 0.080889426 0.032127973 0.017862972
0.01822486 0.0011320764 0.049907677 -0.00085442024 0.03435576 0.070439205 0.04701717 0.049287457
-0.029681822 -0.019868862 -0.052755818 -0.0046962844 -0.03124422 0.021276135 -0.08327178 -0.00617865
0.061844558 -0.007769993 0.057528548 -0.059790768 -0.06866372 -0.08548309 0.039649338 -0.06347107
00000000: 245c 173c fb8b ef3c 377d 34bc 6a2d 0b3d
00000010: 45d5 ae3d 5ba9 a53d 9f98 033d 5e55 923c
00000020: 4d4c 953c 2e62 943a fe6b 4c3d 2cfb 5fba
00000030: a0b8 0c3d 6e42 903d 1395 403d a5e1 493d
00000040: 4b27 f3bc 06c4 a2bc 7c16 58bd 4ae3 99bb
00000050: e1f3 ffbc 4a4b ae3c 658a aabd 4676 cabb
00000060: b850 7d3d 6d9b febb 0ea3 6b3d 2ae7 74bd
00000070: 909f 8cbd c211 afbd 5867 223d 1ffd 81bd

block3.0.weight f4 [100, 1568]
-0.06438769 -0.025275031 -0.03692627 -0.0037527145 -0.017930027 0.030934567 0.0285183 -0.060096752
-0.06297884 -0.11443108 -0.005607665 -0.021182148 -0.03910429 -0.0014457086 -0.008079271 -0.03526935
-0.01185837 -0.033137783 -0.035785276 -0.020303454 -0.0016426255 0.053226702 -0.010486586 -0.03553315
-0.016382206 0.024841487 -0.022001684 0.038581695 0.0047920668 0.003409733 -0.023542216 -0.03452905
-0.05538073 -0.05367101 0.021992136 0.007008126 -0.013230101 -0.034688756 -0.052248016 -0.09847567
-0.035251513 0.0032347804 -0.009086294 -0.03733863 -0.01214903 -0.03537399 -0.067290135 0.01123499
0.009098421 0.03972756 0.054893576 0.04731983 0.01078618 -0.0046261298 0.0027946592 0.03240554
0.029353129 0.063310355 0.037743937 0.043396987 0.021409871 0.018706609 0.0009527889 0.030532874
0.016637396 -0.0037552265 0.032483067 -0.04261954 -0.03776141 0.020375697 0.026061757 -0.025325442
-0.022176236 -0.004561718 -0.015553175 -0.03438263 -0.010849379 0.031494606 -0.0021612225 0.037116848
0.016286042 0.0034218214 -0.0061698314 -0.012296709 0.03753282 0.020845184 0.03834169 0.018319486
0.029924467 0.011872381 0.0081348475 -0.008521572 0.004278366 -0.007024148 -0.010327013 -0.0009792659
0.008399592 0.00048490465 0.020273961 0.0030133042 0.0027646269 0.0034031 0.02881901 -0.012051568
0.024126075 0.007677153 -0.03595008 -0.081039146 -0.035533424 -0.0047764387 -0.040848807 -0.003979303
-0.021013685 -0.028077014 -0.022110669 0.01907025 -0.007797628 -0.03280737 0.00247574 0.065656744
0.010970887 0.0041006324 0.0007695327 0.052902713 0.009657589 -0.0017823429 0.010007965 0.039462496
0.026564192 0.066509485 0.027233964 0.031049151 0.00382654 0.011579846 -0.0537429 -0.060247045
-0.0627876 -0.04178561 -0.028363215 0.0015641213 0.008309587 -0.037724007 -0.032072946 -0.034930516
-0.039613985 -0.022804571 0.03520954 0.023037823 0.024718665 0.042946722 -0.005212072 0.037208464
0.012419872 0.023804273 0.036174923 0.04454818 0.02459448 0.03391262 -0.00874885 0.033094876
0.038315993 0.07016828 0.09289731 0.071317405 0.060427558 0.0377097 0.025657041 0.030583503
-0.0057582124 0.014934352 0.034726672 0.0028428647 -0.017680451 -0.02569948 0.01065681 0.0352187
-0.008829917 -0.018732417 -0.037228692 -0.044044837 -0.031115836 -0.012571063 0.028948473 0.058178477
0.057237376 0.035603225 0.04488551 0.030229935 0.003615653 0.053291332 0.049008355 0.04491158
0.025914706 0.019467356 0.045846988 -0.0032273054 0.017408026 0.039693207 0.029730806 0.029696178
0.014067457 0.0216078 0.0052213487 0.0467107 0.037592687 0.059746984 0.0027053575 -0.0045130025
0.015866337 -0.008722453 0.017200641 0.054364387 0.029971058 0.056109224 -0.00028045935 0.026807873
-0.01348487 0.010450599 -0.020165527 0.0033157894 -0.023315528 -0.004950219 -0.02729987 -0.010361198
0.016162852 0.023240702 -0.01856433 0.004824485 -0.012688189 0.013728204 -0.026539665 0.040506963
0.023922738 0.026466655 -0.00043419283 0.028515892 0.04277027 -0.0017934947 0.024864674 -0.016852569
0.018207189 -0.010597576 0.014861125 0.011847491 0.02874715 0.020237405 0.0042388476 0.039389294
0.014111947 0.022462 0.02436543 0.003558583 0.04659696 0.030639011 0.011282746 0.020826433
00000000: b1dd 83bd 950d cfbc 0040 17bd 1af0 75bb
00000010: fee1 92bc 7d6a fd3c 369f e93c 0328 76bd
00000020: 0dfb 80bd d85a eabd 81c0 b7bb 2f86 adbc
00000030: d22b 20bd ee7d bdba eb5e 04bc 9876 10bd
00000040: 9c49 42bc 7cbb 07bd 9593 12bd 6e53 a6bc
00000050: 5e4d d7ba 3e04 5a3d eecf 2bbc 358b 11bd
00000060: fa33 86bc 6080 cb3c e03c b4bc d707 1e3d
00000070: c506 9d3b d475 5f3b 9bdb c0bc 556e 0dbd
00000080: e8d6 62bd 22d6 5bbd da28 b43c 6ca4 e53b
00000090: 11c3 58bc cc15 0ebd 0402 56bd 9dad c9bd
000000a0: e463 10bd 9cfe 533b aede 14bc 64f0 18bd
000000b0: ba0c 47bc 51e4 10bd 69cf 89bd f712 383c
000000c0: 8b11 153c 5eb9 223d 16d8 603d 70d2 413d
000000d0: 85b8 303c ca96 97bb 9a26 373b acbb 043d
000000e0: f975 f03c dca8 813d 6399 1a3d 0ac1 313d
000000f0: c163 af3c 9a3e 993c 95c4 793a 1420 fa3c
00000100: 264b 883c 3f1a 76bb f70c 053d d491 2ebd
00000110: b5ab 1abd efea a63c 777f d53c 4d77 cfbc
00000120: f0aa b5bc 777a 95bb bed2 7ebc cdd4 0cbd
00000130: 98c1 31bc 7d00 013d 4ca3 0dbb d607 183d
00000140: 4e6a 853c a340 603b 4c2c cabb 2378 49bc
00000150: 04bc 193d 85c3 aa3c 2d0c 1d3d bf12 963c
00000160: 2824 f53c 6084 423c 0648 053c 109e 0bbc
00000170: 8931 8c3b d32a e6bb a232 29bc b65a 80ba
00000180: 719e 093c cd3a fe39 9415 a63c db7a 453b
00000190: be2e 353b 8b06 5f3b d815 ec3c f173 45bc
000001a0: 0ca4 c53c a190 fb3b 6440 13bd daf7 a5bd
000001b0: 7f8b 11bd ac83 9cbb 1451 27bd d064 82bb
000001c0: e424 acbc c401 e6bc 6f21 b5bc 3739 9c3c
000001d0: 3f83 ffbb 0561 06bd 0640 223b 0b77 863d
000001e0: 3cbf 333c 995e 863b 77ba 493a 84b0 583d
000001f0: dd3a 1e3c 819d e9ba 73f8 233c 6da3 213d
00000200: 269d d93c 2036 883d c319 df3c ca5a fe3c
00000210: b0c6 7a3b 65b9 3d3c 8421 5cbd 9bc5 76bd
00000220: c996 80bd 6327 2bbd f959 e8bc 3403 cd3a
00000230: ef24 083c 7d84 1abd ec5e 03bd 4d13 0fbd
00000240: 4642 22bd a7d0 babc e137 103d d1b9 bc3c
00000250: cc7e ca3c e7e8 2f3d 07ca aabb e767 183d
00000260: b87c 4b3c 2e01 c33c 282c 143d 2778 363d
00000270: 5d7a c93c f6e7 0a3d 5657 0fbc 7e8e 073d
00000280: 3bf1 1c3d 63b4 8f3d f240 be3d dc0e 923d
00000290: e382 773d 7d75 1a3d b72e d23c 418a fa3c
000002a0: 63af bcbb 36af 743c 8e3d 0e3d 5b4f 3a3b
000002b0: 98d6 90bc b787 d2bc e799 2e3c 7c41 103d
000002c0: 5bab 10bc ba74 99bc 1d7d 18bd 5c68 34bd
000002d0: a3e6 febc dcf6 4dbc 5925 ed3c 8e4c 6e3d
000002e0: bd71 6a3d b0d4 113d ded9 373d c5a4 f73c
000002f0: 97f4 6c3b 0348 5a3d fcbc 483d 34f5 373d
00000300: 144b d43c 017a 9f3c 0dca 3b3d 3381 53bb
00000310: 479b 8e3c 5895 223d 058e f33c 6645 f33c
00000320: 317b 663c d702 b13c d917 ab3b b853 3f3d
00000330: cafa 193d 41b9 743d 5e4c 313b cfe1 93bb
00000340: 1ffa 813c 9fe8 0ebc 5ce8 8c3c 31ad 5e3d
00000350: dd85 f53c c9d2 653d 9e0a 93b9 2f9c db3c
00000360: a5ef 5cbc fd38 2b3c 2d32 a5bc b74d 593b
00000370: 3500 bfbc 7235 a2bb faa3 dfbc 04c2 29bc
00000380: f567 843c 4963 be3c 3914 98bc b716 9e3b
00000390: 1fe2 4fbc 43ec 603c b669 d9bc a1ea 253d
000003a0: 9ef9 c33c 99d0 d83c 60a4 e3b9 299a e93c
000003b0: e12f 2f3d b213 ebba 00b1 cb3c 660e 8abc
000003c0: 3e27 953c 75a1 2dbc 137c 733c fb1b 423c
000003d0: 257f eb3c eac8 a53c 08e6 8a3b ab56 213d
000003e0: cc35 673c 3a02 b83c 039a c73c 1e37 693b
000003f0: 74dc 3e3d aafe fa3c 44db 383c 329c aa3c

block3.0.bias f4 [100]
0.0075279623 -0.0062467065 0.009061211 0.0450403 0.009034902 0.033375174 -0.022092093 0.005134675
0.017449783 0.014272387 -0.026776807 0.018717717 -0.008893114 0.02155639 0.01576907 -0.00078998687
0.001999977 -0.0003930538 0.025160177 -0.011485125 0.019372007 0.021224529 0.0014836664 0.026419705
-0.019790193 0.015181449 0.020805975 0.0027576217 0.023365071 -0.0313591 0.006938987 0.032527093
-0.035531193 0.01754714 0.026961783 0.025730534 0.016656157 -0.022507273 0.018488592 -0.03471583
-0.007975468 0.026514435 -0.0016536799 0.025278667 0.02375182 0.0016509905 0.03238555 0.00463386
0.001739483 0.0426585 0.011818146 0.0068883263 0.013795746 0.014645267 -0.0042584613 -0.02103774
0.006063351 0.016198222 0.002997264 0.028825898 0.014944187 0.0045810807 -0.008016511 -0.010199517
0.007860379 0.000449228 -0.0029923546 0.011231957 0.009908753 0.009895258 0.023516461 0.012714832
-0.0034516975 0.0028331352 0.023146052 -0.018149687 0.00060434086 0.022824856 0.008078154 0.02023379
-0.01056304 0.007870679 -0.0016391821 -0.027325448 0.027291369 0.002164902 0.009279287 0.0044797948
-0.0067151687 0.008947536 0.0115320515 0.02117563 -0.005711459 0.026945287 -0.0040460043 0.0057698814
0.0037092827 -0.018026814 0.0041201557 0.025397165
00000000: 20ad f63b 2cb1 ccbb 7975 143c 2d7c 383d
00000010: 2007 143c 68b4 083d 7afa b4bc c740 a83b
00000020: d9f2 8e3c bbd6 693c 095b dbbc e655 993c
00000030: 6cb4 11bc 0797 b03c 232e 813c 1f17 4fba
00000040: 0c12 033b ca12 ceb9 b71c ce3c 1b2c 3cbc
00000050: 0bb2 9e3c 10df ad3c 9577 c23a 236e d83c
00000060: 0b1f a2bc 9dbb 783c 4b71 aa3c 37b9 343b
00000070: 1b68 bf3c 6672 00bd 7160 e33b 213b 053d
00000080: 2889 11bd 05bf 8f3c f5de dc3c d7c8 d23c
00000090: 7e72 883c 2c61 b8bc 6375 973c 3032 0ebd
000000a0: 8aab 02bc cd34 d93c 4ac0 d8ba 3515 cf3c
000000b0: 2d93 c23c 0c66 d83a b6a6 043d a3d7 973b
000000c0: 5dff e33a aeba 2e3d e6a0 413c 78b7 e13b
000000d0: 8d07 623c b4f2 6f3c 908a 8bbb 5757 acbc
000000e0: 13af c63b 22b2 843c bf6d 443b 4a24 ec3c
000000f0: 77d8 743c e41c 963b af57 03bc e01b 27bc
00000100: d2c8 003c 5d86 eb39 611b 44bb 3e06 383c
00000110: 5358 223c b81f 223c 98a5 c03c df51 503c
00000120: e035 62bb 1fac 393b ca9c bd3c a7ae 94bc
00000130: a16c 1e3a 31fb ba3c 3c5a 043c 55c1 a53c
00000140: 9a10 2dbc 05f4 003c d3d9 d6ba 9ed9 dfbc
00000150: 2692 df3c 07e1 0d3b 2708 183c 3ecb 923b
00000160: eb0a dcbb b098 123c eef0 3c3c 8478 ad3c
00000170: 3127 bbbb 5dbc dc3c 5894 84bb 4611 bd3b
00000180: 7017 733b f8ac 93bc 5f02 873b b70d d03c

block3.2.weight f4 [37, 100]
-0.078679144 -0.14118594 0.0046083373 -0.00959576 0.019330256 -0.097177334 0.11063792 -0.09887315
0.073241435 -0.09820409 -0.13298911 -0.005111677 0.082198635 0.008337003 -0.026507825 -0.013488418
-0.07380728 0.026466263 -0.19180393 -0.20328395 0.11440193 -0.099445686 -0.13255809 -0.016740205
-0.1532489 -0.09379162 -0.03793276 -0.044638976 0.04128915 -0.06820154 0.014365695 -0.022332832
0.01145478 0.05887762 -0.14322898 0.0030687775 -0.03958376 -0.035972923 -0.09944649 -0.06216131
-0.06368388 0.047369074 0.006469251 0.023287134 -0.012460084 0.07849188 0.03992293 0.027027134
0.059104543 0.02705778 -0.096390456 -0.012628071 -0.04746144 -0.07534007 0.05677266 -0.04089176
0.00651554 0.02083628 0.071694314 0.104336604 -0.07113685 0.12564585 0.0947238 0.013594243
0.051883876 -0.045124367 0.050207876 -0.22228165 0.015494832 -0.059181605 0.06039218 -0.011470104
0.0688978 -0.10412594 -0.03707139 0.07748362 -0.13339998 0.023324657 0.042850383 -0.016796786
0.05024435 -0.021949159 -0.11829792 -0.11074833 -0.092255734 0.11350953 0.043858264 0.08251631
-0.054094538 0.090641074 0.06269358 -0.1014167 0.04765213 -0.044168785 -0.08500511 0.037841696
-0.06794128 -0.027411664 -0.12480561 0.12299054 -0.016824963 -0.12935905 -0.03249623 -0.095911674
0.09085527 -0.016053755 -0.04718141 -0.06194161 -0.04536783 0.026465906 -0.093454696 0.0791541
0.01910982 -0.011100662 -0.048632875 -0.11357312 -0.05340046 0.054165676 -0.08294857 -0.020210573
0.065246806 0.024377774 -0.08961321 0.06303035 -0.14334568 -0.08160329 -0.067933396 0.03617486
-0.0643013 -0.054691035 0.019999467 0.085827745 0.042989314 0.010057655 -0.07186816 0.028067335
0.08557924 -0.00607468 -0.12118935 0.04419655 -0.018227778 -0.11364867 0.023277262 -0.10532745
0.029374346 -0.04530412 0.061038267 -0.01997163 0.019133016 0.031783573 0.027032996 0.023513222
-0.09377207 -0.085126966 0.120448135 -0.00917572 -0.08633245 -0.003304693 -0.14239538 -0.13522474
0.09180351 0.061821416 0.0636029 -0.011069305 0.051223032 -0.12869774 0.06328145 -0.047678344
0.016670065 -0.14475065 -0.022065064 0.06425864 -0.13906552 -0.05642358 0.032567974 -0.123860605
-0.061958686 0.08556695 0.020307997 0.09730696 0.05826301 -0.0444275 -0.00038659028 -0.03967903
0.11925303 0.07415437 -0.0506041 0.08126827 0.038979936 0.0785373 -0.017925382 0.041161872
0.032599457 0.076494515 0.087097995 -0.060320467 -0.08131882 -0.08902591 0.036814827 0.038488552
-0.0082429005 -0.08878997 -0.0025540087 0.080726445 -0.09731372 -0.14745487 0.08461126 -0.06894128
-0.09939143 -0.011101032 -0.1485297 -0.028479222 0.07409194 0.06666677 0.05620383 -0.20682988
-0.016896904 -0.061797507 -0.13876124 -0.19262747 0.059170358 -0.04938111 -0.035423245 -0.050734434
-0.18358083 0.07049171 0.10892604 0.0056401086 -0.11769194 -0.10088191 -0.02898019 0.004541269
-0.05772053 -0.026846008 -0.010354236 0.12309764 -0.052502766 -0.08479561 -0.059751466 -0.022713471
-0.079449 -0.07030297 0.09454731 -0.014533239 0.05694045 0.105623506 -0.064058654 -0.047976304
-0.08261013 0.08056545 -0.0035826266 0.06619817 -0.046899557 -0.11186146 0.068300515 -0.07008794
00000000: 8822 a1bd 0c93 10be 8901 973b 8937 1dbc
00000010: 7c5a 9e3c e904 c7bd 2296 e23d 027e cabd
00000020: 9bff 953d 3a1f c9bd 4c2e 08be db7f a7bb
00000030: c257 a83d ed97 083c f026 d9bc 87fe 5cbc
00000040: 4528 97bd c7cf d83c 4068 44be ab29 50be
00000050: 8f4b ea3d 2eaa cbbd 4fbd 07be c122 89bc
00000060: 48ed 1cbe d215 c0bd 625f 1bbd 5cd7 36bd
00000070: d01e 293d 40ad 8bbd 185e 6b3c 58f3 b6bc
00000080: d4ac 3b3c a929 713d 9eaa 12be 8b1d 493b
00000090: 9522 22bd 5858 13bd 9aaa cbbd dc9c 7ebd
000000a0: b26c 82bd 1306 423d 03fc d33b a9c4 be3c
000000b0: 6125 4cbc 5ac0 a03d 3a86 233d 0268 dd3c
000000c0: 9b17 723d 47a8 dd3c 5c68 c5bd f8e5 4ebc
000000d0: ed66 42bd e54b 9abd 738a 683d 1e7e 27bd
000000e0: 5080 d53b d9b0 aa3c 78d4 923d 6eae d53d
000000f0: 32b0 91bd 4ea9 003e 8dfe c13d 63ba 5e3c
00000100: 3084 543d 54d4 38bd c6a6 4d3d cd9d 63be
00000110: 09de 7d3c 6968 72bd ca5d 773d 1aed 3bbc
00000120: 4a1a 8d3d fb3f d5bd 2bd8 17bd bbaf 9e3d
00000130: 019a 08be 5a13 bf3c e283 2f3d 6a99 89bc
00000140: 05cd 4d3d b9ce b3bc 2e46 f2bd 05d0 e2bd
00000150: 93f0 bcbd af77 e83d b9a4 333d 50fe a83d
00000160: 3c92 5dbd 07a2 b93d 7e65 803d 8fb3 cfbd
00000170: e12e 433d 54ea 34bd 2917 aebd e5ff 1a3d
00000180: cc24 8bbd 6d8e e0bc 159a ffbd 77e2 fb3d
00000190: 81d4 89bc b376 04be c41a 05bd 576d c4bd
000001a0: 5412 ba3d 2a83 83bc 4b41 41bd 7cb6 7dbd
000001b0: 9ed3 39bd 07cf d83c 2d65 bfbd 8b1b a23d
000001c0: 328c 9c3c 8ddf 35bc 4433 47bd 0699 e8bd
000001d0: 71ba 5abd d4dc 5d3d f1e0 a9bd a590 a5bc
000001e0: 1ea0 853d e6b3 c73c 2187 b7bd 0e16 813d
000001f0: 36c9 12be a01f a7bd aa20 8bbd 172c 143d
00000200: 66b0 83bd b503 60bd ecd5 a33c 75c6 af3d
00000210: 9015 303d ddc8 243c 9d2f 93bd 78ed e53c
00000220: 2b44 af3d 1c0e c7bb 1f32 f8bd 7107 353d
00000230: 6c52 95bc a2c0 e8bd f5af be3c ebb5 d7bd
00000240: 78a2 f03c d090 39bd 4303 7a3d 8b9b a3bc
00000250: d8bc 9c3c 7e2f 023d 4d74 dd3c cd9e c03c
00000260: 920b c0bd 0c57 aebd 83ad f63d c255 16bc
00000270: 11cf b0bd 8c93 58bb 18d0 11be 5b78 0abe
00000280: 7b03 bc3d 7438 7d3d 3d42 823d 085c 35bc
00000290: 3ecf 513d 57c9 03be b499 813d 5e4a 43bd
000002a0: a98f 883c 8439 14be cbc1 b4bc 099a 833d
000002b0: 3167 0ebe 691c 67bd ff65 053d a1aa fdbd
000002c0: 64c8 7dbd ba3d af3d f55c a63c df48 c73d
000002d0: 32a5 6e3d 9cf9 35bd 45af cab9 7b86 22bd
000002e0: ef3a f43d 3fde 973d 3f46 4fbd fb6f a63d
000002f0: 6da9 1f3d 2ad8 a03d 40d8 92bc 5a99 283d
00000300: 0287 053d 28a9 9c3d 6f60 b23d 9812 77bd
00000310: 7b8a a6bd 3753 b6bd 25cb 163d 2ca6 1d3d
00000320: 3b0d 07bc 84d7 b5bd 2861 27bb e853 a53d
00000330: 6a4c c7bd 69fe 16be ab48 ad3d 1631 8dbd
00000340: bc8d cbbd 1ae1 35bc 2b18 18be 424d e9bc
00000350: 84bd 973d 9688 883d fd35 663d 36cb 53be
00000360: 606b 8abc 621f 7dbd 6d17 0ebe 2340 45be
00000370: 9e5c 723d d943 4abd f717 11bd e9ce 4fbd
00000380: 9dfc 3bbe f55d 903d 9e14 df3d a9d0 b83b
00000390: 7908 f1bd 2d9b cebd dd67 edbc edce 943b
000003a0: 5d6c 6cbd 29ec dbbc d0a4 29bc 9e1a fc3d
000003b0: 240d 57bd 52a9 adbd f4bd 74bd 9a11 babc
000003c0: 28b6 a2bd 01fb 8fbd 05a2 c13d d31c 6ebc
000003d0: 643a 693d 2351 d83d 2f31 83bd cd82 44bd
000003e0: 802f a9bd 80ff a43d 80ca 6abb e892 873d
000003f0: c019 40bd 9f17 e5bd 24e1 8b3d 448a 8fbd

block3.2.bias f4 [37]
0.00060679694 0.07929458 0.07304373 0.07192105 -0.008900831 0.081590034 -0.0036136708 0.06335797
-0.08224668 -0.021590753 -0.08361875 -0.030439574 -0.028147586 -0.054751176 -0.017782548 0.09981194
0.066077225 0.026205864 0.06052815 0.03382041 0.00045239486 0.049835067 0.08120044 0.005941843
0.091254674 0.0851753 -0.021772195 0.077804595 -0.05135882 0.077110164 -0.066217504 0.08916974
0.055605844 -0.085473575 -0.08525114 0.0031602804 0.07560298
00000000: 7411 1f3a 3265 a23d f397 953d 584b 933d
00000010: cbd4 11bc ad18 a73d 56d3 6cbb d3c1 813d
00000020: f370 a8bd 17df b0bc 4f40 abbd 6a5c f9bc
00000030: c495 e6bc c542 60bd b5ac 91bc 346a cc3d
00000040: 7f53 873d aead d63c 5eec 773d 4587 0a3d
00000050: 692f ed39 db1f 4c3d 6b4c a63d cbb3 c23b
00000060: bbe3 ba3d 6370 ae3d 9a5b b2bc 0458 9f3d
00000070: a05d 52bd efeb 9d3d 0b9d 87bd a09e b63d
00000080: f4c2 633d c50c afbd 2698 aebd b51c 4f3b
00000090: bcd5 9a3d
