final_model/current_model_9.pth (torch_old, 700245 bytes, 8 tensors)

block1.0.weight f4 [16, 3, 5, 5]
0	0x3de4851e	0.111582026
1	0x3d0e08f9	0.034676526
2	0x3d78f97d	0.060784806
3	0xbdba22f6	-0.090886995
4	0xbd6addb5	-0.057340343
5	0x3c962cfb	0.018331995
6	0xbd932da2	-0.07186438
7	0x3d64fb7d	0.0559039
8	0xbdee489c	-0.11634943
9	0xbd160810	-0.036628783
10	0x3d05238d	0.032504607
11	0x3ddbefd0	0.107391
12	0x3d107333	0.035266113
13	0x3c38fef9	0.011291259
14	0xbd5cd0f9	-0.05391023
15	0xbd4702a6	-0.04858651
16	0x3debeb94	0.11519542
17	0x3dc51d16	0.09624688
18	0xbd02331a	-0.031787015
19	0x3db34418	0.08753222
20	0xbc0da3c7	-0.008645005
21	0xbd4eebb2	-0.050517745
22	0xbd95df3b	-0.073179685
23	0x3d627f6c	0.0552973
24	0x3d30c3d9	0.043155525
25	0x3ca0a587	0.01961018
26	0x3d24118d	0.0400558
27	0x3d962cbc	0.07332751
28	0xbd4193b8	-0.047260016
29	0x3de3acd7	0.11116951
30	0xbd2331ba	-0.039842345
31	0xbdd5687b	-0.10420319
32	0x3d9a515b	0.075350486
33	0x3b78fe67	0.0037993432
34	0x3d70b8ee	0.058770113
35	0xbdaaf138	-0.0834679
36	0xbd8810ab	-0.06643804
37	0x3cee93f9	0.029123293
38	0xbd140960	-0.036141753
39	0xbdb65e48	-0.089047015
40	0x3cbb20fd	0.022842878
41	0x3b814ed6	0.0039461656
42	0x3ce4df7f	0.027938602
43	0x3d9560ea	0.072938755
44	0xbce79837	-0.028270824
45	0x3ddc7f47	0.10766464
46	0x3c9ee309	0.019395368
47	0x3db92dbd	0.09041927
48	0xbce1df33	-0.02757225
49	0xbb1ff166	-0.002440536
50	0xbdcfaa5b	-0.101399146
51	0xbd0b7777	-0.034049477
52	0x3d8fdbe2	0.07024361
53	0x3dd8338d	0.105567075
54	0x3db4e7e6	0.088332936
55	0x3db1cb0f	0.086813085
56	0xbc8dfb07	-0.017331613
57	0x3bbb9cec	0.0057254937
58	0xbb04d709	-0.0020269773
59	0x3ca19539	0.019724475
60	0x3b5dbe7b	0.003383546
61	0x3d1d4fd2	0.0384062
62	0xbdc166a0	-0.09443402
63	0x3dbbbc6b	0.09166797
64	0x3d14ea59	0.036356304
65	0xbc72184b	-0.0147763
66	0x3caa4498	0.020784661
67	0xbda29632	-0.07938804
68	0xbcc865f2	-0.024462674
69	0x3d905a35	0.070484556
70	0xbb582212	-0.0032979292
71	0x3deb328f	0.11484253
72	0xbd17b17a	-0.03703449
73	0xbbb816d8	-0.0056179576
74	0x3cb9725b	0.022637537
75	0x3de19e81	0.1101656
76	0x3ddce400	0.10785675
77	0x3e34d710	0.17660165
78	0x3dd3967a	0.103314355
79	0x3e219009	0.15777601
80	0x3dc2bc13	0.095085286
81	0x3d99b10c	0.07504472
82	0x3d23cf2a	0.03999249
83	0x3e1d83fc	0.1538238
84	0x3da67828	0.08128387
85	0x3d653eba	0.055968024
86	0xbceaa630	-0.028643698
87	0xbdd19f8a	-0.10235508
88	0x3c8897e4	0.01667399
89	0xbd8ffc81	-0.07030583
90	0xbe0d81c4	-0.13819033
91	0xbda2cbf1	-0.07949055
92	0xbe36a91b	-0.17837946
93	0xbdcbaccd	-0.099450685
94	0xbcb174e3	-0.021662181
95	0xbdc2b7b7	-0.09507697
96	0xbde6697b	-0.112505876
97	0xbdd9f18e	-0.10641776
98	0xbc24522b	-0.010029356
99	0xbde66ecb	-0.11251601
100	0xbc62c10c	-0.013839971
101	0x3e05171b	0.12997095
102	0xbd39df6f	-0.0453791
103	0x3e17370f	0.14767097
104	0xbbe99740	-0.007128626
105	0x3ce1a86f	0.027546136
106	0x3d0ed6ed	0.034872938
107	0x3c209762	0.0098017175
108	0x3da94777	0.08265584
109	0x3d227d97	0.039670553
110	0x3d17d8b8	0.037071913
111	0x3d7e1598	0.062032312
112	0xbcf237ec	-0.029567681
113	0x3b2f1ab7	0.0026718804
114	0xbd8ebc89	-0.06969554
115	0x3cef63a9	0.029222326
116	0x3d7cd42f	0.06172579
117	0xbcf9ac34	-0.03047762
118	0xbd1a9d98	-0.03774795
119	0xbdd3b310	-0.10336888
120	0xbc437495	-0.011929651
121	0x3cc9daa7	0.024640394
122	0xbd70dc6c	-0.05880396
123	0xbe3585f9	-0.17726888
124	0x3d460951	0.04834873
125	0x3cd09d46	0.025465619
126	0xbc93c0c2	-0.01803625
127	0x3d6afd15	0.057370264
128	0x3d2b153e	0.041768305
129	0xbca85735	-0.020549396
130	0x3bd055ce	0.006357885
131	0x3cebcca3	0.028784102
132	0xbc01bdff	-0.007918834
133	0xbd4fc010	-0.050720274
134	0x3e04146d	0.12898417
135	0x3d1d7f06	0.038451217
136	0x3d5990c1	0.053116564
137	0x3e0ea0d2	0.13928536
138	0x3d3eed2b	0.0466129
139	0xbd843d1e	-0.0645697
140	0xbd870a38	-0.06593746
141	0x3d93759a	0.07200165
142	0x3cecaa33	0.028889751
143	0xbd5d21a6	-0.053987168
144	0xbc8f8ee8	-0.017524198
145	0xbd747806	-0.059684776
146	0xbd8af0e6	-0.06784229
147	0xbdde530d	-0.108556844
148	0xbdf0aa38	-0.11751217
149	0xbdb13a1a	-0.0865366
150	0xbd4ff045	-0.05076625
151	0x3c046c08	0.008082397
152	0xbdd44329	-0.10364372
153	0xbda58db6	-0.0808367
154	0x3d333dd5	0.04376014
155	0xbc0cc116	-0.008590957
156	0xbe06b6ca	-0.13155666
157	0x3b0eca3b	0.002178802
158	0xbdb65f04	-0.089048415
159	0xbd52576f	-0.051352914
160	0xbd60915f	-0.054826137
161	0x3d840bdf	0.06447577
162	0x3b452a47	0.0030085014
163	0x3df37b77	0.118887834
164	0xbd7ef802	-0.062248237
165	0xbce377d8	-0.027767107
166	0xbd994aae	-0.07484947
167	0xbd8d9ed6	-0.06915061
168	0x3da555c8	0.08073002
169	0xbcc4011a	-0.023926307
170	0x3e07d0c6	0.13263234
171	0x3d639ed8	0.055571407
172	0x3dd1257d	0.102122284
173	0x3c6e0e6d	0.014529807
174	0x3c84849d	0.016176516
175	0x3da3eb80	0.080039024
176	0xbd523ca0	-0.051327348
177	0xbd83fa94	-0.06444278
178	0xbda89d41	-0.08233119
179	0xbc3d933e	-0.01157075
180	0xbdfee0d4	-0.12445226
181	0xbdcbb70c	-0.09947023
182	0xbd89fd1c	-0.0673773
183	0xbd5aac9f	-0.05338728
184	0x3c897634	0.016779996
185	0xbe11cf13	-0.14239149
186	0x3c1f22a0	0.009712845
187	0xbdf74695	-0.12074009
188	0x3dcd8944	0.10035947
189	0x3e044c40	0.12919712
190	0x3d2bd3f8	0.041950196
191	0x3d291cab	0.041287106
192	0x3db3380c	0.087509245
193	0x3e07a629	0.13246979
194	0x3de5a149	0.11212403
195	0xbd56e88d	-0.05246787
196	0x3e081599	0.13289489
197	0x3e1c469c	0.1526131
198	0x3baf3da5	0.005347925
199	0x3e2683de	0.16261241
200	0x3d7f26ce	0.062292866
201	0xbd869e80	-0.065732
202	0xbbee7975	-0.0072776624
203	0xbd252a33	-0.040323447
204	0x3cc8c64d	0.02450862
205	0xbe0c7b75	-0.1371897
206	0xbdf9ad0c	-0.12191209
207	0x3cca2862	0.02467746
208	0x3c9a1fd5	0.018814007
209	0x3ddb1efd	0.1069927
210	0x3d2a07db	0.041511398
211	0xbdf78094	-0.12085071
212	0x3c8cc556	0.01718394
213	0xbd7e9935	-0.06215783
214	0x3dd2c7ba	0.10292001
215	0xbd66e5d6	-0.056371532
216	0xbda93246	-0.08261542
217	0xbdbceae0	-0.09224486
218	0xbd9a62e2	-0.07538392
219	0xbd879514	-0.06620231
220	0x3d316d97	0.043317404
221	0x3e2911df	0.16510724
222	0x3d3e743f	0.04649758
223	0x3a711bfb	0.000919759
224	0x3e12fbda	0.14353886
225	0xbd627260	-0.055284858
226	0xba662b20	-0.000878023
227	0x3bd8febd	0.006622164
228	0x3d4aa586	0.04947426
229	0x3dea97ec	0.11454758
230	0x3ccb0914	0.024784602
231	0xbbb3e092	-0.0054894174
232	0x3b672ff6	0.003527639
233	0x3d65d5bf	0.056112047
234	0x3d567977	0.05236193
235	0xbde88345	-0.11353163
236	0xbd759002	-0.05995179
237	0xbcdd1229	-0.026986198
238	0x3e174db4	0.14775735
239	0x3df5d88d	0.120041944
240	0xbdfc9bad	-0.1233438
241	0xbd623f5b	-0.0552362
242	0xbddbebfa	-0.10738368
243	0x3d850214	0.06494537
244	0xbce74711	-0.02823213
245	0xbd2d604e	-0.04232817
246	0xbd9469e9	-0.07246763
247	0xbdea26f7	-0.11433213
248	0x3bef56f3	0.0073040663
249	0x3e00cfcf	0.12579273
250	0xbe08787b	-0.1332721
251	0xbc95e5b8	-0.018298015
252	0x3c321b28	0.010870732
253	0xbcf0c598	-0.029391095
254	0xbce622e2	-0.028092805
255	0x3daca925	0.08430699

block1.0.bias f4 [16]
0	0x3da3ad7d	0.07992075
1	0xbd19585e	-0.03743779
2	0xbc4b16b9	-0.012395554
3	0x3cd11dbc	0.025526874
4	0xbb93b005	-0.004507067
5	0x3db679f6	0.08909981
6	0xbdb5cee3	-0.08877351
7	0x3c6f2af8	0.014597647
8	0xbd856052	-0.06512512
9	0x3bc86067	0.0061150077
10	0x3def4fac	0.11685118
11	0xbd008bfc	-0.0313835
12	0x3caf7d0a	0.021421928
13	0xbe0413d8	-0.12898195
14	0x3def36a2	0.11680342
15	0x3ba3d12f	0.004999302

block2.0.weight f4 [32, 16, 5, 5]
0	0xbd2a97c4	-0.04164864
1	0xbd285c5e	-0.041103713
2	0x3bd16604	0.006390335
3	0xbd0c8f9a	-0.034316637
4	0x3a22f0f1	0.00062157126
5	0xbce1a97e	-0.02754664
6	0xbcfe41ea	-0.03103729
7	0xbd1810ef	-0.037125524
8	0xbd455502	-0.048176773
9	0xbc152db5	-0.009105136
10	0x3cda0ea5	0.026618311
11	0xbce6e747	-0.028186454
12	0xbd886c36	-0.066612646
13	0x3d03d8ce	0.032189183
14	0x3aa0af5a	0.001225929
15	0x3c9f8727	0.019473625
16	0xbd9737c5	-0.07383684
17	0xbd2f9ea7	-0.042875912
18	0xbd78ec04	-0.060771957
19	0xbd6dfe1c	-0.058103666
20	0x3c984fd3	0.01859275
21	0xba8e2d07	-0.001084716
22	0x3cbd78a3	0.023128813
23	0x3c61d4b9	0.013783627
24	0xbbd697d6	-0.006548862
25	0x3d05aefa	0.032637574
26	0x3e81a3bb	0.2532023
27	0x3e8e2401	0.27761844
28	0x3eb1ab06	0.34700793
29	0x3e4f017b	0.20215409
30	0x3d9111d4	0.070834786
31	0x3e13c65d	0.14431138
32	0x3e7a420d	0.24439259
33	0x3e4bd20d	0.19904347
34	0x3e0af331	0.13569333
35	0xbc230b65	-0.009951447
36	0x3c056da3	0.008143815
37	0xbde831b8	-0.11337608
38	0xbcdbe0ad	-0.026840532
39	0x3aaaddef	0.0013036112
40	0xbc891ebd	-0.01673829
41	0x3ceaca51	0.028660925
42	0xbca43317	-0.020043893
43	0xbcdef122	-0.02721459
44	0x3d4df725	0.050284524
45	0xbbb0e705	-0.0053986334
46	0xbcb0d6c6	-0.021586787
47	0xbcdc0fdb	-0.02686303
48	0x3d6b9d5a	0.05752311
49	0x3d087571	0.033315126
50	0xbd1ab163	-0.037766825
51	0xbcf45cd6	-0.029829424
52	0xbdea9c68	-0.114556134
53	0x3d56ce72	0.052442975
54	0x3df916c1	0.12162543
55	0xbd67ba19	-0.05657396
56	0x3dd591b3	0.104281805
57	0x3e1b52d9	0.15168323
58	0x3e94bdae	0.29050964
59	0x3ebee30f	0.37282607
60	0xbc653c34	-0.013991404
61	0x3d6ca922	0.057778485
62	0x3e5cfdbb	0.21581165
63	0x3e83107e	0.2559852
64	0x3e858a7a	0.26082212
65	0xbd0cd19d	-0.03437959
66	0x3ca9ec71	0.020742627
67	0x3cf39a50	0.029736668
68	0x3b9c554a	0.0047709094
69	0xbc37c06a	-0.011215309
70	0x3b0d5f23	0.0021571598
71	0xbd4ea406	-0.050449394
72	0xbdd045fc	-0.101695985
73	0xbc7f0f64	-0.015567634
74	0xbd8be61c	-0.06830999
75	0x3d8bb14b	0.06820925
76	0x3de2fc83	0.11083319
77	0x3d453e77	0.048155274
78	0x3e6f76c1	0.23385145
79	0x3e93a729	0.2883847
80	0x3ce8215b	0.028336218
81	0x3d23c606	0.03998377
82	0xbc830328	-0.015992716
83	0x3e3fad77	0.18718515
84	0x3e97f7c2	0.29681212
85	0xb9006275	-0.0001224371
86	0xbcd6f103	-0.02623797
87	0xbdc9fea2	-0.098630205
88	0x3e60e6fe	0.21963117
89	0x3e513071	0.20428635
90	0xbc6025af	-0.0136808595
91	0xbc975402	-0.018472675
92	0x3c028e1d	0.007968453
93	0x3cf22754	0.029559769
94	0xbb81e757	-0.0039643454
95	0x3bd9ecf0	0.0066505596
96	0xbd856ec1	-0.06515265
97	0xbd3d2075	-0.04617353
98	0xbd068786	-0.03284409
99	0xbd161c43	-0.036648046
100	0x3d108e1c	0.035291776
101	0x3dd2e23d	0.10297058
102	0x3d02fbf0	0.031978548
103	0x3e89866e	0.26860374
104	0x3eba7a87	0.36421606
105	0x3ce806da	0.02832358
106	0x3d587dab	0.05285422
107	0x3e41010b	0.18848054
108	0x3ebdbb58	0.37056994
109	0x3ec5dffc	0.3864745
110	0xbbb3e58d	-0.005490011
111	0x3dabfcc7	0.08397823
112	0x3dff9313	0.12479224
113	0x3e5ffa15	0.21872742
114	0x3e665615	0.22493775
115	0x3caec6e4	0.021335073
116	0xbc05641e	-0.008141546
117	0xbdb6d8be	-0.08928059
118	0x3cc41e26	0.023940157
119	0xbd5a38a1	-0.05327666
120	0x3c579278	0.013157479
121	0xbd051986	-0.032495044
122	0xbdd5bf8b	-0.104369245
123	0xbd51cb0b	-0.051219027
124	0xbcb8c574	-0.02255509
125	0xbd90d3ba	-0.07071634
126	0xbc8dccb8	-0.017309532
127	0xbc52df14	-0.012870569
128	0x3c3092e1	0.010777206
129	0x39f2e432	0.00046327856
130	0xbce981ac	-0.028504215
131	0xbcc40091	-0.023926051
132	0x3c5d4559	0.013505303
133	0x3d00a603	0.03140832
134	0x3cba8593	0.022768771
135	0xbc1721cc	-0.009224366
136	0x3d11e2b2	0.035616584
137	0x3cd8ca1f	0.026463566
138	0xbcbd3747	-0.023097647
139	0xbc5cf3b6	-0.01348584
140	0x3c0f186a	0.008733848
141	0x3cb1a6b0	0.021685928
142	0xbc461fc9	-0.012092539
143	0xbd3fec47	-0.04685619
144	0xbd64e200	-0.055879593
145	0xbd25ea78	-0.04050681
146	0xbc166f3b	-0.009181793
147	0x3cc672ce	0.024224665
148	0xbbdaf1a0	-0.006681636
149	0xbd48ab4a	-0.04899148
150	0xbbde7994	-0.0067893956
151	0x3dbf0d03	0.09328654
152	0x3c331ffe	0.0109329205
153	0x3e41023d	0.1884851
154	0x3df3ce88	0.11904627
155	0xbd28904a	-0.04115323
156	0xbc15f58a	-0.009152779
157	0xbd4591f4	-0.048234895
158	0x3e8caa97	0.274739
159	0x3ea44e38	0.32090926
160	0xbc92d0bc	-0.017921798
161	0xbdafe211	-0.085880406
162	0xbd1e2ed5	-0.03861888
163	0x3ea8c5d4	0.3296343
164	0x3eb3729b	0.35048375
165	0x3c9e5bd3	0.019330895
166	0xbb3d2d41	-0.0028866085
167	0xbc8f5b0a	-0.017499465
168	0x3e303067	0.17205964
169	0x3e2a78c1	0.16647626
170	0x3cb8ab0a	0.022542495
171	0x3b569d22	0.0032747467
172	0xbdad26d5	-0.08454672
173	0xbd86b90c	-0.06578264
174	0xbd9a954b	-0.075480066
175	0x3c1299da	0.008947814
176	0x3d2b37fe	0.041801445
177	0x3e3537ba	0.17697039
178	0x3e4bd264	0.19904476
179	0x3e339985	0.17539032
180	0xbcd74ed4	-0.026282705
181	0x3daf15ac	0.085490555
182	0x3d8b8ff8	0.06814569
183	0x3e075686	0.132166
184	0x3d8f5baa	0.069999054
185	0x3ce09940	0.027416825
186	0xbcae9c0a	-0.02131464
187	0xbd57cde7	-0.0526866
188	0x3c46d4c9	0.012135693
189	0x3d61d1bd	0.055131663
190	0xbd13d897	-0.036095228
191	0xbc60e7c3	-0.013727131
192	0xbd4058be	-0.04695963
193	0xbd462f15	-0.048384745
194	0x3d050370	0.03247398
195	0xbd520fe3	-0.051284682
196	0xbc85ca8b	-0.016331932
197	0x3d311fcc	0.043243214
198	0x3d3669e0	0.044534564
199	0x3ca39ce6	0.019972276
200	0x3d9ace9f	0.07558941
201	0x3e92e439	0.28689745
202	0x3e9cf40b	0.3065494
203	0x3ebce979	0.36896876
204	0x3e983472	0.29727513
205	0x3c397de1	0.011321516
206	0x3e3c71d5	0.18402798
207	0x3e6332de	0.22187373
208	0x3e677d6f	0.22606443
209	0x3e3e66f5	0.18593962
210	0x3ca4f4f5	0.020136336
211	0x3d299ece	0.041411214
212	0xbd71dbbc	-0.059047446
213	0x3c87c98a	0.016575594
214	0x3ce150c2	0.027504329
215	0x3ce4988e	0.027904775
216	0xbceeead1	-0.029164704
217	0xbc81ab40	-0.015828729
218	0xbac59854	-0.0015075305
219	0xbc57c51b	-0.013169552
220	0xbd3b79c7	-0.045770433
221	0xbd37eb80	-0.044902325
222	0xbbba008e	-0.0056763357
223	0x3bd01490	0.0063501075
224	0x3bdde4e7	0.006771672
225	0x3d569201	0.052385334
226	0x3e157df3	0.14598827
227	0x3dcdb2ae	0.10043846
228	0x3e497d27	0.19676648
229	0x3e969f27	0.294183
230	0x3c1255bd	0.008931574
231	0x3e531b79	0.20615949
232	0x3ec76210	0.38942003
233	0x3ebc8068	0.36816716
234	0x3ec851c0	0.3912487
235	0xbdbecd47	-0.09316497
236	0x3dd4d07a	0.10391326
237	0x3e309141	0.1724291
238	0x3e705c55	0.23472722
239	0x3e613996	0.21994624
240	0xbd7f6304	-0.062350288
241	0xbcda49a8	-0.02664645
242	0x3c14cdf8	0.00908231
243	0x3c9abd98	0.018889233
244	0x3dd8ffc4	0.105956584
245	0xbd3db842	-0.0463183
246	0xbd7beec3	-0.061506998
247	0xbd4e698c	-0.050393626
248	0x3d640c91	0.055676047
249	0x3d27ca04	0.04096414
250	0x3cbf02cc	0.023316763
251	0x3e581818	0.21102941
252	0x3e72c3de	0.2370753
253	0x3ec4a585	0.3840753
254	0x3e941c4f	0.28927848
255	0x3b5764cb	0.0032866474

block2.0.bias f4 [32]
0	0xbd91933d	-0.071081616
1	0xbd66869e	-0.056280725
2	0xbb5ad19e	-0.0033389102
3	0xbd055dcc	-0.032560155
4	0x3b876443	0.004131825
5	0xbd994ca9	-0.07485325
6	0xbdc229e1	-0.09480644
7	0x3d8d3dc9	0.0689655
8	0xbd384b6f	-0.044993814
9	0xbd52a739	-0.051429007
10	0xbd236b1c	-0.03989707
11	0xbcddc436	-0.0270711
12	0xbd7b21c8	-0.061311513
13	0x3d1f1517	0.038838472
14	0xbc00402d	-0.007827801
15	0x3d09763f	0.033560034
16	0xbcfe9ee5	-0.031081626
17	0x3d586374	0.05282922
18	0xbd116d12	-0.03550441
19	0xbc036d5c	-0.008021679
20	0x3cf0d7fa	0.02939986
21	0x3c1f031c	0.009705331
22	0xbda44d13	-0.08022513
23	0xbd8dd7f6	-0.06925957
24	0xbd64ff2f	-0.055907425
25	0x3abfe028	0.0014638947
26	0x3db4eece	0.08834611
27	0x3ba1c5f5	0.0049369284
28	0xbdbc9992	-0.09208979
29	0x3da505f9	0.0805778
30	0x3d10aae0	0.03531921
31	0x3d8825e2	0.066478506

block3.0.weight f4 [100, 1568]
0	0x3c837185	0.016045341
1	0x3cd57b57	0.02605979
2	0x3c4e4366	0.012589311
3	0x3d2a62d9	0.041598175
4	0x3c81105a	0.015754867
5	0x3c2eafc3	0.010662022
6	0x3c756a30	0.01497893
7	0xbcc8c4ea	-0.024507958
8	0xbc37a00e	-0.011207594
9	0xbbd4ff50	-0.006500162
10	0x3cb20d08	0.02173473
11	0x3d11cb64	0.03559436
12	0x3d1bd41e	0.038044088
13	0x3cbdfd39	0.023192035
14	0x3c86a643	0.016436702
15	0xbc56e105	-0.013115172
16	0x3c79f861	0.015256972
17	0xbc4d1aba	-0.012518579
18	0xbc2f2933	-0.010690975
19	0x3c476901	0.012171031
20	0x3cccd0e8	0.025001958
21	0x3d4f44c8	0.050602704
22	0x3dc1e521	0.09467531
23	0x3cfff8e9	0.03124662
24	0xbd0c8f25	-0.0343162
25	0xbdb13480	-0.08652592
26	0xbd435a82	-0.047693737
27	0x3ba724a6	0.0051008044
28	0x3ce3fdbf	0.027830957
29	0x3dcd0bee	0.10012041
30	0x3d9f1b57	0.077688865
31	0xbd37f1af	-0.04490822
32	0xbdc53a5e	-0.09630273
33	0xbd3f716f	-0.046739038
34	0xbcaf6faf	-0.02141556
35	0x3c4b8b43	0.012423339
36	0xbc9a3885	-0.018825779
37	0xbcd158fd	-0.025555128
38	0xbc1577f8	-0.009122841
39	0x3c1698ce	0.009191705
40	0x3bdbbfc1	0.0067062085
41	0x3c7584bb	0.014985259
42	0x3d1eb11d	0.038743127
43	0x3ce6f334	0.02819214
44	0x3b2e757f	0.0026620326
45	0x3c866365	0.016404817
46	0x3ce490ae	0.02790102
47	0x3cc64ae1	0.024205627
48	0xbc07100a	-0.00824357
49	0x3bdbdb72	0.0067095095
50	0xbb4396ab	-0.0029844444
51	0xbc3b28a2	-0.011423262
52	0x3d0eb24a	0.034838
53	0x3c48a2a9	0.012245812
54	0x3b4c217e	0.0031147893
55	0x3cbbb4dd	0.02291339
56	0xbd1d989b	-0.038475614
57	0xbc16d591	-0.009206192
58	0xbd2119ca	-0.039331235
59	0x3d2a9030	0.041641414
60	0x3d2ff5fe	0.042959206
61	0x3ca40728	0.020022944
62	0x3d590364	0.05298175
63	0xbc722fdb	-0.014781917
64	0xbd2df5a7	-0.0424706
65	0x38958cea	7.131121e-05
66	0xbb8500e6	-0.004058945
67	0x3d122fca	0.035690106
68	0x3d1cf854	0.03832276
69	0x3d18ab48	0.03727272
70	0x3d837afc	0.06419942
71	0x3d76499b	0.06012879
72	0x3d44731e	0.047961347
73	0xbcb5b9e3	-0.022183364
74	0xbd9714d0	-0.073770165
75	0xbd78c23f	-0.060732123
76	0xbd3923e2	-0.045200236
77	0x3d7c6726	0.061621808
78	0x3d86a2a4	0.0657399
79	0x3d9cebf3	0.07662191
80	0xbd0b6349	-0.034030233
81	0xbdc2ec1f	-0.09517693
82	0xbdbd2da8	-0.09237224
83	0xbd2f9f6b	-0.042876642
84	0xbc9bead9	-0.019032883
85	0x3cc404eb	0.023928126
86	0xbbb4b13a	-0.005514291
87	0xbc94438b	-0.018098613
88	0xbc8191dc	-0.015816621
89	0x3ba89367	0.005144525
90	0xbbd74790	-0.00656981
91	0x3cf96585	0.030443916
92	0x3cb34912	0.021885429
93	0x3c7d0da8	0.01544515
94	0x3c3f89f7	0.011690608
95	0x3d2af5e7	0.041738417
96	0x3d25bce1	0.040463332
97	0xbc135863	-0.008993241
98	0x3cb71bbe	0.022352096
99	0xbcf32445	-0.02968038
100	0xbd18fc67	-0.037350085
101	0x3bd0b61b	0.006369365
102	0x3cc45256	0.023965042
103	0x3d23bbd3	0.039974045
104	0x3d700267	0.05859604
105	0x3c68ed15	0.014216681
106	0x3c9cce3b	0.019141307
107	0x3c92d240	0.01792252
108	0x3c594dd3	0.013263184
109	0x3b3282b0	0.002723854
110	0x3d3c7d1d	0.046017755
111	0x3d47eb8d	0.048808623
112	0x3d686e00	0.05674553
113	0x3dcdc597	0.10047453
114	0x3dcf9a13	0.10136809
115	0x3cb6a6cd	0.022296334
116	0xbddf7ddf	-0.1091268
117	0xbdd9841d	-0.10620902
118	0xbcc60739	-0.024173366
119	0x3d19ba60	0.037531257
120	0x3d47d878	0.048790425
121	0x3da2d407	0.07950597
122	0x3ce0031b	0.02734523
123	0xbdae8b44	-0.085226566
124	0xbdb71ff4	-0.089416414
125	0xbd8ad7e7	-0.06779461
126	0x3c9a7324	0.018853731
127	0xbb0242a0	-0.0019876137
128	0xbbd24851	-0.006417312
129	0x3be4341a	0.006964219
130	0xbb76e42b	-0.003767262
131	0x3c5fd6b7	0.013662032
132	0x3c14c86b	0.0090809865
133	0x3bbab7fa	0.0056982012
134	0x3c449247	0.011997766
135	0x3d426328	0.047457844
136	0x3c0c654f	0.008569076
137	0x3d4e5566	0.05037441
138	0x3ca9e715	0.020740071
139	0x3bc28308	0.0059360303
140	0x3d0795a7	0.033101704
141	0x3b8bc2ab	0.0042651496
142	0x3d0cddda	0.03439126
143	0x3c84ae83	0.016196495
144	0xb9bc4389	-0.00035908472
145	0x3c58d375	0.013234009
146	0x3cedd22a	0.029030878
147	0xbc022bb4	-0.00794499
148	0x3c8b3e30	0.016997427
149	0xbbc75db4	-0.0060841683
150	0x3d123fd6	0.03570541
151	0x3ca1171c	0.01966434
152	0x3c24f51f	0.010068207
153	0x3b3d1603	0.0028852231
154	0x3b4d327c	0.0031310609
155	0xbc1b2bf1	-0.009470926
156	0xbc0e17cc	-0.008672666
157	0x3b68de8e	0.0035533044
158	0x3d177a47	0.036981847
159	0x3ca50702	0.020144943
160	0x3d288322	0.041140683
161	0x3d5f7851	0.054558102
162	0x3d9ec214	0.07751861
163	0x3c82aa0a	0.015950222
164	0xbd9ccea3	-0.076566
165	0xbd56f921	-0.05248368
166	0x3a9ce11e	0.0011968946
167	0x3b7ce66d	0.0038589493
168	0x3d2221ae	0.0395829
169	0x3d169a7f	0.036768433
170	0x3d3b23ed	0.04568856
171	0xbde0e648	-0.10981423
172	0xbda82125	-0.08209447
173	0xbd88beef	-0.06677043
174	0xbbb7a5cc	-0.0056044813
175	0x3d2d6288	0.042330295
176	0x3dbaa683	0.09113791
177	0x3db32224	0.08746746
178	0xbc8c4167	-0.01712103
179	0xbdd130b4	-0.102143675
180	0xbcf3ec03	-0.029775625
181	0xbd5697a1	-0.0523907
182	0xbcec0149	-0.028809207
183	0x3b12c6d1	0.0022396336
184	0x3c514bb3	0.012774396
185	0xbc8d0c44	-0.017217763
186	0x3c556365	0.013024186
187	0xba5a0a01	-0.0008317531
188	0x3c952e4f	0.018210558
189	0x3c9b2021	0.018936219
190	0x3cda899d	0.026676947
191	0xbbee069f	-0.007263973
192	0xbc8aaa3a	-0.016926873
193	0x3cba6731	0.022754284
194	0x3d1f2a5e	0.038858764
195	0x3cb981de	0.022644933
196	0x3ae7c1d8	0.0017681671
197	0xbc48fb96	-0.012267014
198	0x3c4e370e	0.012586368
199	0x3ce1b39a	0.027551461
200	0x3b728ef5	0.0037011479
201	0x3c8ae97b	0.016957035
202	0x3c251a4a	0.010077069
203	0xb9e9812c	-0.00044537464
204	0x3c48d1c6	0.012257045
205	0x3ba08feb	0.004899969
206	0x3c326e2f	0.010890528
207	0x3d02ecb8	0.031964034
208	0x3d18e881	0.037331108
209	0x3c833b98	0.016019627
210	0x3cdcbc11	0.026945146
211	0x3d302569	0.043004427
212	0x3d3931e8	0.04521361
213	0xbceddcc2	-0.02903593
214	0xbcb28d5d	-0.021795923
215	0x3b48d00d	0.0030641586
216	0xbccc8783	-0.02496696
217	0x3a462124	0.0007558039
218	0x3cff1c13	0.031141317
219	0x3cdf535c	0.027261429
220	0xbcf2a1a6	-0.029618096
221	0xbd95607d	-0.07293794
222	0xbc08cb8c	-0.008349311
223	0xbbe9add8	-0.0071313195
224	0x3c51d250	0.01280649
225	0x3c1a548c	0.009419572
226	0xbca9a580	-0.0207088
227	0xbd412644	-0.047155634
228	0x3bdc798f	0.006728358
229	0x3cf5b1b6	0.029991966
230	0x3c0cbc54	0.008589823
231	0x3c0b46f2	0.008500801
232	0x3d1b38bd	0.037895907
233	0x3c820346	0.015870702
234	0x3ca756dd	0.020427162
235	0x3cef2162	0.029190723
236	0x3d203b5e	0.039119117
237	0xba2eca31	-0.0006667702
238	0xb90e5bec	-0.00013576419
239	0xbc29321d	-0.010326889
240	0xbc554b7a	-0.013018483
241	0x3c992a96	0.018697064
242	0x3c3d9d34	0.011573125
243	0x3cf158d9	0.029461311
244	0x3c23ea3a	0.010004574
245	0xbca7dd0c	-0.020491146
246	0x3b6b42bb	0.0035897929
247	0xbbcae9c5	-0.0061924183
248	0xbc0a7d90	-0.008452788
249	0x3c20236e	0.009774072
250	0x3d03875e	0.032111518
251	0x3d223181	0.03959799
252	0x3cd72381	0.026262047
253	0x3cd03ea4	0.025420494
254	0xbc8d65bc	-0.017260425
255	0x3be2179e	0.006899788

block3.0.bias f4 [100]
0	0x3b6b0157	0.0035858953
1	0xbace21b5	-0.0015726598
2	0xbc074443	-0.008256021
3	0xbca49eaf	-0.020095197
4	0x3c2b1dcd	0.010444117
5	0x3b6974d5	0.0035622616
6	0x3cb314d8	0.021860525
7	0x3aabd65f	0.0013110152
8	0xbc22b5b2	-0.009931015
9	0x3c9649ef	0.018345801
10	0xbcc9a00d	-0.024612451
11	0x3cca2136	0.02467404
12	0xbc922624	-0.017840452
13	0xbc6dc807	-0.014513022
14	0xbc438e6b	-0.011935811
15	0xbcf10f43	-0.029426223
16	0x3caea2da	0.021317888
17	0xbc50ef60	-0.012752384
18	0x3b7eb58a	0.003886553
19	0xbcc92eff	-0.024558542
20	0xbcf23650	-0.029566914
21	0x3cab61c3	0.02092064
22	0x3c6bdf9d	0.014396575
23	0x3c652bb0	0.013987467
24	0xbc053fe9	-0.008132913
25	0xbd50e4b2	-0.05099935
26	0xba9544cc	-0.0011388301
27	0x3c985460	0.01859492
28	0xbcb97c8c	-0.022642396
29	0xbc36e8cf	-0.011163904
30	0xbd05edbd	-0.032697428
31	0xb898760d	-7.2699135e-05
32	0x3c0adf8f	0.008476152
33	0x3c66717e	0.014065145
34	0xbc92e903	-0.017933374
35	0xbcc8498f	-0.024449138
36	0x3c3774c1	0.01119727
37	0x3d29a401	0.041416172
38	0xbce81d52	-0.028334294
39	0x3cfb56bb	0.030681005
40	0xbb8e616d	-0.00434511
41	0xbc4c2cca	-0.01246185
42	0x3d1f3071	0.038864557
43	0x3c257cbd	0.010100541
44	0x3b86b285	0.0041106367
45	0x3ab3a79b	0.0013706567
46	0x3be95b64	0.0071214903
47	0x3d0c7932	0.03429527
48	0x3b45fe8f	0.0030211543
49	0xbc066d3c	-0.008204754
50	0x3c9262f8	0.017869458
51	0x3ca6f45b	0.02038019
52	0x3b95ffcf	0.004577614
53	0x3cb0351e	0.021509703
54	0xbd23e955	-0.040017445
55	0xbaf103d0	-0.0018387977
56	0xbcd45568	-0.025919631
57	0xbd0bde26	-0.034147404
58	0x3d17c0a9	0.03704897
59	0x368f9e7b	4.2801817e-06
60	0xbcce513e	-0.025185224
61	0x3ccd8779	0.025089012
62	0xbb0e0327	-0.002166936
63	0x3cc31933	0.023815727
64	0xbcc02fde	-0.023460325
65	0xbc5f9e40	-0.01364857
66	0x3c86ca38	0.016453847
67	0x3c62aee3	0.013835642
68	0x3c212826	0.009836232
69	0x3c6b261e	0.01435235
70	0x3c8183e4	0.01580996
71	0xbbe17ffd	-0.0068817125
72	0xbc51d739	-0.012807661
73	0x3c89583a	0.016765703
74	0x3cc61f0c	0.024184726
75	0x3c987f91	0.018615516
76	0x3c95868e	0.018252637
77	0x3d0f7f7a	0.03503368
78	0x3ae5b2ac	0.0017524562
79	0xbc750532	-0.014954852
80	0xbc22bd34	-0.009932805
81	0xbcd6d060	-0.026222408
82	0xba880417	-0.0010377195
83	0xbbe4d114	-0.006982932
84	0x3bdc1715	0.006716619
85	0xbc399083	-0.011325958
86	0xbc4ebbae	-0.0126179885
87	0xbc3f0ffa	-0.011661524
88	0xb99f845b	-0.00030425456
89	0x3c83367c	0.016017191
90	0x3cafd0c4	0.021461852
91	0xbc8934ef	-0.016748874
92	0xbcb02b89	-0.021505134
93	0x3c789fcd	0.015174818
94	0xbb980dab	-0.004640301
95	0x3c527311	0.012844817
96	0x3c08a3c6	0.008339828
97	0xbc2d438d	-0.010575187
98	0x3d291336	0.041278087
99	0xbc06902c	-0.008213084

block3.2.weight f4 [37, 100]
0	0xbdc61706	-0.0967236
1	0x3cf6958d	0.030100608
2	0x3cf7b1e6	0.030236196
3	0x3d88557c	0.0665693
4	0xbd70a998	-0.058755487
5	0x3d4657c5	0.048423547
6	0xbc97b2d9	-0.018517898
7	0x3d5cae82	0.05387736
8	0xbc50f3df	-0.012753456
9	0xbd141c3a	-0.03615973
10	0xbd3adcd9	-0.045620773
11	0x3c7cbec9	0.015426346
12	0xbd51a85f	-0.05118596
13	0xbd4b32b5	-0.049608905
14	0x3dbc78f1	0.09202755
15	0x3d4317a8	0.047629982
16	0x3c5f14a8	0.013615765
17	0x3d3f8976	0.046761952
18	0x3da95f32	0.0827011
19	0xbd2ab9dc	-0.041681156
20	0xbdad3881	-0.08458043
21	0x3d97bbe0	0.07408881
22	0x3a04f57b	0.000507198
23	0x3dea6663	0.1144531
24	0xbcdc00a7	-0.02685578
25	0x3caa53e2	0.020791952
26	0x3db5ca59	0.088764854
27	0x3da2ff57	0.079588585
28	0xbd620ff4	-0.055190995
29	0xbc946728	-0.018115595
30	0xbcb4875e	-0.022037204
31	0x3dbb522a	0.09146531
32	0x3cc1dba3	0.023664301
33	0x3d8bc6c9	0.06825025
34	0xbdf56d89	-0.11983783
35	0xbd91c32a	-0.07117303
36	0xbda7a288	-0.08185297
37	0xbcf29424	-0.029611655
38	0xbc9393e9	-0.018014865
39	0x3d8b8571	0.06812561
40	0xbcf257e9	-0.029582934
41	0xbe0f3265	-0.13984068
42	0x3d0120da	0.03152547
43	0xbd072c77	-0.03300139
44	0xbac47b3e	-0.0014990342
45	0xbe007d34	-0.12547761
46	0xbd9fdfa7	-0.0780633
47	0x3dd1eb17	0.10249918
48	0xbc8454c9	-0.01615371
49	0xbc1b5874	-0.009481538
50	0xbe447948	-0.1918689
51	0xbde9ae18	-0.11410159
52	0xbcd2b76f	-0.025722234
53	0x3d70d3c6	0.058795713
54	0xbcf321bb	-0.02967917
55	0xbdacc512	-0.08436026
56	0xbd9cab91	-0.07649911
57	0xbad6ef8c	-0.0016398295
58	0x3bee259d	0.0072676674
59	0xbcb46485	-0.022020588
60	0x3c683545	0.014172857
61	0x3d0fc192	0.035096712
62	0xbc812a1c	-0.01576715
63	0xbd96d2e1	-0.07364441
64	0x3d741c78	0.059597462
65	0x3bc82291	0.0061076363
66	0x3d78a5cd	0.060704995
67	0x3d8dd685	0.06925682
68	0xbdef3a81	-0.116810806
69	0x3d31a27f	0.04336786
70	0x3cfcd6f7	0.030864222
71	0xbd91f776	-0.071272776
72	0xbdb1828a	-0.086674765
73	0x3dd659a1	0.10466314
74	0xbd1cc7ba	-0.03827641
75	0xbd45e0b9	-0.048310015
76	0x3c51b95c	0.012800541
77	0x3de04f89	0.1095267
78	0x3d91c86f	0.07118308
79	0xbb7ebeba	-0.0038871006
80	0xbe33bcb9	-0.1755246
81	0x3bb6eee5	0.0055826777
82	0x3b8c38b3	0.00427922
83	0xbcdf2c6f	-0.027242867
84	0xbd8bcd6d	-0.06826291
85	0xbdd6f2f6	-0.1049556
86	0x3d8a6672	0.06757821
87	0x3db4add2	0.08822216
88	0x3d297101	0.041367535
89	0x3cddf5e1	0.027094783
90	0xbba3c087	-0.0049973163
91	0x3db54ca0	0.08852506
92	0xbde77447	-0.11301475
93	0xbd8fdf30	-0.070249915
94	0xbe34f7f8	-0.17672718
95	0xbc2afe66	-0.01043663
96	0xbc0e747d	-0.008694765
97	0xbdf0d438	-0.117592275
98	0xbd759910	-0.059960425
99	0x3c287179	0.01028096
100	0x3dcccf5e	0.1000049
101	0xbdb1cdeb	-0.08681854
102	0xbdc39dd7	-0.0955159
103	0x3d02545c	0.031818733
104	0x3d8ec252	0.069706574
105	0xbe2b22f0	-0.16712546
106	0x3d8b9cb1	0.06816996
107	0x3d2d0653	0.04224236
108	0x3da5341e	0.08066581
109	0xbb68922b	-0.0035487514
110	0xbd704142	-0.058655985
111	0x3cf44adc	0.029820852
112	0xbd52fc64	-0.05151023
113	0x3d54a599	0.05191574
114	0xbc5034a7	-0.012707866
115	0x3d8a6a7f	0.06758594
116	0xbca2c196	-0.0198677
117	0x3dc79674	0.097454935
118	0xbdc04617	-0.093883686
119	0xbd74ee2c	-0.05979745
120	0x3da9596d	0.0826901
121	0x3d22da12	0.03975875
122	0xbe32da00	-0.17465973
123	0x3db85319	0.090002246
124	0xbdf687fb	-0.12037655
125	0x3ad2a51f	0.0016070938
126	0x3dd8125a	0.10550375
127	0xbc43f59a	-0.011960411
128	0xbdf037d6	-0.117294
129	0x3c0dafc6	0.008647865
130	0xbd122843	-0.035682928
131	0x3d4e3e6a	0.05035249
132	0x3d8145eb	0.06312164
133	0x3da716c2	0.081586376
134	0xbbb3af97	-0.0054835784
135	0xbd09b03f	-0.033615347
136	0xbcf5209a	-0.029922772
137	0xbdaf8623	-0.085705064
138	0xbc011406	-0.007878309
139	0xbc880c2e	-0.01660737
140	0xbd0ba28b	-0.03409056
141	0xbcc424f6	-0.023943406
142	0xbda9fecc	-0.08300552
143	0x3d061e89	0.032743964
144	0xbd9caa5e	-0.076496825
145	0xbe1895d3	-0.14900903
146	0xbe433504	-0.19063193
147	0xbd8b21d8	-0.067935646
148	0x3b07e021	0.0020732956
149	0xbc86a9fb	-0.016438475
150	0xbdd1d120	-0.102449656
151	0x3da53c65	0.0806816
152	0xbe014c76	-0.12626824
153	0x3dca1dae	0.09868942
154	0x3d0b4d83	0.034009468
155	0xbdb89833	-0.09013405
156	0xbdb8312f	-0.08993756
157	0xbb142ed4	-0.002261092
158	0x3d7e6eeb	0.0621175
159	0xbcda581f	-0.026653348
160	0xbcc0eee8	-0.02355142
161	0xbe125f52	-0.14294174
162	0x3d2bbe6a	0.04192964
163	0xbd5741b4	-0.052552894
164	0x3da039a4	0.07823494
165	0xbca761dc	-0.020432405
166	0xbcbe30fe	-0.02321672
167	0x3d93ca60	0.07216334
168	0xbe27511a	-0.16339532
169	0xbd59f9fd	-0.053216923
170	0xbdeade80	-0.1146822
171	0xbdbe440a	-0.09290321
172	0xbc51599f	-0.012777715
173	0xbdecfff9	-0.115722604
174	0x3c7794f2	0.015111195
175	0xbdd5ae26	-0.10433607
176	0xbdc2adc2	-0.09505798
177	0x3cb0e716	0.021594565
178	0x3cf91824	0.030407019
179	0x3c82348a	0.015894193
180	0x3d4bdb54	0.049769714
181	0xbcc5d49b	-0.02414923
182	0xbe230203	-0.15918736
183	0x3d6e035f	0.058108684
184	0xbd542cca	-0.051800527
185	0xbe03a957	-0.12857567
186	0xbd981fd3	-0.07427945
187	0xbd7894c8	-0.060688764
188	0xbd969b03	-0.07353785
189	0x3cfcee8b	0.030875465
190	0x3d5168f5	0.051125485
191	0x3ce91757	0.028453512
192	0xbd52f630	-0.051504314
193	0xbdf039ab	-0.11729749
194	0xbdcb217e	-0.099184975
195	0x3d0ce40a	0.034397162
196	0x3d8e3d1e	0.06945251
197	0xbdb3a6d3	-0.087720536
198	0xbd945137	-0.07242053
199	0x3afbd60a	0.0019213569
200	0xbd850061	-0.06494213
201	0xbdcf59c2	-0.10124542
202	0x3d74abf7	0.05973431
203	0xbd5252e6	-0.05134859
204	0xbd236029	-0.039886627
205	0x3dcb92a2	0.09940077
206	0xbb747977	-0.0037303844
207	0x3dacff72	0.0844716
208	0x3d0a8c96	0.03382548
209	0xbdc47b08	-0.09593779
210	0x3c4d5134	0.012531567
211	0x3d72b3d5	0.059253532
212	0xbc3560be	-0.011070428
213	0xbbbc7b45	-0.0057519996
214	0x3d11c445	0.035587568
215	0xbdc44d54	-0.09585062
216	0x3d189ef0	0.03726095
217	0xbc64c349	-0.013962575
218	0x3d4c3a9b	0.049860578
219	0x3d97ac7c	0.07405946
220	0x3cb6003d	0.02221691
221	0xbdc55395	-0.09635083
222	0x3d7e7931	0.062127296
223	0x3d1f3f73	0.03887887
224	0xbdb8b6d5	-0.090192474
225	0xbd1a024b	-0.037599843
226	0xbcd53000	-0.026023865
227	0x3d8a0a8e	0.067402944
228	0x3ca4c5e7	0.020113898
229	0xbe0e38b1	-0.13888814
230	0xbd6e269c	-0.05814229
231	0x3ddc39b1	0.10753191
232	0xbe1118bb	-0.1416959
233	0x3dc44073	0.09582605
234	0xbe10b61d	-0.1413197
235	0xbd13718f	-0.03599697
236	0xbd499f5f	-0.049224254
237	0x3db8e9e4	0.09028986
238	0x3d94df67	0.07269173
239	0xbda01753	-0.07816949
240	0xbc3301e4	-0.010925744
241	0xbcac4208	-0.02102758
242	0xbda51e64	-0.08062437
243	0x3da2bbe6	0.07945995
244	0x3daf8d47	0.085718684
245	0x3bc856dd	0.0061138705
246	0x3c8f4947	0.017490996
247	0xbc1d38b8	-0.009596042
248	0xbd4dda06	-0.05025675
249	0xbd77b58b	-0.060475867
250	0xbd9324fd	-0.07184789
251	0x3d30b47b	0.04314087
252	0x3b77eca2	0.0037830253
253	0xbe0fc4ea	-0.1403996
254	0xbd5095ab	-0.050923984
255	0xbe002048	-0.12512314

block3.2.bias f4 [37]
0	0x3da34f8c	0.07974157
1	0x3dae5d74	0.085139185
2	0xbd1d7b35	-0.038447578
3	0x3d937272	0.07199563
4	0xbdce004c	-0.100586504
5	0xbcfff117	-0.03124289
6	0xbdaa9ee2	-0.08331086
7	0x3b47ea38	0.0030504595
8	0xbd8a7be3	-0.06761911
9	0x3d91b9b4	0.07115498
10	0x3d50255a	0.05081687
11	0x3d91db6d	0.0712193
12	0x3dde66aa	0.10859425
13	0xbd86919a	-0.0657074
14	0x3c421ba5	0.011847411
15	0x3cd2cf43	0.025733596
16	0x3dba0249	0.09082467
17	0xbd8d0568	-0.06885797
18	0xb7311c0d	-1.0556553e-05
19	0xbe0346fb	-0.12820046
20	0x3d0806e3	0.033209693
21	0xbd82375a	-0.06358214
22	0xbdbbfefa	-0.09179492
23	0xbd8cb71c	-0.06870863
24	0xbdcd408e	-0.100220785
25	0x3d756385	0.059909362
26	0xbdc4f844	-0.096176654
27	0xbb8ebc66	-0.004355955
28	0xbda0becd	-0.07848892
29	0x3d72431c	0.05914603
30	0xbda9abfd	-0.08284757
31	0xbca46897	-0.020069404
32	0xbccbccb2	-0.02487788
33	0xbc4958e3	-0.012289259
34	0xbda3a069	-0.0798958
35	0x3d71e872	0.059059568
36	0x3cbaad20	0.02278763
