final_model/model.pth (torch_old, 700245 bytes, 8 tensors)

block1.0.weight f4 [16, 3, 5, 5]
00000000: 352d ed3d 5e64 a0bd 52b5 c93d a22c 4bbd
00000010: 01ff 723d c469 9a3d 72f0 04bd 1980 adbd
00000020: 7140 a9bd c7de b13c 678e e13c dafd 123d
00000030: 8c60 233d b216 d7bc 60fa 32bd cbfc 93bd
00000040: f4e7 b13d 8a13 cc3d ead8 8fbd d910 cc3c
00000050: 1a4d 373b f1cf edbd 4157 dabd 7686 893d
00000060: 4682 913a bba8 eb3d 3164 e33d 8519 ebbd
00000070: 960e bfbd f25e e0bd bca0 293e dba5 073e
00000080: fcec 54bd 16d8 063d 9329 d0bd e461 103e
00000090: f2ba 133e edf2 c83d 02e1 283d 0105 e43c
000000a0: 648a 3939 8e90 b0bc d054 5fbc 80cf 86bd
000000b0: 04f7 00be a4d7 12be 423c fb3c 6ea5 c8bd
000000c0: 34f3 6fbd 6429 cbbc 09a2 c63c 2e25 053e
000000d0: 963e 11bd b2fa a1bd ea3c dc3c edc1 853d
000000e0: c5d0 0d3e e736 373c 35dc ff3c aa0b d4bd
000000f0: e401 91bd 8802 e93d 0e40 e93d 529e 09bd
00000100: c70d 9c3d 3fcb f2bd c7db 99bd cc4e 07b9
00000110: df62 5b3d 0675 8bbd 5ef6 5e3d 9a15 02be
00000120: 285b 08bd 2c2e 0fbd f2f7 83bd 707b 043c
00000130: 580f 7cbd 1c3a 073c 6964 003d f7de d43c
00000140: ffe9 65bc 8129 0a3e 20d5 89bd 06ad 74bd
00000150: 87b3 bb3c 7836 ee3c 9197 b73d ee5f 9e3d
00000160: 216e 813d a2c9 633d e89b e23c f0bb 213c
00000170: 0601 863d bca0 073c ae6e 85bd f9ce 0abc
00000180: 3013 c83d 095e 703c d9c1 1f3d 67f1 d3bd
00000190: 6dc2 213c 375e 91bd f5c8 6e3d e34e 7bbd
000001a0: 84d7 bf3d 8f33 b53d 7f7c a5bc 0b5f b63d
000001b0: f125 8e3d b951 af3c 2b6a 5abc 24cf 043e
000001c0: f990 2b3d ac13 a13c 95b0 1d3d a372 3f3d
000001d0: 1a2d e53d bbd3 b83d 5800 4cbd 3ae1 4ebc
000001e0: 8fa9 ed3d 8d10 babd 70ae fd3d 1d39 6f3d
000001f0: 8e00 ff3d 7121 65bc 3e5f 91bd 2ed9 1dbd
00000200: ef97 983d 0416 0c3e 8a42 e2bc 5306 cfbc
00000210: 53ee a63d 2d48 153e a700 383d 7429 e23d
00000220: bdf5 013e 65c4 093e c64a 24bd 0d88 043e
00000230: 88ff ab3c 9575 0f3e 5796 a9bb 3690 ec3d
00000240: 01f7 8e3d 67d2 3dbd 27ce 933d 0d26 8fbd
00000250: 3f7f e83d 89de 3ebd dce6 883d 7b35 d93d
00000260: 91c2 9bbd 3b82 b9bc f4df f0bc 907d 33bd
00000270: 7c11 393d 34da 83bd 9c12 dfbc eb12 903d
00000280: 373c 5a3d 31f6 6cbd 3e9d 293d 8258 d1bc
00000290: 2c3a de3d 2727 bd3d 3a9c b7bc d1e8 54bd
000002a0: 6e39 c7bd d09e bb3b f5a3 f8bc d8ed 70bd
000002b0: ee8b 98bd 9a82 ffbb abee 2e3d ee31 113d
000002c0: 69f1 b73d 5e5f 083c 2b30 d23c ffe3 b6bd
000002d0: ce5d ac3d 8170 0a3e 1558 0d3e 0680 3b3d
000002e0: dc42 9d3d 4625 89bc 5dc1 00bc 0ac0 833c
000002f0: 3fca 9dbc 6a0e 9b3d 7869 36bd dcb7 45bc
00000300: 4423 c7bc ca32 a6bc 6188 08be 0246 2c3d
00000310: 090f 1ebe d927 23be 1bde 9a3d 6025 77bc
00000320: 65ac 7d3d 4c66 da3d 9629 083d 21bb 04bd
00000330: 8fa8 87bd e063 1a3e 94ee a03d 3e2e f7bc
00000340: 8b22 69ba 2f03 123e 6aac 29bd ddfe d73c
00000350: 0ea6 8a3d 6045 a3bd a960 d03d c8a9 7bbd
00000360: 2246 debd ccfc b7bd d795 92bd c624 743d
00000370: 819e c8bd eb21 7f3c 8db8 20be eb28 a3bd
00000380: d641 3cbc 8d65 033e 74db 5e3d a9f0 fcbb
00000390: 56c0 bdbc 7a7a d03c 4824 153e 544e acbc
000003a0: 1c15 a83d f514 dc3d 8316 633d ea61 39bd
000003b0: 1cae 8d3d 0da1 9fbc 5ce7 c4bc 40d5 3ebb
000003c0: 7640 a5bd cde4 733d 0270 f6bd f2e6 2b3c
000003d0: ac4a 753d 1930 d9bd a512 acbd 2d4d 04be
000003e0: ec05 dabd 02bf cdbc f2b8 1c3e 691f 243d
000003f0: f8a8 203e 8988 8b3d 621f 85bc 7d9f 39bc
0.11580888 -0.078316435 0.09849037 -0.049603112 0.059325222 0.075397044 -0.03245587 -0.08471698
-0.08264244 0.021712674 0.027533723 0.035886623 0.039886996 -0.02625594 -0.043695807 -0.07225951
0.0868682 0.09964664 -0.07023795 0.024910377 0.002796954 -0.11611927 -0.106611736 0.067150995
0.0011101447 0.11506792 0.11103094 -0.11479477 -0.09328954 -0.109556094 0.16565222 0.13246863
-0.05198382 0.03292092 -0.1016418 0.14099842 0.14426783 0.098119594 0.04123021 0.027834417
0.0001769453 -0.021553304 -0.013631061 -0.06582546 -0.12594229 -0.14340073 0.030668382 -0.09797178
-0.058581546 -0.02480001 0.024247186 0.13002464 -0.035460077 -0.079091445 0.026884515 0.06531129
0.1384917 0.011182523 0.031232933 -0.10353787 -0.07080439 0.11377436 0.113891706 -0.03359825
0.07619815 -0.11855172 -0.07512622 -0.00012903957 0.053561088 -0.0680943 0.054434173 -0.12703553
-0.03329006 -0.034956142 -0.06443776 0.00808607 -0.06153807 0.0082536 0.03134576 0.025985224
-0.01403284 0.13492395 -0.067301035 -0.05973532 0.022912754 0.029078707 0.08964456 0.07733141
0.063198335 0.055612214 0.027662233 0.009871468 0.06543164 0.008278068 -0.06515251 -0.008472198
0.09769285 0.014670857 0.039003227 -0.10348778 0.009873015 -0.07098048 0.058297116 -0.06135453
0.09367278 0.08847725 -0.020200966 0.08904847 0.069408305 0.021401273 -0.0133309765 0.12969643
0.041886304 0.0196627 0.03849848 0.046740185 0.11190243 0.090247594 -0.049805015 -0.01262694
0.11604606 -0.09085188 0.12386787 0.058404077 0.12451278 -0.013985024 -0.07098244 -0.038537197
0.07450854 0.13680273 -0.027619619 -0.02527157 0.081509255 0.14578314 0.044922497 0.11043063
0.12691398 0.13453825 -0.040110372 0.12942524 0.02099587 0.14009698 -0.0051753926 0.115509436
0.06980706 -0.046343233 0.07217055 -0.069896795 0.11352395 -0.046598945 0.06684658 0.10605904
-0.0760547 -0.022645107 -0.029403664 -0.043820918 0.04518269 -0.06438103 -0.027230553 0.07034858
0.05328008 -0.057851974 0.041409723 -0.0255549 0.10850939 0.09235983 -0.022413362 -0.051979844
-0.09727751 0.005725719 -0.030351618 -0.058820575 -0.074485645 -0.0077975513 0.04270808 0.035448007
0.08981592 0.008323519 0.025657734 -0.089302056 0.08416329 0.1351948 0.13803132 0.04577639
0.07678768 -0.016741406 -0.007858601 0.016082782 -0.019261478 0.07571109 -0.044534177 -0.012067761
-0.024308808 -0.02028789 -0.13333274 0.042058952 -0.15435423 -0.1593317 0.075618945 -0.0150845945
0.061931986 0.10664043 0.033242784 -0.032405023 -0.06623947 0.15077162 0.07858005 -0.030173417
-0.0008893392 0.14259027 -0.041424192 0.026366645 0.06769954 -0.079722166 0.101746865 -0.061441213
-0.108532205 -0.08983764 -0.07157486 0.059605382 -0.09795857 0.0155720515 -0.156954 -0.07966789
-0.011490306 0.12831707 0.054408506 -0.0077191186 -0.023163002 0.025449026 0.14564621 -0.021033444
0.08207151 0.10746185 0.05544139 -0.045259394 0.06917974 -0.019485975 -0.024036102 -0.0029118806
-0.080689356 0.059544373 -0.120330825 0.010492073 0.059885666 -0.10604877 -0.08401994 -0.12920065
-0.10645661 -0.025115494 0.15304926 0.040069018 0.15689456 0.068131514 -0.016250316 -0.011329529

block1.0.bias f4 [16]
00000000: 00a4 50bc f3ce ea3d 3ccc 20b9 6de3 4cbc
00000010: 9d74 d1bd 9e22 2ebb 7a31 09bc 6eae 25bc
00000020: 479d f93d 3038 433c 0a60 ce3d 3442 85bc
00000030: eb6e 873d 56a7 0ebc 9c01 94bc 14dd 37be
-0.012734413 0.11465254 -0.00015334872 -0.012505394 -0.1022732 -0.0026570926 -0.008373613 -0.010112388
0.121882014 0.011915252 0.10076912 -0.01626692 0.06612953 -0.008706888 -0.018067174 -0.17955428

block2.0.weight f4 [32, 16, 5, 5]
00000000: 55b9 1f3e e202 423e b919 933e 1631 583e
00000010: cd40 343e 25e8 b33d 1ce9 a53d e16b ca3d
00000020: 21d2 033e 02cb bebb b005 f33d f52c 1b3e
00000030: 370f 1b3e b392 60bc 2be8 f7bb 7a23 dc3b
00000040: 16dd cebc ba61 2a3d 5d4e 2c3b d9f6 723d
00000050: 33d5 693c 0950 afbc 1443 a2bb bee9 b63d
00000060: 6c7f 6d3d 981c 4d3c a75b 3dbd 4800 51bd
00000070: cdd8 1d3d 31a1 323d ffc4 33bc 23df 3cbd
00000080: 23eb 91bd 32b6 c63c 1cf4 143d 47e4 5ebc
00000090: 656d 15bd 037a 5fbc d157 483d cf9c 36bc
000000a0: bc59 58bc fbc8 a4bc a3de ce3c 7c5e 073d
000000b0: 1379 0f3d eb0b 20bd 8cc1 b8bc 9709 223c
000000c0: 212c 70bd 553f 123d f7a9 663d 27ea 513e
000000d0: 0f71 9c3e 9915 a23e 05fa 1a3e bf9f 5ebd
000000e0: 1f29 2e3d b8d1 9b3d e7b7 2f3e 74bc 993d
000000f0: f8ca 823d b258 b63d 9697 873d bcfa c4bc
00000100: fe16 3c3b 9d27 b03c 0b00 203d 38df 283d
00000110: 22ad 2e3d b4ed 14bd c3d5 4abd cc75 11bc
00000120: 7d85 7b3d 0bcd 423d 864f 9abc 8a6b 213e
00000130: 8b32 743e 4006 943e 878f 893e c8b7 6a3e
00000140: ca78 4cbc 5143 e73d 712b 6b3e cc2a 503e
00000150: a885 1f3e bc52 133d 910b b43c 8c69 ae3c
00000160: e6cc 8e3c 3d27 6e3d babf eabb d3e8 383b
00000170: 3a63 81bc 5006 0f3d 59ad e73c c01e fe3c
00000180: 4e2d 7ebb 65b5 b63c 514f 503d dcd0 223c
00000190: 7044 25bd e0da a03d f95b 5b3e e0ab 423e
000001a0: b185 ea3d 8e13 e2bd 7a01 b2bd 2cdb 8fbd
000001b0: b706 acbb 03e7 37bd 3db2 803c c603 613b
000001c0: e671 5abd dfd0 04bd a2ae 4f3c 6967 1d3d
000001d0: 5018 c1bc 41e9 d93c 6301 09bc 5c8c 3d3d
000001e0: cf81 1cbd 325e bb3c 4b53 c73c 5e6e 0d3d
000001f0: 069e 823d b62d 023e e368 633e 230c 863e
00000200: 0640 8b3e 19f4 953e 7b07 013e bd7f 8c3e
00000210: 19c5 8d3e 5fe9 be3e 11d1 a03e 6310 0cbe
00000220: d8a4 ab3d 0371 363d 338d b13d b959 4b3d
00000230: ec7a 31bd f7e5 ce3d 6aad 27bd 12a8 a63d
00000240: efa7 143d 6264 4bbd 1d19 c73d 159e 97bc
00000250: 6c9c f13d 12fe 943d 71f9 cf3d 0284 9d3e
00000260: eaa3 463e 6fbc 933e 0f19 fd3d 12a2 ae3a
00000270: 4699 953e 6bb2 943e 9587 8f3e f7a4 533e
00000280: 1c8e 48bd 81ed 503d 0b60 afbd a6b4 283d
00000290: d8e7 f13b e14d d7bc 32ae dd3d 1947 04bc
000002a0: be1b 92bc 8666 8fbc a77b 053c 8684 113d
000002b0: 9354 183d b629 893d f79f 103d 47ae 133e
000002c0: 8c22 8c3e ae8d a13e 77c4 893e 85cb 473e
000002d0: 3f3b 1cbd 4432 4f3e a3a7 223e 01a3 873e
000002e0: 94f5 3e3e 51c4 efbc 3efa 84bb 070a ae3b
000002f0: bfa4 b93d 4b77 4a3d f32b 43bc 0db4 5bbb
00000300: 903c ad3a 7d19 973c ba1e 413c 8b3d e23c
00000310: 0d39 f63d ba6e e13d 236e 203d 438e 453d
00000320: f8d4 3e3e 8ad5 3b3e 75e0 3f3e 1382 ac3d
00000330: 3bbb 71bd 075f 383e e511 933e 8071 6e3e
00000340: c7b6 083e e81b 07bd a281 8dbd a58a 84bd
00000350: c66f abbd 9dda 8fbd 880b eabd 2d6d 653c
00000360: b943 10bd 7c51 1dbd 976d 2cbc e66c 4a3c
00000370: 3bf3 14bd 6589 1f3d f059 7bbc 690b 163d
00000380: 6093 4dbd 9ac0 6637 cbd2 153e 1761 0d3e
00000390: b685 0a3e 96be 333d 5808 98bd 054a 3e3d
000003a0: 5427 1b3e 1e1c 013e bc9b e43c 8d56 cebb
000003b0: e63e 4eba 5b60 5e3c 91af da3d 06f0 0d3d
000003c0: dfc1 923b 9d63 b93c 9776 ba3c 7eef 95bc
000003d0: b44e 5e3c 7f7b 2abd e646 edbc b7f5 9f3d
000003e0: e824 bbbc 13ba 87bc 4dbc e03d 946d 0c3e
000003f0: 2b8e 503e c281 433e 49c4 b03d 137f dd3d
0.15598042 0.18946412 0.28730562 0.21112475 0.17602845 0.087845124 0.08101103 0.098838575
0.12873127 -0.0058225403 0.11866319 0.15153868 0.15142523 -0.013706851 -0.0075655184 0.0067180963
-0.025251906 0.041597106 0.0026291825 0.059317444 0.014272022 -0.021400468 -0.004951844 0.089313015
0.057982847 0.012519024 -0.046229985 -0.05102566 0.038536835 0.043610755 -0.0109722605 -0.046111237
-0.07124927 0.0242568 0.036365613 -0.01360423 -0.03648128 -0.01363993 0.048911873 -0.0111457845
-0.013204988 -0.020115366 0.025252646 0.03304909 0.035027575 -0.039073866 -0.022553228 0.009889982
-0.058635835 0.03570493 0.056314435 0.20499478 0.30555007 0.31657103 0.15134437 -0.054351564
0.042519685 0.0760836 0.17159997 0.07506648 0.063863695 0.08903636 0.066207096 -0.02404534
0.0028700228 0.021503264 0.03906254 0.041228503 0.04264558 -0.036359504 -0.049520265 -0.008878183
0.0614066 0.047558825 -0.018836748 0.15763679 0.23847406 0.28911018 0.26867315 0.2292167
-0.01247997 0.112921365 0.2296579 0.20328826 0.1557833 0.035967574 0.021978172 0.021290563
0.017431688 0.05814289 -0.007163969 0.0028214946 -0.015794385 0.03491813 0.0282809 0.031020522
-0.0038784328 0.022303293 0.050856892 0.009937491 -0.04034847 0.07854247 0.21421804 0.19010878
0.11451281 -0.11038886 -0.08691688 -0.070242256 -0.005249824 -0.044898044 0.01570999 0.0034334525
-0.05333128 -0.032425757 0.012675913 0.038428698 -0.023571163 0.026600482 -0.008362147 0.046276435
-0.038209733 0.022872064 0.02433171 0.034529082 0.06377797 0.1271275 0.2220798 0.26181135
0.27197284 0.29287794 0.1260051 0.27441207 0.27689436 0.37287423 0.31409505 -0.13678126
0.08381051 0.04454137 0.0866951 0.049646113 -0.043330118 0.10102456 -0.040936865 0.081375256
0.036292966 -0.04965628 0.09721587 -0.018507997 0.11797413 0.072750226 0.10154999 0.30764776
0.19398466 0.288547 0.12358295 0.0013323447 0.292185 0.29042372 0.28033128 0.20668398
-0.04896365 0.05100775 -0.085632406 0.041187905 0.0073823743 -0.026282253 0.10824241 -0.008073592
-0.017835494 -0.017504942 0.008147157 0.035526775 0.03719003 0.06697409 0.035308804 0.1442195
0.27370107 0.31553406 0.26907703 0.1951123 -0.03814244 0.20234019 0.15884261 0.2649155
0.18648368 -0.029268416 -0.0040581515 0.005311254 0.09064626 0.049430173 -0.011912334 -0.0033524067
0.0013216902 0.018444771 0.011787111 0.027617237 0.120226 0.110074475 0.039167535 0.048231374
0.18635929 0.18343177 0.18737967 0.08423247 -0.059016448 0.18005 0.2872459 0.23285484
0.13350974 -0.032985598 -0.06909491 -0.06471757 -0.083709285 -0.07024119 -0.11427981 0.01400308
-0.035220835 -0.038407788 -0.010524175 0.012355065 -0.036364775 0.03894939 -0.015341267 0.036631975
-0.050189376 1.3753912e-05 0.14631192 0.13806568 0.13527569 0.04388293 -0.074234664 0.04645731
0.15151721 0.12608382 0.027906291 -0.0062969388 -0.0007867649 0.013572778 0.10678018 0.034652732
0.0044786776 0.022630507 0.022761626 -0.018302675 0.013568569 -0.04162168 -0.028964471 0.07810538
-0.022844747 -0.01656822 0.109734155 0.13713676 0.20366733 0.19092467 0.086311884 0.10815253

block2.0.bias f4 [32]
00000000: 3d3c 41bd 8c70 97bc 563f e13c 7018 4c3c
00000010: 4b54 a83d 708d a1bd 3f76 e1bc b9b6 24bd
00000020: 06d6 803d 1dc0 123d 0e67 97bc 1ff4 233d
00000030: 8b44 a6bd 9171 87bd a31d 40bc 42f0 03bd
00000040: 7669 98bd 46bb d2bd eaa0 523c 1922 743d
00000050: 7e0c 37bd eb69 32bc c844 e6bc 3a57 8bbd
00000060: 6a1b b03d 70f9 d7bc 77eb 3ebc 4ddd 893d
00000070: 4e3b 2d3c d83b 2bbd 2660 2ebd 763f e4bc
-0.04717659 -0.018486284 0.027496021 0.012456998 0.082192026 -0.07888305 -0.027522204 -0.04021332
0.06290822 0.035827745 -0.018481757 0.040027734 -0.08118542 -0.06613458 -0.011725816 -0.03221155
-0.0744199 -0.10289626 0.012855748 0.05960283 -0.044689648 -0.010889511 -0.02810897 -0.068037465
0.08598979 -0.026364058 -0.011652819 0.06731663 0.010573221 -0.04180512 -0.042572163 -0.027862292

block3.0.weight f4 [100, 1568]
00000000: c2fb d33b e613 79bc 85d0 ba3c 7050 943c
00000010: 6f05 b23c 7b65 f1bc da5e a9bb 546c 90bc
00000020: 33a4 213c 4ae3 2d3d 79d3 b13c 545e e03b
00000030: 1e10 8cbc 3f59 72bb 4624 e93b 4f17 f93c
00000040: b291 a238 a171 81bb 81f8 fabb dea6 ffbc
00000050: e7d1 fc3b 479f ce3c b02c 1d3d 5bad 943d
00000060: 6d50 98ba 2468 aabb dfbc adbc 5ea3 48bb
00000070: 5069 d13c 5dea 3f3d bc39 493d 69ae 8a3c
00000080: d42a 08bd 66ff 5cbd d884 e2bc 208f 883b
00000090: 9c89 5ebb d7ee 8cbc 9916 a2bc 98ff 7c3c
000000a0: ec4f 05bd fef0 e5bc 577b 0bbd d596 43bd
000000b0: 90f9 0abd ce86 c8bc 54aa 12bc 12e2 42bd
000000c0: 4a9e 10bd dd32 0d3c c283 273c e654 a63c
000000d0: cd77 433b 005c 823c 3047 923c 6a03 983b
000000e0: a78b a63c 31c4 0f3d f2f0 af3b 3c59 6d3b
000000f0: 149b 813b 391d b03c a129 433c 74b6 923c
00000100: 209f 243a 35dc 323d cadf 0c3d 1d50 623c
00000110: 34ed ab3c 559b 9abc de49 123b 14ad 463d
00000120: bc64 a03d 4fdd 1f3d 889e 82bb dfc3 3aba
00000130: ddfe bebc 0ccd cbbb 1dd2 d5ba 8fa2 0b3c
00000140: b627 9dbb 38a0 e5bc 2801 e2bc c98c cfbb
00000150: a520 f73b 43ba 81bc ca8b b1bc c569 1fbd
00000160: cee6 8e3c cb51 26bc afc0 80bb 33f2 17bc
00000170: eb56 02bb 4f31 abbc 2258 82bc 557f 963a
00000180: ebdc 223c e8ab cd3b 52ea f93c 86f9 793c
00000190: d9db 543d 14b3 f13c add5 8d39 2831 6639
000001a0: 854f 48bc a466 bc3a 3f76 bb3c 0e16 a4ba
000001b0: af9e 223d 2024 a73b f2a7 003d 0d0d 9a3b
000001c0: d8b6 7a3c 1804 7f3d 6da6 9e3d 4f54 8e3c
000001d0: a2b0 c33b d812 c1bb 34b5 d539 d182 193d
000001e0: 3f08 5d3d fd0e 813d 1aef 373d 04db e639
000001f0: 1e70 75bc 882c dfbb 622c 34bc ca5e 383a
00000200: d860 7bbc 352d 393a 9d80 e03c 1f1e 7abc
00000210: c274 82bc 6e2f c6bc 5fbc 433c 3bb3 c0bc
00000220: 718a b5bb b57c bbbb 9443 e53a 6138 9a3c
00000230: ee96 333c 3d55 733c 00a5 44bc 2409 aa3c
00000240: 7a26 b6bb 8c84 f63c 7732 c13c ae74 553c
00000250: 0be1 a03b 8287 3c3d 3971 323b 862a 24bc
00000260: ef92 04bc 19ab 8c3c 6491 d13c 4b1d 563c
00000270: 214d ba3c abbf 08bc 9260 203b 1482 a0bc
00000280: 2fcc 443b a5b6 b13c b8fa b83d b1c1 8d3d
00000290: 4227 a6bc e68b 233c d88e eebb 796b c53a
000002a0: 9ef4 2d3d aad2 393d 0322 6b3d 6ad8 2abc
000002b0: ecf9 4f3c b9c4 26bd fa74 9fbc e58f bdba
000002c0: 0510 93bc be9f 053c e150 3b3c 354c 91bc
000002d0: c3ef ddbc d0ee eabc 90f4 0abd 551b 0abd
000002e0: 979f 52bc 3662 0fbc ed7d a33b ffe5 59bb
000002f0: 5e62 b7bc d594 5139 e855 38bb df04 9ebc
00000300: 56b6 283c b5e6 583b e038 8c3c 6ed4 9c3c
00000310: b55a 703c 74a9 11ba 29df 3c3d c977 2d3d
00000320: 0050 f43c f3a8 ef3c 5e17 90bc f209 ecbb
00000330: ffb7 cf3b 3bae 59bc 0974 99bb 530e 3d3c
00000340: 08b6 02bd 94eb ec3c 2344 273b 08e9 8b3c
00000350: 3cfe a43c 7ff6 c23c f103 17bc b71a b33c
00000360: 0ad8 043b a9c0 6cbc 775c 973b 8fb2 863c
00000370: 53b2 193c 113b e03c 0987 1cbb 1b79 2abd
00000380: b7b7 2bbd 72ac 23bd b7cc 77bb 3746 773c
00000390: 9bcd 103d 8b82 0e3d 8ed0 c5bb 7617 913c
000003a0: 7f9f 12bc cb5f a43a 183c c13c 2a30 cd3c
000003b0: 28af 7ebc a24a d53c f197 1e3d 7ed7 973c
000003c0: e93a ff3b fcc7 0e3d 87e6 dabb 55ff 2d3c
000003d0: 1e08 103d 7c80 d4bc 668a 11bb afa7 3e3c
000003e0: 1dce 373d d875 093c a5b5 573c ba33 5ebc
000003f0: 62ba 29bc 2bfd f9bb a77d 583c e599 2abc
0.006469221 -0.015202498 0.022804508 0.018104762 0.021731107 -0.029467335 -0.005168778 -0.01762978
0.009865808 0.042453088 0.021707283 0.0068471823 -0.017097529 -0.0036979464 0.00711492 0.030406622
7.7519e-05 -0.003950313 -0.0076590185 -0.031207498 0.007715452 0.025222434 0.038372695 0.072596274
-0.0011620648 -0.005200403 -0.021208225 -0.0030614953 0.025562912 0.046854366 0.049127325 0.016928868
-0.03324397 -0.053954504 -0.027651235 0.0041674525 -0.0033956533 -0.017203731 -0.019786166 0.015441798
-0.032546923 -0.028069016 -0.034053173 -0.047751267 -0.033929408 -0.024478342 -0.008951742 -0.04757888
-0.035307206 0.008618084 0.010224285 0.020304155 0.0029826046 0.01591301 0.01785621 0.004639079
0.020330263 0.035099212 0.005369299 0.0036216518 0.0039552543 0.02149831 0.011911781 0.017909266
0.0006279815 0.043667037 0.03439311 0.013813046 0.02098713 -0.018872896 0.002232186 0.048504904
0.078317136 0.039029416 -0.0039861836 -0.0007124524 -0.023314888 -0.006219512 -0.0016313229 0.008522644
-0.0047959937 -0.0280305 -0.027588442 -0.0063339216 0.0075417333 -0.015835887 -0.021673102 -0.03891923
0.01744404 -0.010151337 -0.0039292197 -0.009274053 -0.0019888233 -0.020897536 -0.015911166 0.001148204
0.009940366 0.0062765963 0.03050724 0.015257245 0.051967476 0.029504336 0.00027052817 0.00021952821
-0.01222599 0.0014373851 0.022883533 -0.001251878 0.039702114 0.005100742 0.031410165 0.004701263
0.015302382 0.062259763 0.07746587 0.017374186 0.005971984 -0.005892139 0.00040761533 0.037478272
0.053962942 0.06301687 0.04490576 0.00044032198 -0.014980344 -0.0068107285 -0.01099691 0.00070331676
-0.015342914 0.00070639263 0.027405078 -0.0152659705 -0.015924815 -0.024192538 0.011946767 -0.023522964
-0.005540185 -0.0057216533 0.0017491453 0.018825712 0.010961277 0.014851865 -0.01200223 0.020756312
-0.005558786 0.0300925 0.023583634 0.013028307 0.0049096397 0.046027668 0.002722813 -0.010019904
-0.008091672 0.01717143 0.025582023 0.013068507 0.022741856 -0.008346478 0.0024471623 -0.019593276
0.003002893 0.021693537 0.09032196 0.06921709 -0.020282391 0.009982085 -0.007280212 0.0015061937
0.042469613 0.04536692 0.057405483 -0.010427574 0.012693863 -0.040714953 -0.019464958 -0.001446244
-0.017951975 0.008155761 0.011432857 -0.017736534 -0.027091866 -0.028678328 -0.03392464 -0.033717472
-0.012855432 -0.008751443 0.0049893768 -0.003324866 -0.022385772 0.00019987237 -0.0028127376 -0.019289432
0.0102973785 0.0033096496 0.017116964 0.019144263 0.014670064 -0.00055565615 0.04611126 0.042350564
0.029823303 0.029255366 -0.017589267 -0.007203334 0.0063390727 -0.013286169 -0.004683022 0.01153906
-0.03191188 0.028920926 0.002552279 0.017078891 0.02014076 0.02379918 -0.009217248 0.021863325
0.002027037 -0.014450231 0.004619177 0.016442565 0.009380895 0.027371915 -0.0023884198 -0.0416194
-0.04192325 -0.03995938 -0.0037811229 0.015092424 0.03535233 0.034792464 -0.0060368245 0.017711382
-0.00894916 0.0012540756 0.023588225 0.02504738 -0.01554469 0.026036564 0.03871912 0.018535372
0.007789005 0.03485869 -0.006680313 0.010619958 0.03516399 -0.025940172 -0.0022207736 0.011636659
0.0448743 0.008389913 0.013165866 -0.013562137 -0.0103593785 -0.007629057 0.013213552 -0.010412668

block3.0.bias f4 [100]
00000000: b23c fd3c 700b f73c e221 0e3c c02a 9cbc
00000010: 9767 ea3c 5cc3 913c d600 2e3b 59fc d23c
00000020: c775 adbc 1820 c0bb 17ba 27bc 7c01 bebc
00000030: 4afa 25bb c527 86bc 2f05 c2bc 963b d33c
00000040: 0c85 b93b bb6e cb3b e4ba b23c 22e2 4bbc
00000050: 1f7a de3c 68e7 6a3b a9d2 8d3c a3af 98bc
00000060: f8a2 dbbb aac1 673b 8a36 0e3d 4d19 ee3b
00000070: f9c2 9a3c e028 b3bc 1897 c6bc 1c4e 173d
00000080: 3b25 ccbc 590b 49bc 4597 193c 3bb9 0dbb
00000090: 6990 1cbd bb36 063c 0601 e63b b7c9 88bc
000000a0: de03 5abc 3b32 703c 97af a33b fd9e ff3b
000000b0: dc5d e33c 15a7 413c d723 fabc dd56 8dbc
000000c0: 6e75 7dbc c6b5 44bc ee6a 68bc f4a0 d4bb
000000d0: e53d bf3b f4f0 b33c a21c 93bc 5fd6 ea3c
000000e0: 6ffc a0bc d086 213d b2bc 003b 81b9 06bc
000000f0: 1325 03bd 92fc 54bc 57ed 613c 79d8 56bb
00000100: ee00 423c 232f 1b3d f33d f7ba 8388 d33c
00000110: 6654 f0bb 39d5 8fbc aa0a 8fba 288d 983b
00000120: 81f8 233d 65b1 79bc e564 8c3c 2d30 abbb
00000130: db3b d1bc b205 2cbc e316 c53c f806 293d
00000140: 4a42 1ebc b389 db3c f8c1 453d 3cd5 5a3c
00000150: 30a3 933b e3c9 033d 34ec 823b 0a5b 963b
00000160: 67c0 8dbb 9531 a0bc c195 553c d0e8 1b3d
00000170: b8fe f8bb 7932 6b3c 0986 2fbc 2138 28bb
00000180: 377b ea3c 914e 193c f8b8 573c f8f7 c2bb
0.03091273 0.030156821 0.0086750705 -0.019063354 0.028613849 0.01779335 0.0026550791 0.025755094
-0.021174325 -0.005863201 -0.010237238 -0.023194067 -0.0025326186 -0.016376385 -0.023684112 0.025785249
0.0056616124 0.0062082685 0.021817632 -0.012444051 0.027157841 0.0035843495 0.017312365 -0.018638438
-0.006702777 0.0035363236 0.03471998 0.0072661997 0.018891798 -0.021870077 -0.024241969 0.036939725
-0.024920097 -0.012270772 0.009374444 -0.0021625299 -0.038223658 0.00819176 0.007019165 -0.016697748
-0.013306586 0.014660413 0.004995297 0.0078009353 0.027754717 0.011819621 -0.030534668 -0.017253334
-0.015469892 -0.012006229 -0.01418565 -0.0064889137 0.005836236 0.021965481 -0.01795799 0.028666673
-0.01965162 0.039435208 0.0019643721 -0.0082229385 -0.03201778 -0.012999671 0.013789496 -0.0032782836
0.011841042 0.03788675 -0.0018863067 0.02582193 -0.00733428 -0.017557727 -0.0010913212 0.004655499
0.040031914 -0.015240048 0.017137954 -0.005224249 -0.025541237 -0.010499405 0.024058765 0.04126641
-0.009659359 0.026799059 0.048280686 0.013356503 0.0045055375 0.032174956 0.0039954428 0.0045884894
-0.0043259147 -0.019554893 0.013036192 0.038063824 -0.007598724 0.014355295 -0.010713109 -0.002566822
0.028623207 0.009357111 0.013166659 -0.0059499703

block3.2.weight f4 [37, 100]
00000000: e5c7 ad3d 66b2 66bc 1321 9ebd 8cb2 00bc
00000010: a08f 21bd 71af 863d c113 cdbd bbc6 b6bd
00000020: 323c cf3d ccca 7dbc 6c1a 353d 7917 69bd
00000030: d167 203c 48b5 0b3d ec8c 033e dee5 4fbd
00000040: ff1c 01be 252c a03d f044 b13d 16f5 e93d
00000050: b674 dbbc 7bac 7c3d ab1b 1cbd d1a6 9bbc
00000060: 18ff c1bc fc48 a33d 7e0f acbd 67ca 8abd
00000070: 3ec2 843d 189b aa3d 86f8 ffba 3ef9 b4bd
00000080: 0fc0 823d 34ee dc3d 9fc7 f9bd d599 e0bd
00000090: 5068 1bbe 98de 40bd 8735 63bd 83dd e8bd
000000a0: 9d58 bdbb 305f 943d 18d8 46bb bc9d 113d
000000b0: 9870 2abd e5db 0f3d 25cd 12be 776b 74bd
000000c0: 17f2 093e c297 803d 9a5e f4bd 0634 6b3d
000000d0: f352 fdbc 901f a73d 6b6c cbbc 52c6 02be
000000e0: d15e 09be 1c8e e4bc 8c0a babd 2a2e febb
000000f0: fbbc 07be c2a9 7ebc 9b53 25bd e635 cbbd
00000100: f830 1b3d 1ee8 3bbd 429a 48bd f276 48bd
00000110: 510e 8f3d 690e 09bd 123f a8bd aec6 79bd
00000120: 0498 9b3c bc23 143c a57c dabc ffc5 d6bd
00000130: bb3c c33d bde7 2ebd 14bf 993d d7a5 a43d
00000140: f954 a1bc c6eb c8bd 5c2b a63c 8273 533d
00000150: b85e d03d f330 053e e1dd db3d 9e80 ba3d
00000160: 44f5 933d d526 a5bc 4f4c bfbb 944a e1bd
00000170: 2f63 9ebd f1a7 fabd 9b87 143c f0de ed3c
00000180: 298a b0bc 5a7e ba39 2283 ecbc 1106 043e
00000190: 06f1 ab3d d837 483d 3795 f2bd d4ee 98bc
000001a0: 5195 3fbd 44d4 cdbd b071 82bd 5c57 2abd
000001b0: 998c ff3d af75 2a3d 46b6 febd 17cb 35be
000001c0: b9d3 b03d 31f9 06be a5e3 df3d d0df 253d
000001d0: fec0 b9bd c877 b3bd ccf7 423d ac45 923d
000001e0: d76c 46bd 97a2 c33d 70fb 9ebd 0676 f9bd
000001f0: b54a ba3d 8930 b0bd 16d9 9cbd 962d 9abd
00000200: d14a 39bd 7574 883d 63c9 90bd 74c6 db3b
00000210: e006 263d 3a9b c73c a9c2 87bd 546b bf3c
00000220: 08d8 63bd 897d 3abd 02fe c5bb c8d1 93ba
00000230: 2c4f bcbd 99a8 9d3c 528b f53d 920f 273c
00000240: f31d 8fbd 5b3f c0bd 9714 1ebe e99a 853d
00000250: 6841 df3d abaf 8f3d 2bc5 183d 48ea 503d
00000260: 4eb1 053e 09f1 3d3c 310c 66bd 2c74 15bd
00000270: b280 fabd f2bc be3c 3c20 423a ca5c bfbc
00000280: 0b03 38bd 08f5 803d 2808 773d b7ac 31be
00000290: c4e6 393d bc64 b9bc 9d1e d13c 9d12 01be
000002a0: d5a0 cc3c 896a 7fbc 212d df3c 8bc7 d43d
000002b0: 204c b13d e692 4bbb 22e2 07bd f67b 9d3c
000002c0: a72c a13c 49d9 09be 2822 62bd f31e 0abc
000002d0: fe3e c1bd 7132 15be b2f5 99bd fba8 0dbe
000002e0: d0d0 2b3d ab4e d73d 4bfa adbd 3e5b 97bd
000002f0: 8cdb 3e3d a952 c3bd 5703 ad3d 1f37 1abe
00000300: d76c 883d ea90 f1bc f103 08be 33a3 80bd
00000310: 47cf d83d 8633 e73d b769 abbd 100c ac3d
00000320: caad 37bc 96dd 6c3d 5a82 a63d 727a 503d
00000330: f077 a1bd 5e23 e9bc c08d e2bd 458c d9bd
00000340: 545d 0abd 187e 40bc 732a ea3d 5d04 87bd
00000350: 0513 71bd 220f a33d 390a c03d 5bf6 033d
00000360: ee68 bc3d b37b 3d3c 4a30 283d a50e fd3d
00000370: 7b2a d8bc 31db 053e 614d 80bc 7747 23bd
00000380: 3a8a dd3d 8078 9b3d ef4b 2c3b d655 c3bd
00000390: c4c4 f3bd 8b42 1abd 9f12 07be 9bdc d5bd
000003a0: 7d00 fdba 27aa 0c3d 8887 b6bc 4f77 93bd
000003b0: 762c 02be be9b 5ebd f646 f73c c0e2 22bc
000003c0: f12a a2bc dd87 afbd 361b c43b f01d c63d
000003d0: f4ac 14be be7b a73d ed83 553d e9e5 9dbd
000003e0: c20c 0a3d d975 95bd 6b4a 473d e876 cd3c
000003f0: add7 a93d 4551 d5bd ef21 163b 3383 f5bd
0.084853925 -0.014080619 -0.07721152 -0.007855069 -0.039443612 0.065764315 -0.100135334 -0.089246236
0.10118903 -0.015490245 0.04421465 -0.05690715 0.009790377 0.03410843 0.12846726 -0.050756328
-0.12608717 0.0782092 0.08655727 0.114236996 -0.02678905 0.061687928 -0.038112324 -0.019000443
-0.023681208 0.07972905 -0.084013924 -0.067768864 0.06482361 0.08330363 -0.0019529022 -0.08836602
0.063842885 0.10787621 -0.12196278 -0.10966841 -0.15176511 -0.047087282 -0.05547097 -0.11370375
-0.005778386 0.07244718 -0.0030341204 0.035550818 -0.041611284 0.035121817 -0.14336069 -0.0596728
0.13471256 0.062789455 -0.11932106 0.05742266 -0.030923342 0.08160317 -0.024831971 -0.12770966
-0.13415076 -0.027899794 -0.09084043 -0.007756968 -0.13255684 -0.015543403 -0.040362936 -0.0992239
0.037888497 -0.04587566 -0.048975237 -0.04894156 0.069851525 -0.03346101 -0.08215155 -0.06098049
0.018993385 0.009041723 -0.026670763 -0.104869835 0.09533068 -0.04270147 0.075071484 0.08039444
-0.019693838 -0.09810595 0.020284347 0.05162383 0.10174316 0.13006954 0.107356794 0.09106563
0.07224515 -0.020160118 -0.005837954 -0.11000553 -0.077337615 -0.122390635 0.009065534 0.029036969
-0.021550255 0.00035570824 -0.028871123 0.12892939 0.08395581 0.04888138 -0.11844867 -0.01866857
-0.04677326 -0.10050252 -0.063693404 -0.04158722 0.12477989 0.041616138 -0.1243711 -0.17753254
0.08634133 -0.13180996 0.109320916 0.040496647 -0.090700135 -0.08763081 0.0475996 0.07142195
-0.04844364 0.09552496 -0.07762802 -0.12180714 0.090962805 -0.08603007 -0.07658593 -0.07528226
-0.045237366 0.066628374 -0.070696615 0.006707007 0.0405339 0.02436601 -0.06628925 0.023366608
-0.055625945 -0.045529876 -0.006042243 -0.001127773 -0.09194788 0.019245433 0.11989464 0.010196583
-0.06988134 -0.09387084 -0.15437542 0.065236874 0.10901147 0.07015928 0.03729741 0.051004678
0.13055918 0.011593112 -0.05616397 -0.036487743 -0.12231578 0.023283456 0.0007405316 -0.023359675
-0.044924777 0.06296736 0.060310513 -0.17351042 0.04538609 -0.022631042 0.025527293 -0.12604757
0.024979034 -0.015589365 0.027243199 0.10389622 0.08657098 -0.00310629 -0.03317464 0.019224148
0.019674612 -0.13461794 -0.055208355 -0.00843023 -0.09435843 -0.14570023 -0.07517566 -0.13833992
0.041947186 0.105130516 -0.08495005 -0.0739045 0.046596095 -0.095372505 0.08447903 -0.1506009
0.066613846 -0.029488046 -0.13282754 -0.06281128 0.1058641 0.11289124 -0.08369773 0.08400738
-0.011210868 0.05782851 0.08130331 0.050898023 -0.078842044 -0.028459247 -0.11062193 -0.106224574
-0.03378041 -0.011748813 0.11433878 -0.06592629 -0.05885603 0.07961871 0.0937695 0.032217365
0.09199701 0.011565137 0.041061677 0.12356309 -0.026387444 0.13071896 -0.015661897 -0.039863076
0.1081738 0.07591343 0.0026290377 -0.09537856 -0.119027644 -0.037661117 -0.13190697 -0.10442468
-0.0019302514 0.034341957 -0.022281423 -0.07200491 -0.12712273 -0.054347746 0.030185204 -0.009941757
-0.019795867 -0.08570836 0.005984689 0.09673679 -0.14519101 0.08177899 0.052127767 -0.077098675
0.033703573 -0.07297868 0.048654955 0.025081113 0.0829309 -0.104158916 0.002290841 -0.11987915

block3.2.bias f4 [37]
00000000: 0673 b53d f1f8 af3d 011f 3cbd 6a15 3fbd
00000010: 16d5 9ebc 3bd1 c2bd bfde 423d d301 723c
00000020: 2305 88bd d09a 723c 49c9 933d 30da ae3d
00000030: b8c6 f8bb b592 82bd 034e b0bd c56d cbbd
00000040: ec26 92bc 5d18 67bd 5134 f83c 825d 283c
00000050: 5a94 883d e04c d43d 2fd9 86bd 82ce 87bd
00000060: e203 733d 2bde febd 8e64 80bd 1e13 b5bd
00000070: 5e12 c43c 3775 a0bd 75b4 ee3c 8ebd b43d
00000080: c5e4 ec3a 9309 c0bd ac4e 3bbb ec47 8b3d
00000090: 8758 a2bd
0.088598296 0.08592404 -0.045928005 -0.04665128 -0.019388717 -0.09512564 0.04757571 0.014770943
-0.06641605 0.014807418 0.072161265 0.0853771 -0.0075920485 -0.063756384 -0.086086296 -0.09933046
-0.017840825 -0.05641972 0.030298384 0.0102762 0.06668921 0.10366225 -0.06584393 -0.06631185
0.059329875 -0.12444719 -0.06269179 -0.08841537 0.02393454 -0.07834857 0.029138783 0.08825217
0.001807355 -0.09376826 -0.0028580828 0.068008274 -0.079270415
