model_save_load/model.onnx (onnx, 713402 bytes, 8 tensors)

1 f4 [16, 3, 5, 5]
000000 12 9e 08 3d 0b 01 82 bd bd 96 92 3d ae 76 08 3e
       0.033353873 -0.06347855 0.07157657 0.13326523
000010 20 30 29 3e f5 b5 b8 3d 61 30 56 3d fe de 98 3c
       0.16522264 0.090190805 0.05229223 0.018661018
000020 9b 36 37 3e 73 49 16 3d 36 88 f8 bd ca 15 93 3d
       0.17891924 0.03669114 -0.12135355 0.0718189
000030 fc 71 b3 bb 97 43 03 3d f9 f9 65 bc 83 6f b5 bd
       -0.0054762345 0.03204688 -0.014036649 -0.0885916
000040 58 93 24 be e7 1a 56 bd 62 19 ea bd fd bf e5 bd
       -0.16071832 -0.05227175 -0.11430623 -0.112182595
000050 24 7f 40 bd b2 8c 77 3d c0 b7 34 bd 6f cc 32 bd
       -0.04699625 0.060436912 -0.04412055 -0.043651994
000060 b3 ef bd bd 4c 6a 20 3c e9 ed 9c bb 13 ae b2 bc
       -0.092742346 0.009790968 -0.0047891033 -0.02181152
000070 86 5d 16 3e c8 ca bc 3d f6 36 de bd 4b fa 20 bd
       0.14684114 0.09218365 -0.10850327 -0.039301198
000080 2a ba dd 3c b5 ba 52 bd ab fa 2b 3d 15 e3 eb bd
       0.027066309 -0.05144759 0.041987102 -0.11517922
000090 90 bb 23 bc 57 ea c8 3c df 4a a5 3d 77 66 71 bd
       -0.009993449 0.024525804 0.08070921 -0.05893561
0000a0 09 f0 d5 bc b9 fe 1b bd ce f2 e7 bd 67 e4 fd bd
       -0.026115434 -0.03808472 -0.11325608 -0.1239708
0000b0 b9 a5 0e 3c c8 04 8a 3b 71 0c 28 3c 46 52 11 3d
       0.008706504 0.0042119958 0.0102568725 0.035478853
0000c0 e1 2f 1f 3d 03 f7 5e bd 39 75 b5 bd 6b 65 e2 bd
       0.03886402 -0.054434787 -0.08860249 -0.110545
0000d0 75 d1 ab bd 39 44 20 3d 97 de 19 3e fb ed b8 bd
       -0.0838956 0.039127562 0.15026318 -0.09029766
0000e0 24 8a 29 bd 3f f6 e5 3d f4 e0 dd 3d 22 98 0e 3e
       -0.041391507 0.11228608 0.10833922 0.13925222
0000f0 90 c5 2e 3d 3f bb 21 bd 64 7b 1d 3d f1 aa ed 3c
       0.04266888 -0.039485212 0.038447753 0.029012175
000100 53 2b ec 3d f6 f6 96 bc 52 11 93 3d a4 66 2a bd
       0.11531701 -0.018428307 0.07181038 -0.041601792
000110 5e ac 0d be cc f4 df bd 54 fe e3 3d 6b a1 43 bb
       -0.13835284 -0.10935363 0.111324936 -0.0029850851
000120 73 20 62 bd 15 99 65 3c e4 ad 04 3d f1 cb 93 bb
       -0.055206727 0.014013548 0.032392398 -0.0045103957
000130 5e c8 ac 3d 86 f5 74 3d e5 d8 ae 3b 53 21 c9 bd
       0.084366545 0.059804462 0.0053359144 -0.09820809
000140 bb 6a e3 3d 0a 1b 04 3a cc e3 82 bd ef 49 ed bc
       0.111043416 0.00050394295 -0.06391105 -0.028965918
000150 42 ea bf 3d 95 02 01 bc d8 7a e0 3d a0 9a dd bd
       0.09370853 -0.007874151 0.109609306 -0.10820508
000160 1e 14 2f bd 20 bc db bd 49 ad 09 3d a3 49 bd bc
       -0.042743795 -0.10729241 0.033612523 -0.023106402
000170 cf 57 b4 3c a8 69 41 bc c9 fd 29 3d 1f ab f1 3c
       0.022014527 -0.011804976 0.041501794 0.029500542
000180 f5 fb 47 ba 21 ce 8e bd c8 bb 2e 3d de 3e 82 bd
       -0.0007628792 -0.0697291 0.04265955 -0.06359647
000190 0a 24 53 3b f2 75 88 3c ca ca 00 bd 33 3f 38 bd
       0.0032217526 0.016657803 -0.031443395 -0.044982146
0001a0 4e f3 a4 3c 73 58 5a bd 81 c5 cf bd 07 df 30 3d
       0.020135548 -0.053307008 -0.10145093 0.043181445
0001b0 b3 c5 37 3d 0b 7f 3f 3c 62 42 6c 3d f9 e1 b1 3d
       0.044866275 0.011688004 0.057680495 0.08685679
0001c0 c0 67 39 bd de 54 04 bb 3d 94 92 bd ff 72 29 bd
       -0.04526496 -0.0020192186 -0.071571805 -0.041369434
0001d0 9d 9c 8e 3d 6d 9d e5 3d 9c 1a 94 bd f1 4a d4 3c
       0.06963465 0.11211667 -0.07231638 0.025914641
0001e0 c3 5b c6 bd 9b f1 a1 bc f9 fc 87 bd aa 6f b8 bb
       -0.09685471 -0.019768527 -0.066400476 -0.005628546
0001f0 33 1f 90 3d b7 97 3b 3d 26 27 a7 bd 18 a8 d9 3d
       0.07037201 0.045798983 -0.08161764 0.106277645
000200 de 89 84 3d 00 47 df 3d 1d 99 d5 3d 97 57 7c 3d
       0.064716086 0.10902214 0.10429595 0.06160697
000210 b1 13 e8 3d 2f c7 24 bc eb f3 84 3c 7e 43 b3 bd
       0.11331881 -0.010057255 0.01622959 -0.087531075
000220 e0 53 95 bd 07 43 b7 bd ed 58 e0 3d 95 0e 88 bd
       -0.072913885 -0.08948331 0.10954461 -0.06643406
000230 36 bd 4b 3c 09 7a b6 3d c4 27 e1 bd 11 32 a6 3d
       0.012435248 0.08909995 -0.10993913 0.08115018
000240 5a 12 8a 3d fc f2 e6 3c 32 1f d6 bb 6c 90 96 3d
       0.067417815 0.028192036 -0.0065344805 0.07351765
000250 f1 0e e2 3c c5 8c 42 3d 1a ad 3b be 3d bc 5c be
       0.027595015 0.04749753 -0.18327752 -0.21556182
000260 62 13 04 be 55 3c 8e 3c 61 f0 e1 bd 2b 1f ff 3c
       -0.12898019 0.017362753 -0.11032177 0.031142792
000270 33 24 6e 3d 49 eb 4b bc c3 68 0b be 18 8c 6a bd
       0.05813999 -0.012446233 -0.13614182 -0.05726251
000280 b6 a6 4e bd 39 0e 57 3d d8 03 c1 3d 6a d7 92 3d
       -0.050451957 0.0525038 0.09424561 0.07169993
000290 65 04 17 3d f6 5b 93 3d 97 70 3d 3d ec 63 a1 3d
       0.036869425 0.071952745 0.046249952 0.07880387
0002a0 a1 3e 1a 3e f2 3a 3b bc a6 8f 05 3e 15 32 31 bd
       0.15062954 -0.011427628 0.13043079 -0.043260653
0002b0 f5 7f 27 3c 8a 4e af 3d ba 5c 40 3d 66 7f 1b be
       0.010223378 0.08559902 0.04696343 -0.15185317
0002c0 9a 23 24 be c0 44 3e be 8c 77 11 be 21 e0 d3 3c
       -0.16029206 -0.18580914 -0.1420576 0.025863709
0002d0 85 5d dc bd d9 a9 4d bd 75 17 2c 3d 72 71 11 be
       -0.10760025 -0.050210807 0.042014558 -0.14203432
0002e0 50 8f 63 bd ba 53 f0 3d 12 c5 fa 3d c5 a6 6d bd
       -0.055556595 0.117347196 0.122446194 -0.058020372
0002f0 47 18 bb 3d 4f 39 b7 3d 7a 64 bc 3b 3f f9 d8 bc
       0.0913549 0.089464776 0.0057492824 -0.026486037
000300 51 99 bc 3d da 9b e1 3d ba 23 e1 3d 51 63 7f 3d
       0.0920893 0.110160545 0.109931424 0.062350575
000310 3a 5c d6 bc f0 a4 0c 3e 02 0d d7 3d 6d ab 11 bd
       -0.026167024 0.13734794 0.10500528 -0.035563875
000320 56 35 65 bc 43 c3 91 3c c6 bf 05 be c9 76 b3 bd
       -0.013989767 0.017793303 -0.13061437 -0.08762891
000330 e3 7d e9 bd ad 10 c6 3d eb c8 c3 3c e1 1f ad bc
       -0.11400964 0.096711494 0.023899516 -0.021133365
000340 5f 31 08 be e5 e8 89 3d f4 54 68 bd fd 12 00 3e
       -0.13300084 0.06733874 -0.056721643 0.12507243
000350 b6 86 f7 3d 2c 9e a8 bd f6 b9 8b bd ee 2a ab bd
       0.12086241 -0.08233294 -0.068225786 -0.083577976
000360 8b ad 29 bd 93 28 56 bd 76 f2 99 bd a7 06 21 3d
       -0.04142527 -0.05228479 -0.07516949 0.039312985
000370 0c 97 e8 3d 6c 0f 0b 3d be 9d dd 3d d3 5b d9 3d
       0.11356935 0.033950254 0.108211026 0.10613217
000380 83 0e 13 3e 77 0d 63 3c 72 92 bb 3d 3c fc 7d 3d
       0.14361005 0.013858191 0.091587916 0.062008128
000390 10 b3 ac 3d e9 19 f8 3c d7 a7 33 3d 14 fd cf 3d
       0.08432591 0.030285792 0.043861236 0.10155693
0003a0 70 cb 89 bd ec 06 b1 bd f3 47 99 bc ef 80 b5 3c
       -0.06728256 -0.08643898 -0.018711066 0.022156207
0003b0 5d 10 3a bd 9c b5 a5 bb c8 4f c1 bd a5 ec 9e bd
       -0.04542576 -0.00505705 -0.09439045 -0.0775998
0003c0 b5 e8 2b 3d eb 41 c6 3c 27 d3 96 bd 36 1c 15 be
       0.041969974 0.024201354 -0.07364493 -0.14561543
0003d0 9e 33 f7 bd e0 d3 29 3e d4 07 d0 3d ea c2 59 3d
       -0.12070392 0.1658473 0.10157743 0.0531644
0003e0 81 e6 67 bd 66 a7 b1 3c 0f 8d ea 3d b6 74 26 3c
       -0.05661631 0.021686267 0.11452686 0.010159662
0003f0 2e 4e 9a 3d a8 01 e8 3d 46 6f 79 bd 23 92 06 3d
       0.07534443 0.11328441 -0.060897134 0.03285421

2 f4 [16]
000000 98 ab b3 3d 2f fc 23 3e 83 0d 2e bc 8f f5 7c bc
       0.08772963 0.16014169 -0.010623339 -0.015439405
000010 20 b7 f7 bd 46 05 1e 3e 52 87 93 bd 96 a4 02 be
       -0.12095475 0.15431699 -0.07203545 -0.12758097
000020 9a bb 85 3d b6 27 08 3c 76 5c 3e bd 3b fe 02 be
       0.06529923 0.008310249 -0.046474896 -0.12792294
000030 c3 1c 0d be fe d3 21 3e 3e f5 88 bd 46 6e 81 3d
       -0.13780503 0.15803525 -0.06687401 0.06319861

3 f4 [32, 16, 5, 5]
000000 99 62 3b 3e e4 bf 31 3e b8 dc 01 3e e4 09 32 3d
       0.18299331 0.17358357 0.12681854 0.043466464
000010 46 87 dc bc e9 e7 8d 3e c2 31 7a 3e c3 5f 5f 3e
       -0.026919972 0.27715996 0.24433044 0.21813874
000020 56 5f a2 3d d0 c4 79 bd 6a b2 f9 3c 62 7c 0c 3d
       0.0792834 -0.06097871 0.030480582 0.03429831
000030 8d 41 0e 3c ad 31 84 3d d9 5b 44 bd 57 c2 31 bb
       0.008682621 0.064547874 -0.047939155 -0.0027123892
000040 d3 60 d6 3c 5e 05 c1 3b 45 9f 35 bc ec 0e 35 3c
       0.026169216 0.0058905324 -0.011085336 0.011050921
000050 56 cf 8c bb a9 19 65 3c 04 a0 5e 3d 1c 81 62 bb
       -0.0042971773 0.013983169 0.05435182 -0.0034561818
000060 27 78 c9 3c 69 58 07 bd 7a ef a4 bb 2f 40 b6 bc
       0.024593426 -0.0330433 -0.0050334306 -0.022247402
000070 77 52 46 bd a7 f7 08 3d 09 fa 2a 3d a8 29 23 bd
       -0.04841849 0.033439305 0.04174236 -0.03983465
000080 71 7f 5a bd 66 f1 1a bd b9 2d 9f 3c 7c 77 b8 bc
       -0.053344194 -0.03782787 0.019430982 -0.022517912
000090 1c e8 04 bd 08 19 34 bc f9 d5 2c bd 76 11 99 3c
       -0.03244792 -0.010992296 -0.042196248 0.018685084
0000a0 2f 68 4f bd a0 88 0e bd 0c e2 47 bb 21 e7 51 bd
       -0.050636467 -0.034798265 -0.0030499725 -0.051245812
0000b0 62 2a 83 bc c5 ce d9 bc f3 1c d8 3c 25 5f c0 bc
       -0.01601142 -0.026587853 0.026380992 -0.023482868
0000c0 12 65 58 bc a7 27 8c bc 4c 1f b7 bc b8 45 81 3d
       -0.013207691 -0.017108751 -0.02235379 0.06312126
0000d0 61 7e a6 3d 1a 9a 59 3d 00 5f b4 3b 25 8b 23 3e
       0.081295736 0.05312548 0.005504489 0.15971048
0000e0 00 f8 ef 3d 6d 64 e5 3d 21 ba 2f 3e 7c b1 83 3d
       0.11717224 0.11200795 0.17160846 0.06430337
0000f0 2a fe 0e 3e 93 1f f3 3d 91 52 35 3e 76 0c f9 3d
       0.13964143 0.11871257 0.17707278 0.1216058
000100 07 c7 01 3d ec 5b 05 3e 3a e8 54 3e 9e bc c8 3d
       0.031683948 0.13023347 0.20791712 0.09801601
000110 f8 b8 c0 3d 5e cb b2 bd f9 6a 46 bd 9e eb 9e bd
       0.0941028 -0.087301955 -0.04844186 -0.07759784
000120 4c 90 ab bd 4f b0 ae bd 7a 6f e4 bd ba e7 61 3e
       -0.08377132 -0.08529722 -0.11154075 0.22061053
000130 45 6a 52 3e be 1a 04 3e b3 1f 13 3c a1 8f 7c 3c
       0.20548351 0.12900826 0.008979726 0.015415103
000140 98 6e cf 3e 43 7d cb 3e 92 2b 59 3e e4 9c 8e 3d
       0.40514064 0.39744005 0.21208027 0.06963518
000150 f3 7f b7 bc 92 57 0c 3e d3 bb d5 3c 1a 14 fb bd
       -0.022399878 0.1370528 0.026090538 -0.122596934
000160 c1 8f b1 bd 7e 26 f0 bc 82 ea 38 bd df 1b bf bb
       -0.08669997 -0.02931523 -0.04514552 -0.00583218
000170 b2 79 2c bd 7b fa a1 3c 98 1b b9 bc 8a 49 b8 bd
       -0.042108245 0.019772759 -0.022596166 -0.089984015
000180 37 b3 97 3b 27 89 49 3b de f5 06 3e c7 dc f9 3c
       0.0046295184 0.0030751915 0.13179728 0.030500783
000190 76 6a b7 3d 3a ba f7 3c 15 ac 4c bc 59 97 50 bd
       0.08955853 0.030240167 -0.012492199 -0.050925586
0001a0 24 21 ff bc 08 87 4e bc 85 d4 03 bd 60 9c 83 bd
       -0.031143732 -0.012605436 -0.032185096 -0.064263105
0001b0 3e 44 86 bd 91 c6 8c bc ad b6 30 3d ad be 58 bc
       -0.06555985 -0.017184528 0.043142963 -0.013229054
0001c0 6c df 52 bc c4 6f 64 bd b5 92 e8 3c cb 2d 5d 3c
       -0.012870651 -0.05577065 0.028390268 0.013499687
0001d0 ce 3b 93 bc 7e 7b 8c bd 70 57 5a 3d a9 75 6d 3c
       -0.017972853 -0.06859492 0.053306043 0.014493384
0001e0 da 0e 9a 3c 30 08 42 3c de 16 ac bd d3 83 3d bc
       0.01880591 0.011842772 -0.08402799 -0.011567074
0001f0 82 8f 63 bc 8b f8 b3 3c 44 e1 09 bd 98 6f 12 3d
       -0.013889195 0.0219691 -0.033662096 0.035750955
000200 ad b9 08 3c b9 ec 06 bd c3 a8 25 3b 03 81 10 bd
       0.00834505 -0.0329406 0.0025277592 -0.035279285
000210 52 38 b3 3b 5e 26 c3 3c 20 ab 4e 3d e9 22 23 bd
       0.0054693604 0.023822006 0.050456166 -0.039828215
000220 c9 26 52 bb f4 71 2d 3d ac 21 91 3c f6 73 76 bc
       -0.0032066575 0.042345002 0.017716251 -0.015042296
000230 26 e7 21 bb 97 67 10 3c 33 ac 39 bd de 7b 81 bd
       -0.0024704426 0.00881376 -0.045330238 -0.06322454
000240 a2 d5 75 bc d7 d8 ec bc f1 68 ba 3c 2d 97 f3 bc
       -0.015004547 -0.028911991 0.022755118 -0.029735172
000250 08 27 d2 3c bc 6c 77 bd b0 e3 4f 3e 74 a2 6c 3e
       0.025653377 -0.06040643 0.203017 0.23108846
000260 3f b0 2b 3e 4d 89 d1 3c 0b 9f 05 bc 9e b5 76 3d
       0.16766451 0.025578165 -0.008155595 0.060231797
000270 3c 1f 25 3d ef 4c c1 bb 7b 7b 96 bd 1f c2 b5 bd
       0.04031299 -0.005899064 -0.07347771 -0.08874916
000280 29 e0 4d bd 9f 8f 64 bd d5 71 5d bd cf f6 cf bc
       -0.050262604 -0.05580103 -0.054063637 -0.025386242
000290 99 ca 3d 3d 60 2e 90 bd 90 b1 f1 bc 84 da 9f bc
       0.04633579 -0.07040095 -0.029503614 -0.019513376
0002a0 bb 69 f2 3c 13 93 90 bc 69 34 3f 3c 2e be fb bc
       0.029591432 -0.017648255 0.01167021 -0.030730333
0002b0 42 62 c0 bb 15 fa f8 bc ac e7 90 bc 0f fb 21 3e
       -0.0058710882 -0.030392686 -0.017688595 0.15818428
0002c0 75 42 3d 3e d8 00 14 3e 1a d4 83 3d 32 48 8a 3b
       0.18482383 0.14453447 0.064369395 0.004220032
0002d0 eb 53 ea 3d c2 1e db 3d a9 e2 53 3d bc ca b4 bb
       0.11441787 0.10699226 0.05172983 -0.005517332
0002e0 3e 59 45 3c 8e 29 25 bd 51 3a 9f bd d9 6d 92 bd
       0.012045203 -0.040322833 -0.07774795 -0.07149858
0002f0 51 41 11 3b a2 30 f8 3c d7 6e 81 bd fa b0 65 bc
       0.0022164176 0.030296627 -0.06319969 -0.014019245
000300 65 bc b7 3c fa 6a 21 3c 75 ba 81 3c 24 40 a6 3c
       0.0224287 0.009852165 0.01583598 0.020294257
000310 8e a0 f8 3c d7 e9 e6 3c cb bd 89 3d 5a 44 2c 3d
       0.030349996 0.028187675 0.06725653 0.042057373
000320 d4 f7 87 bc 42 b9 84 3b 41 af 0e bd 2f cf 3b 3b
       -0.016597666 0.0040504048 -0.034835104 0.0028657427
000330 e7 bc 3b bd ca ed 05 bb c6 86 45 3d 1f a8 a6 3d
       -0.04583445 -0.0020435923 0.048224233 0.08137535
000340 98 59 73 3d 12 0a 07 3d 63 62 84 bd 4b 86 2a 3d
       0.059411615 0.03296859 -0.06464078 0.041631978
000350 e4 8c 1a 3e ac 48 e7 3c 34 a5 24 bd 67 77 56 bd
       0.15092808 0.028232895 -0.040196612 -0.052359965
000360 63 1d 87 3d c2 1b a3 3c 84 d2 34 bd 85 22 a3 bd
       0.06597402 0.019910697 -0.044146076 -0.079655685
000370 1f 41 63 bd c7 8d 68 39 7d e6 a3 bd ed fa 05 bd
       -0.055482026 0.0002217806 -0.080029465 -0.032710005
000380 54 42 e4 bd 6d 3a 9d 3d 6a 66 3e 3e 2d a3 0e 3e
       -0.111454636 0.076771595 0.18593755 0.13929434
000390 62 6e 1c 3e ff b8 45 bd 2c 80 ab 3e 37 ce e7 3e
       0.15276483 -0.04827213 0.33496225 0.45274517
0003a0 8b 36 b2 3e 3f 05 6c 3e f5 df 5d bd 8e 8e d0 3d
       0.34807238 0.23048876 -0.05416866 0.1018344
0003b0 da e4 02 3e 91 f2 b6 3c 0a 30 57 bd 7d a4 1a be
       0.12782612 0.022332462 -0.052536048 -0.1510181
0003c0 63 c0 f4 3c e8 f6 84 3c e2 9d 88 bd 62 e0 1e 3d
       0.029876893 0.016231015 -0.06670739 0.038788207
0003d0 28 4f a6 3b 04 6c 87 bd c7 f0 96 bc 82 25 c2 3d
       0.005075354 -0.06612399 -0.018425358 0.0947981
0003e0 06 bb 85 3d 72 81 c5 3d cd 27 50 3e 27 66 77 3e
       0.065298125 0.0964383 0.20327683 0.24160062
0003f0 7e f1 b3 3d b8 39 c3 3d a5 1e 15 3d 17 9a fe 3d
       0.08786295 0.09532493 0.036406178 0.12431734

4 f4 [32]
000000 0c 57 0a 3c 7a 61 c0 3d d5 c3 bf 3d 92 c8 1f bd
       0.008443605 0.09393592 0.09363524 -0.039009638
000010 78 28 01 bd 46 6e ea 3c 21 1d 8b 3d 8e d2 a1 bd
       -0.031532735 0.028617036 0.06792665 -0.07901488
000020 74 75 8f 3d 58 19 10 bd b6 de e0 3c 47 62 c0 3d
       0.07004824 -0.03518042 0.027449947 0.09393745
000030 c4 0e 16 3d d6 4e 9a bd 93 4a 8b 3d c5 4a 6f 3c
       0.036635175 -0.07534568 0.06801333 0.014605229
000040 5d 91 78 3c de fe 9a bd 32 7f 90 bd 4a cd 8b 3c
       0.015171376 -0.07568143 -0.070555106 0.017065663
000050 4d f9 a7 bd 38 e5 f2 3b 9c a0 3a bd bf 7c 9e bd
       -0.08201847 0.007412579 -0.045563325 -0.07738637
000060 9a fd bb 3d 3d 23 68 3d 2d a5 32 bc ba cf b1 bb
       0.0917923 0.05667423 -0.010903639 -0.0054263743
000070 b5 1b 19 bd 37 42 85 bc 7f df 58 bd 0d dc 68 3d
       -0.03737994 -0.016266925 -0.052947517 0.05685048

5 f4 [100, 1568]
000000 81 66 03 3d 79 0c 8d 3c fd 5d 2a bc 1d 25 14 bc
       0.032080177 0.017217861 -0.010398385 -0.009042052
000010 e4 17 bd bc 2b 92 c4 3c 6a ec 5c bb af 31 09 bc
       -0.023082681 0.02399548 -0.003371025 -0.008373662
000020 7d 0e e4 bc f6 13 d1 bc b4 e2 9f 3b 53 98 17 bc
       -0.02783894 -0.025522213 0.00487932 -0.0092526255
000030 e0 23 2c bc b6 41 a2 bb 27 9e 99 bc af d6 9e 3c
       -0.0105066 -0.004951681 -0.01875217 0.019389478
000040 f5 6c c7 3c f7 40 d6 3c b7 5f fb 3c 1f 87 83 bb
       0.024343947 0.026154025 0.030685289 -0.0040139104
000050 28 30 06 bc c9 44 90 bc 66 b9 aa bc 08 bb 8a bd
       -0.008190192 -0.017610924 -0.020840358 -0.06773955
000060 25 f8 3c 3c 8c 1e 6b 3d 59 c0 a2 3c ae 73 89 3c
       0.011533772 0.05740218 0.01986711 0.016778793
000070 b8 20 9e 3c 9a 70 7b bc c1 14 30 bd 67 9b 39 bd
       0.01930271 -0.0153466705 -0.042988542 -0.04531422
000080 de 18 87 3d f5 d3 8d 3d b0 69 14 3d 86 51 b7 3b
       0.0659654 0.06925193 0.036233604 0.005594435
000090 ad a4 9d 3c 57 6d ec 3b 64 ef a7 bc d3 9f 1a bb
       0.019243563 0.0072151828 -0.020499893 -0.0023593798
0000a0 70 07 1a bc 1b 70 bb 3c ac 9c fc 3c 9d d6 cb bb
       -0.009401187 0.022880604 0.030836426 -0.0062206523
0000b0 fc 06 dd 3c b7 b6 15 3d 63 9d e3 bc a0 cd 3e bd
       0.02698087 0.036551204 -0.027785009 -0.046582818
0000c0 85 14 da bb 38 cc 72 3c e1 6f ea 3b 88 42 ec 3c
       -0.006655278 0.014819197 0.0071544503 0.028840318
0000d0 be f4 20 3d 15 c4 67 3c 4d e5 37 bc c0 3c 36 3c
       0.039295904 0.014145871 -0.011224103 0.011122882
0000e0 51 ea 06 3b 6a e5 a1 bc f9 cf 0f bc ec c2 14 3c
       0.002058644 -0.019762713 -0.008777612 0.009079676
0000f0 55 0c 36 3a e5 d1 1b 3c 59 7f 56 3b 45 b6 a3 3c
       0.00069445866 0.009510492 0.0032729714 0.019984374
000100 93 6d 0d ba 90 97 56 b7 9a aa 1a 3c 1b 88 dd 3c
       -0.0005395051 -1.2790682e-05 0.009440089 0.02704244
000110 2e 73 80 3c 2c 55 e4 3a 6b a8 19 3b 7c 23 2c bc
       0.015679922 0.0017420403 0.0023446332 -0.010506507
000120 ba 42 48 38 cc ff 1f bc fc df f1 3c c7 fd 54 3c
       4.774586e-05 -0.009765577 0.02952575 0.012999958
000130 17 47 60 3c 87 01 0c bc dc 33 06 3a 71 79 c3 bc
       0.013688824 -0.008545286 0.0005119422 -0.023861619
000140 90 c6 bd 3b d7 b2 01 bb e4 ab b8 3c 7f f7 cc bc
       0.0057914928 -0.0019790435 0.022542901 -0.02502036
000150 25 e2 8b 3c 22 2a e8 3b d2 1b 36 3b b3 a4 98 3c
       0.017075608 0.0070851007 0.0027787578 0.018633222
000160 2a 1c 00 3c a2 b2 77 3c 3e 19 6d bc ef 7f b7 3c
       0.007819215 0.015118273 -0.01447135 0.02239987
000170 e3 44 e5 3c 13 8c 3b bc 4f 81 5b bc cd 90 16 3b
       0.02798695 -0.0114469705 -0.013397529 0.0022974492
000180 57 67 a9 bc 21 9b 83 bc b0 1e 73 3a 2b 46 bc 3b
       -0.02067916 -0.016065182 0.0009274287 0.0057456694
000190 96 a7 4f 3d 7d bc c3 3c 7f 83 a0 3b 1d b4 f1 bc
       0.05069693 0.02389359 0.004898488 -0.02950483
0001a0 e5 b1 90 3c 7c f1 ad bb b9 c7 8f 3c dd a2 b0 3c
       0.017662952 -0.005308328 0.01755129 0.021562034
0001b0 b8 86 23 3c 71 a1 80 3c ed ed c3 3a c5 36 af bc
       0.00998085 0.015701981 0.0014948227 -0.02138842
0001c0 6e b7 ba bc 5a 13 4b bd 92 10 9e bc 9a a1 28 3d
       -0.022792544 -0.049579002 -0.01929501 0.04116974
0001d0 f8 d6 83 3d 49 4e 3f 3d 74 4a 70 3c c8 1e c2 3c
       0.064374864 0.046705518 0.0146661885 0.023696318
0001e0 a3 04 92 ba 4b 8e 98 3c 6b 71 c3 3b 56 73 cc 3c
       -0.0011140298 0.018622538 0.005964448 0.02495734
0001f0 06 51 34 3d 74 0c 8a bb 9a 2d 00 bc 6c 23 5c 3a
       0.044022582 -0.0042129103 -0.007823372 0.0008397612
000200 b4 16 6b 3c 3c e9 5d 3b 7c 2a f8 bc 8f b4 20 bd
       0.014348675 0.0033860942 -0.030293696 -0.039234694
000210 01 42 e6 bc 6b 00 01 bb 23 fd 5b bc 3a ce fc 3c
       -0.028107645 -0.0019684087 -0.013427052 0.030860055
000220 ba 1d ce 3c 4d 6f 93 bb 88 0c 84 3a 23 03 dd ba
       0.02516066 -0.004499352 0.0010074535 -0.0016861897
000230 e2 68 5c 3c cd 5d b1 3c 60 17 0b 3d c4 43 5e b9
       0.01345274 0.021651173 0.03395784 -0.00021196814
000240 78 59 73 bb cc 5c a1 3c 41 36 80 3b 26 2f b9 3c
       -0.0037132185 0.01969757 0.0039127176 0.02260549
000250 18 81 8b 3c e4 24 a6 3c c2 c7 d3 3b 22 16 01 bd
       0.01702933 0.020281263 0.006463022 -0.031515248
000260 66 0b 0c 3c 87 bf 0a 3b 80 8b 87 bb 15 85 ad 3b
       0.0085476395 0.0021171288 -0.0041365027 0.0052954056
000270 3f 59 59 3c 20 20 a4 bc 01 ef d5 bb 51 e1 fb bc
       0.013265907 -0.02003485 -0.0065287356 -0.030747088
000280 aa 17 89 3c d8 b4 af bc 7b 84 21 bd da c3 75 bc
       0.016734917 -0.021448538 -0.039432984 -0.015000308
000290 cd 6b 87 3d 18 67 0a 3d 51 3e 53 bc 52 d0 a0 3c
       0.06612358 0.033789724 -0.012893275 0.019630585
0002a0 11 30 4a bd 3c 32 9a bd 2f 91 6c bd 10 0b 73 3d
       -0.049362246 -0.07529113 -0.057755645 0.059336722
0002b0 44 d7 a2 3d 8a 38 16 3d d3 81 a1 3c 62 46 26 bc
       0.07951215 0.036675014 0.019715225 -0.0101486165
0002c0 97 80 65 bd 6a 1a 85 bc a5 5f c0 bb 26 24 51 3b
       -0.056030836 -0.016247947 -0.0058707767 0.0031912415
0002d0 a5 23 8d 3c 80 8b b2 3a 33 63 49 3c d6 97 0b 3d
       0.01722891 0.0013621897 0.012291717 0.03408035
0002e0 86 59 d9 3c ca e8 6e 3c 97 36 5e bd d2 d9 05 bd
       0.026531946 0.014581868 -0.05425128 -0.032678433
0002f0 aa 0f 5c ba 94 b8 e1 3c 0f 82 07 3d 9d c3 0a 3d
       -0.0008394668 0.027553834 0.033083018 0.033877958
000300 26 a4 07 3d f9 b1 1a 3c 5a 99 2b bc 42 01 a0 bb
       0.03311553 0.009441846 -0.010473574 -0.0048829624
000310 89 1e 69 3c 46 29 6c 3c 1e 62 a8 bc c3 53 ce bc
       0.014228472 0.014414137 -0.020554598 -0.025186425
000320 28 47 b2 bc b6 5a 95 bc 53 e6 f2 bc dd ca 02 3d
       -0.021762446 -0.01823173 -0.029650843 0.031931747
000330 98 6d d1 bc 71 f4 bf bb 40 c3 7b 3b 80 da bf bc
       -0.025564954 -0.005857997 0.0038415939 -0.023419619
000340 8a ee da bc 91 a2 aa bc ab 40 14 bc 03 82 df bc
       -0.026725072 -0.02082947 -0.009048621 -0.027283674
000350 96 8a 82 bc 78 cc a0 bc 30 f1 47 3d 92 a7 87 3c
       -0.015935224 -0.019628748 0.048814 0.016559396
000360 9d b2 15 bd 60 5d 6a bc 7d 23 7f bc 9e 21 72 bd
       -0.036547292 -0.014304489 -0.015572426 -0.05911409
000370 15 28 00 bb 3b ec c1 3d 61 94 8e 3d 90 7e 0b 3d
       -0.001955514 0.094688855 0.06961895 0.034056246
000380 b0 ba 16 bc 37 82 46 ba be c4 80 bc 6e 33 fb ba
       -0.009199783 -0.0007572504 -0.015718814 -0.0019165108
000390 ba f1 9c 3b 8e 65 60 3d 79 5a 36 3d fa 19 58 3a
       0.0047895582 0.05478435 0.044519875 0.0008243617
0003a0 fa ea 52 3c b3 eb d9 3c 18 ca 21 3d ee b1 3f bd
       0.012873406 0.026601648 0.039499372 -0.046800546
0003b0 07 a3 49 bd 04 2b 1a bd d9 12 b8 3c 46 42 10 3c
       -0.04922774 -0.03763868 0.022469925 0.008804863
0003c0 9d f7 db 3c d5 8e d2 3c 28 f1 8b 3c b7 73 ce bb
       0.02685147 0.025702873 0.017082766 -0.0063004154
0003d0 10 b3 ad bc 16 a2 d6 bb 49 9a 94 3b a7 ec bc 3b
       -0.021203548 -0.006550084 0.004534994 0.005765516
0003e0 80 26 8d 3c 5d 09 ee bc fe d3 1e bd 89 6c aa 3b
       0.017230272 -0.0290572 -0.03877639 0.0052009267
0003f0 0a 5c ba 3c 0d 46 20 3d 09 0b 91 3c 53 d4 dd 3c
       0.022748966 0.039129306 0.017705457 0.027078783

6 f4 [100]
000000 86 ff e5 3c da 1f bd 3b f5 2a 2d bc 8c ea df 3c
       0.028075945 0.0057716193 -0.010569324 0.02733352
000010 df 0d 1f 3c 58 cf 29 bc c7 4c 3e 3d 2a 43 9b bc
       0.009707897 -0.010364376 0.04645994 -0.018952925
000020 2a 80 9a bb 5e 9d 11 3c 0b a7 46 3c f3 19 bb 3c
       -0.0047149854 0.008887617 0.012124787 0.022839522
000030 b7 1a 6c 3c b3 a8 19 bc c3 9b f0 3c ac 9e 23 3d
       0.014410666 -0.0093786 0.029371148 0.039946243
000040 55 ab 43 3d af e6 fa 3c 2c a8 7e bb 80 e1 35 bc
       0.047770817 0.030627577 -0.0038857562 -0.011101127
000050 eb 8e 08 3c 88 3f e5 bc db 70 27 3d 24 39 8c 3c
       0.008334856 -0.027984396 0.04087911 0.01711709
000060 c0 34 87 3c 3a d0 62 bd ee ec 41 3b 0d ab 48 3c
       0.016504645 -0.05537436 0.0029590684 0.012247813
000070 1a a8 16 3c df de 57 bc 9e 4b 00 3d 9d c4 a5 3c
       0.009195352 -0.013175695 0.031322114 0.020235354
000080 2e 2a 9a 3c 02 32 d6 3c 0e d3 4a 3c a9 47 30 3d
       0.018818941 0.026146892 0.012379421 0.04303709
000090 dc 76 be ba 55 c0 dc 3b ab 92 bd 3b b5 1b c8 bc
       -0.0014531272 0.006736795 0.0057853064 -0.024427274
0000a0 89 37 0c 3c 34 cb c3 3b 21 0e f7 bc 73 e8 8f 3c
       0.0085581625 0.0059751514 -0.030158104 0.017566895
0000b0 71 c5 b8 bb 5c 3c 9d bc a9 85 f8 bc bb 24 66 3c
       -0.005638771 -0.01919382 -0.030337172 0.014046843
0000c0 e8 7f ce bc 1c 59 cb bb 78 cb 15 bc 2d 37 98 bb
       -0.025207475 -0.006205691 -0.009142749 -0.0046452493
0000d0 5b ca 8e 3c 18 9d cf b9 0e 7b 16 3c 1a fa 3f 3d
       0.017430475 -0.0003959916 0.009184612 0.046869375
0000e0 39 82 00 3c 50 c1 44 bc 41 8a 2b 3d fa e3 07 3d
       0.0078435475 -0.01200898 0.041879896 0.0331764
0000f0 7a b4 8f 3c 52 0b 29 3b 5f 7d 18 ba eb 29 d1 bc
       0.017542113 0.00257941 -0.00058170216 -0.025532683
000100 f0 52 9b bc 87 f9 96 3a 61 43 1c bb 85 ce 1e 3d
       -0.018960446 0.0011518457 -0.0023843872 0.03877117
000110 83 46 84 3a 5d a1 1d bd e7 2e 54 bc 89 79 03 3d
       0.0010091815 -0.038483966 -0.0129506355 0.032098327
000120 ca fb 09 3c c9 e4 14 bc 52 24 95 3c 4d 06 19 3d
       0.008421848 -0.00908775 0.018205795 0.037359525
000130 cf 91 df ba f2 56 70 3c 9d ec 8b bc 69 a2 4d 3c
       -0.0017057004 0.014669167 -0.0170806 0.012550929
000140 83 ae c8 3b a2 d5 a6 3b d1 eb 83 3c 58 c0 15 bc
       0.006124319 0.005091385 0.016103657 -0.009140097
000150 41 5b 58 3a 1e b6 1b 3d ce c7 ff bc e9 7e 00 bc
       0.0008253344 0.038015477 -0.031223204 -0.007842758
000160 5d 37 9d 3b 9e cf 98 3b b4 8a 73 bc 98 39 de 3c
       0.0047978596 0.004663422 -0.014864612 0.027127072
000170 21 12 1d bc e9 5c 35 bb 49 a3 a3 3c d9 d6 00 3d
       -0.009586842 -0.0027673787 0.019975321 0.031454895
000180 20 42 02 bc 30 57 a9 3c a9 5a 19 bd f9 a4 3d bb
       -0.007950336 0.020671457 -0.037439976 -0.0028937443

7 f4 [37, 100]
000000 21 50 18 bb e4 33 b0 3d c3 50 b6 bd 47 50 1b 3e
       -0.002324112 0.08603647 -0.08902123 0.15167342
000010 55 d5 87 bc fa 50 f3 3c eb d9 c9 3c 8c 3b ae bc
       -0.016581217 0.029701699 0.024640044 -0.021268629
000020 4a 75 cc bd ce a0 05 be 0b 56 d0 3c d8 b6 d1 bd
       -0.099833086 -0.13049623 0.025431653 -0.10239953
000030 a3 9c 51 bd 21 d8 21 bc c5 b9 40 3b 0c 7b f2 bd
       -0.05117477 -0.009878189 0.0029407602 -0.118398756
000040 a0 09 6d 3d 3e e2 4d 3d 4d 4b 92 bd d4 29 d7 bd
       0.057870507 0.05026459 -0.07143269 -0.10506025
000050 6d 52 d0 3d 2c e5 42 3d f1 82 85 3d 45 60 31 3d
       0.101719715 0.047581837 0.06519116 0.0433047
000060 63 64 31 be df 9b 4c bd fb c3 bf 3d 63 5e 30 bd
       -0.1732345 -0.049953338 0.09363552 -0.043058764
000070 09 62 a0 bd 07 7c fc bc 88 d1 1d 3d b4 fa 86 bd
       -0.07831199 -0.03082086 0.038529903 -0.065907866
000080 d2 6b 8a 3d 62 12 b9 3d b8 1e d6 3a 05 80 2e 3d
       0.06758846 0.09036709 0.0016336059 0.042602558
000090 d8 ce c9 bd 42 ef 47 3d d0 15 e9 bd bf 04 a0 3d
       -0.098539054 0.04881216 -0.113811135 0.07813405
0000a0 c7 98 d4 bd 55 50 a1 bd 65 f8 18 be a4 b4 80 bd
       -0.103807025 -0.0787665 -0.14938505 -0.062844545
0000b0 52 f4 1d be b2 22 60 3c 43 df 02 3d 37 91 d1 bd
       -0.15425232 0.013680147 0.0319512 -0.10232776
0000c0 06 47 23 be bf be 01 3e f0 98 21 be ad fd 93 bd
       -0.15945062 0.1267042 -0.15780997 -0.07226119
0000d0 f8 cd c9 bc 8c 7d 8f 3d f3 06 3c bb f6 57 b8 bc
       -0.024634346 0.07006368 -0.0028690665 -0.02250288
0000e0 aa 15 5e bd 79 c6 c7 bc 1f 20 5d 3d 97 ed 47 be
       -0.05421988 -0.024386631 0.05398571 -0.19524227
0000f0 c5 fe b5 bd 80 56 73 bc d4 47 f1 bd 09 67 26 3d
       -0.08886484 -0.014852166 -0.11781278 0.040625606
000100 69 a8 85 bc 71 52 31 3d 37 0c 3d bd 0c 78 99 3d
       -0.016315656 0.043291513 -0.046154227 0.074936
000110 36 25 85 3c a8 d5 18 3d 6f 8e c8 bd 55 30 e3 3d
       0.016253095 0.037313133 -0.09792792 0.11093203
000120 37 00 c1 bd 05 f2 09 bd 17 d2 0c bd 0b ee b6 bc
       -0.09423869 -0.033678073 -0.034380045 -0.022330305
000130 c7 42 76 bd d2 13 bd 3d f1 e4 b9 bc 36 ad 22 3d
       -0.060122278 0.09232296 -0.022692176 0.039715968
000140 4d 96 90 bb df 3a f3 3d be 9a c2 bb 53 35 94 bc
       -0.0044124485 0.11876463 -0.005938857 -0.018091833
000150 0f 69 41 bd c3 e9 ad 3d cc 48 89 bd d4 8f 8c bd
       -0.047219332 0.08491852 -0.06703338 -0.068633705
000160 56 6f b6 bd c9 f1 df 3d b0 de d5 bc 81 8e cf 3d
       -0.089079544 0.10934789 -0.026107162 0.10134602
000170 8d 7e 24 3d c9 12 76 3c 8e 39 a9 3d 0d a2 be 3d
       0.04015975 0.015019127 0.08262931 0.093082525
000180 30 10 d7 bb 42 11 7a bd 95 3f 47 bd e5 39 a0 3c
       -0.006563209 -0.061051615 -0.04864462 0.019558856
000190 07 5f 8e bd 0d da 06 bd af ae d1 bd 8e de ef 3d
       -0.06951719 -0.032922793 -0.102383964 0.11712371
0001a0 1d 76 10 be da 54 86 3d 9e ae cc 3d ec c2 64 3c
       -0.14107557 0.06559153 0.09994243 0.013962489
0001b0 5b c3 84 3d db 2a 73 bc 09 36 b3 3d 9f 14 97 3d
       0.064825736 -0.0148417605 0.08750541 0.0737698
0001c0 1b 47 83 3c 98 f4 b1 bd f7 72 16 be 3d 05 d3 3c
       0.016025117 -0.08689231 -0.14692293 0.025759334
0001d0 96 fb 0f bc 07 43 8d bd 9c d0 64 3d ee f3 44 3d
       -0.00878801 -0.0689755 0.055863008 0.048084192
0001e0 2e a3 6d bc b6 45 b6 3d 07 c7 ef 3d e4 97 d0 bd
       -0.014504237 0.08900015 0.11707883 -0.10185221
0001f0 b0 f5 c8 3c c8 84 9c 3d cd c0 e1 bd 53 46 fd 3c
       0.024531215 0.076425135 -0.11023102 0.030917322
000200 7d 24 2a 3d 85 dc b8 3d 03 10 be 3c dd e1 8d 3c
       0.041538704 0.09026436 0.023200994 0.017319614
000210 fb 18 26 3d 3d 14 a9 3d f3 4b 77 3d 63 9d 9b bc
       0.040551167 0.08255813 0.060375165 -0.018995946
000220 92 2a 24 bd b4 68 ab bd 3a ff 1e be ec 78 27 3d
       -0.04007966 -0.0836958 -0.15527049 0.040886804
000230 eb 44 ce bc ae 87 9f bd 67 be a8 bb 82 0d 85 bd
       -0.025179347 -0.07789551 -0.005149651 -0.06496717
000240 58 40 d2 bd 00 ae 5f 3b 41 86 2e bd be c5 de bd
       -0.10266179 0.0034130812 -0.042608503 -0.1087756
000250 1a 07 88 bd 13 65 f6 bb c2 72 41 bd e4 26 ec 3c
       -0.066419795 -0.007519373 -0.047228582 0.028827138
000260 73 11 68 3c fb a4 1c be 69 d4 26 be 5f 18 cf 3d
       0.0141643165 -0.1529731 -0.16291966 0.1011207
000270 ad 13 ec bd 33 ef b3 bd cf 22 bb bd 53 60 56 be
       -0.1152719 -0.08785858 -0.091374986 -0.20935182
000280 db 89 85 3d ad 68 9f bd e8 e3 13 bd e0 51 c0 bc
       0.065204345 -0.07783637 -0.03610602 -0.023476541
000290 cf ee 5c 3c 3e 5e 90 3d 86 c9 9c 3d 77 0a 49 bd
       0.013484671 0.07049225 0.07655625 -0.049082246
0002a0 4a 53 83 3c c4 ab f3 3c 3a 28 2d 3d ca 91 ef 3d
       0.016030926 0.02974499 0.04227469 0.11697729
0002b0 12 19 5e bd 62 a5 22 be d4 69 b1 bd e6 1c bf bd
       -0.054223128 -0.15883401 -0.08662763 -0.09331684
0002c0 30 16 3a 3c 4b 18 c1 3d 63 58 a5 3d 54 65 00 3c
       0.011357829 0.09428462 0.08073499 0.0078366585
0002d0 51 c1 e3 3d 87 56 d9 3c db 20 15 be 70 fd 91 bd
       0.111208566 0.026530517 -0.14563315 -0.071284175
0002e0 8f a0 54 3d 87 5a 7e bd a0 18 71 bd 39 f7 23 3d
       0.051910933 -0.062098052 -0.058861375 0.04003069
0002f0 65 0c 16 be 37 d7 b4 3d e7 da 09 ba a6 54 c6 bb
       -0.14653166 0.088301115 -0.0005258754 -0.0060525713
000300 d8 3b 27 bd 4d 60 57 b9 ba dd 9d 3d b9 13 a3 bc
       -0.040828556 -0.00020539873 0.077083066 -0.019906865
000310 70 86 2d 3c 08 df f1 bd 62 4e 98 bd a4 63 10 3d
       0.010591134 -0.11810118 -0.07436825 0.035251275
000320 a8 ab 3a bd c1 0d fc 3d 49 ab 04 3c 2f ca dd 3d
       -0.04557386 0.12307311 0.008097478 0.10829579
000330 63 c3 07 be 39 ae 73 bc f3 3d 11 3d ed 84 c0 bd
       -0.13258128 -0.014873081 0.03545947 -0.094003536
000340 2e f5 4b be 32 b8 28 bd 1f 30 69 bc f5 5c d0 bd
       -0.19917747 -0.041191287 -0.014232664 -0.1017398
000350 3d 06 9b bc 5e 6f d0 bd b9 b6 c0 bc 1e 02 0f be
       -0.018923873 -0.101774916 -0.023524629 -0.13965651
000360 f0 4e 85 3d 79 f2 aa bd ab 35 1f be a2 45 9e bc
       0.06509197 -0.08347029 -0.15547816 -0.019320313
000370 1b 16 8a 3d 04 2d b8 ba 2e 57 83 3d d1 ed 9e bd
       0.067424975 -0.0014051502 0.064131126 -0.07760204
000380 d7 8c a6 bd 25 94 44 ba 64 72 44 3d e1 a6 1a 3d
       -0.08132332 -0.0007498882 0.047960654 0.037756804
000390 d5 8e 4a 3d c6 ab 25 3d 69 86 a8 3d 7f bf a9 bd
       0.04945262 0.04044702 0.08228762 -0.08288478
0003a0 e1 dc 09 be 0c 57 c0 bb 79 ae fb bb 78 20 b2 3c
       -0.13463165 -0.005869752 -0.007680711 0.021743998
0003b0 a6 91 aa bd 29 d3 8a bd 33 cb fa 3d 50 6d f4 3c
       -0.083285615 -0.06778557 0.122457884 0.02983728
0003c0 74 6c eb 3c 1d 72 a1 bc 49 d7 19 3d d7 ab 87 bc
       0.028738238 -0.019707734 0.037558828 -0.016561432
0003d0 b0 2d 7f bd ef 20 69 3c 40 6b 33 3d 93 8c 43 bd
       -0.06229943 0.014229043 0.043803453 -0.047741484
0003e0 db 93 c5 bd 38 a5 88 3d f1 f8 96 3d 62 0d 5c 3d
       -0.09647342 0.06672138 0.073717006 0.0537237
0003f0 9c 32 f2 bb e6 3e c9 3d fc 28 97 bd 0b 29 2f 3d
       -0.007391287 0.0982645 -0.07380864 0.04276375

8 f4 [37]
000000 71 44 bd 3d a3 a1 84 3d bf 15 8e 3d d9 34 4f bd
       0.0924157 0.06476142 0.069377415 -0.05058751
000010 dc c4 3d 3c c4 fe 9f 3d 13 9b 81 bd 93 ce 9c bd
       0.011582579 0.078122646 -0.06328406 -0.076565884
000020 1b 66 a2 bd 35 8c 48 3d 7f 5f 28 3d 28 61 2d bd
       -0.07929631 0.048961837 0.041106697 -0.042328984
000030 35 d5 cd 3c 88 4c 92 3d 34 0d 53 3b 9f e7 86 3c
       0.02512608 0.071435034 0.0032203915 0.016467867
000040 82 f2 73 3d ca db 8e bd c6 e7 3e 3d 3b 14 dc 3c
       0.059557445 -0.06975515 0.046607755 0.026865115
000050 32 8a ed 3c 0c 5b a2 bd f3 ac 70 3d 60 0f a4 bd
       0.02899656 -0.07927522 0.058758687 -0.08010745
000060 8e 99 32 3c b0 59 f3 bc 31 15 95 bd 96 a8 b1 3d
       0.010900868 -0.029705852 -0.072794326 0.08674733
000070 0a 80 41 3d f1 c9 43 bd dd af a4 bd 91 81 bb b9
       0.04724125 -0.04780001 -0.08041356 -0.00035763954
000080 b0 78 92 3c 9f db 43 3d dc 1d 70 bd 13 32 d6 bd
       0.017879814 0.04781687 -0.058622226 -0.1045877
000090 f0 f5 e4 bc
       -0.027949303
